checkpoints/intersectionB/train_best.pth (torch_old, 133683 bytes, 81 tensors)

sparse_weighted_adjacency_matrices.spatial_attention.embedding.weight f4 [64, 2]
00000000: d35e 0100 0b08 0380 05c4 0000 1505 0180
00000010: 8445 0100 875a 0180 21a4 0000 8048 0180
00000020: 3577 0200 7551 0200 ca55 0400 13a6 0300
00000030: 67f3 0000 d058 0400 25b8 0180 a256 0000
00000040: 6ebb 0100 f453 0200 f77d 0200 b8b7 0180
00000050: 8b65 0400 197a 0280 8cdc 0080 076f 0180
00000060: c5d4 0180 ab9f 0200 5a73 0380 faa1 0000
00000070: ff99 0000 0d70 0280 fd85 0000 75f5 0000
00000080: 2f39 0080 0f2d 0280 0cd0 0100 27e7 0000
00000090: 4e18 0400 dbfc 0180 8947 0400 366a 0280
000000a0: 4962 0080 74d1 0080 cd8b 0080 2a01 0400
000000b0: 3259 0200 0832 0480 b55f 0480 3d0e 0280
000000c0: c76a 0200 74cc 0280 eb34 0180 83f1 0100
000000d0: 9070 0300 f451 0180 ec95 0000 1076 0300
000000e0: 55af 0080 c799 0400 c072 0280 0de1 0180
000000f0: 1118 0200 e43b 0100 f5f6 0380 1c05 0400
00000100: 846b 0080 635e 0280 17a9 0200 e0f4 0380
00000110: c8f7 0100 caad 0280 d18e 0200 83df 0000
00000120: d520 0480 1637 0080 3296 0200 800e 0180
00000130: 0b54 0380 95aa 0180 a770 0080 7eb4 0300
00000140: 9a0c 0280 5c8f 0200 0f14 0080 7ff4 0280
00000150: 478e 0200 d624 0100 3833 0380 5045 0280
00000160: 18e0 0100 0d87 0280 e4f2 0280 2960 0300
00000170: c36f 0480 782d 0200 11d9 0080 8afb 0080
00000180: 5985 0280 3eea 0100 4743 0200 de62 0380
00000190: cde5 0180 3aab 0380 672e 0280 e69d 0180
000001a0: 436e 0100 ad4b 0080 775d 0080 07f9 0200
000001b0: 56ac 0080 067d 0000 f5a3 0280 a4b0 0380
000001c0: a49e 0400 998b 0480 72e1 0100 7516 0380
000001d0: 642b 0200 0964 0280 a304 0080 db77 0000
000001e0: e32b 0480 3c0c 0480 08ac 0000 e142 0280
000001f0: f127 0400 6327 0180 60a5 0300 f9c0 0000
1.25852e-40 -2.78392e-40 7.0319e-41 -9.3659e-41 1.16773e-40 -1.2431e-40 5.8878e-41 -1.17844e-40
2.26434e-40 2.12892e-40 3.98117e-40 3.35083e-40 8.7316e-41 3.99202e-40 -1.57894e-40 3.1078e-41
1.59073e-40 2.13788e-40 2.28859e-40 -1.57741e-40 4.03769e-40 -2.27471e-40 -7.9117e-41 -1.31665e-40
-1.68163e-40 2.40949e-40 -3.16887e-40 5.8106e-41 5.5243e-41 -2.23867e-40 4.8066e-41 8.8053e-41
-2.0514e-41 -1.99835e-40 1.66469e-40 8.2922e-41 3.76061e-40 -1.82543e-40 3.93004e-40 -2.21772e-40
-3.5258e-41 -7.5138e-41 -5.0151e-41 3.6776e-40 2.15668e-40 -3.8529e-40 -4.01675e-40 -1.88779e-40
2.21975e-40 -2.57015e-40 -1.10819e-40 1.78474e-40 3.15886e-40 -1.21235e-40 5.3782e-41 3.1786e-40
-6.2897e-41 4.22507e-40 -2.24836e-40 -1.72569e-40 1.92304e-40 1.1332e-40 -3.64098e-40 3.69175e-40
-3.857e-41 -2.1753e-40 2.44329e-40 -3.63351e-40 1.80723e-40 -2.46015e-40 2.34904e-40 8.0181e-41
-3.7912e-40 -1.9761e-41 2.37551e-40 -9.7037e-41 -3.05655e-40 -1.53029e-40 -4.0412e-41 3.40255e-40
-1.88192e-40 2.35099e-40 -7.196e-42 -2.7138e-40 2.3471e-40 1.0505e-40 -2.9388e-40 -2.08536e-40
1.72225e-40 -2.32118e-40 -2.70804e-40 3.10002e-40 -4.07435e-40 1.99982e-40 -7.7869e-41 -9.0235e-41
-2.31507e-40 1.75866e-40 2.07806e-40 -3.10973e-40 -1.74272e-40 -3.36931e-40 -2.00317e-40 -1.48479e-40
1.3139e-40 -2.7147e-41 -3.3529e-41 2.73005e-40 -6.1822e-41 4.485e-41 -2.42488e-40 -3.38873e-40
4.24252e-40 -4.1742e-40 1.7271e-40 -2.83563e-40 1.99237e-40 -2.19557e-40 -1.663e-42 4.2996e-41
-3.83086e-40 -3.71731e-40 6.1713e-41 -2.07663e-40 3.8167e-40 -1.05965e-40 3.34832e-40 6.9226e-41

sparse_weighted_adjacency_matrices.spatial_attention.embedding.bias f4 [64]
00000000: a22b 0300 9890 0180 9f08 0400 8504 0380
00000010: 7986 0180 4630 0000 3459 0380 0200 0480
00000020: bb0a 0080 952c 0300 1df8 0000 2c63 0080
00000030: b62e 0080 df49 0080 e271 0280 bc2b 0100
00000040: c11d 0480 8476 0280 3bda 0280 9116 0200
00000050: 7dfd 0100 6612 0280 98f7 0200 875d 0200
00000060: 8819 0080 14fc 0180 af97 0080 7b6a 0080
00000070: 4b58 0300 80d4 0280 a273 0280 d1fa 0300
00000080: 39bc 0280 e47f 0280 7b65 0180 4bf2 0200
00000090: fa33 0080 3bf2 0300 0cd4 0000 acba 0080
000000a0: 39ad 0380 366c 0080 f40b 0100 8030 0000
000000b0: 470d 0280 8332 0100 f84a 0100 a420 0000
000000c0: 7827 0200 9b09 0100 ce9f 0400 7a8e 0000
000000d0: e8a2 0100 4774 0080 5a17 0480 64a1 0300
000000e0: 2a02 0400 611d 0000 7e06 0400 7e51 0400
000000f0: bb49 0000 cc0f 0300 88ea 0000 09d8 0100
2.91159e-40 -1.43706e-40 3.70435e-40 -2.77128e-40 -1.40075e-40 1.7317e-41 -3.07507e-40 -3.67345e-40
-3.85e-42 2.915e-40 8.9006e-41 -3.5576e-41 -1.6757e-41 -2.65e-41 -2.24524e-40 1.07524e-40
-3.78016e-40 -2.26186e-40 -2.61957e-40 1.91766e-40 1.8277e-40 -1.90271e-40 2.72491e-40 2.17222e-40
-9.159e-42 -1.82264e-40 -5.4414e-41 -3.8198e-41 3.0718e-40 -2.59902e-40 -2.25152e-40 3.65482e-40
-2.51193e-40 -2.2955e-40 -1.2824e-40 2.7059e-40 -1.8646e-41 3.62402e-40 7.6068e-41 -6.6965e-41
-3.37647e-40 -3.8819e-41 9.6123e-41 1.7399e-41 -1.88434e-40 1.09956e-40 1.18729e-40 1.1709e-41
1.9783e-40 9.5281e-41 4.24669e-40 5.1111e-41 1.50275e-40 -4.1712e-41 -3.75719e-40 3.33403e-40
3.68118e-40 1.0539e-41 3.69671e-40 3.96576e-40 2.645e-41 2.81173e-40 8.4134e-41 1.69334e-40

sparse_weighted_adjacency_matrices.spatial_attention.query.weight f4 [64, 64]
00000000: f889 0400 df63 0480 fd9e 0380 7db0 0200
00000010: 8bf4 0080 9fdd 0180 8016 0100 343c 0100
00000020: 2b31 0480 cb14 0100 780e 0100 03ec 0180
00000030: 6e09 0380 fee0 0080 c021 0400 c17f 0200
00000040: a1c6 0080 ef53 0100 9950 0400 9e39 0400
00000050: 8f64 0300 4bb8 0100 1025 0480 b3d4 0180
00000060: a73c 0400 1f36 0080 b450 0480 5ff0 0180
00000070: f0c7 0280 c28e 0000 6cd3 0200 a46d 0100
00000080: a22b 0000 9cdc 0280 7904 0100 7aad 0000
00000090: 55c4 0180 cd94 0000 0b8f 0200 88df 0100
000000a0: 322b 0400 defb 0200 235a 0400 f896 0000
000000b0: a109 0480 c737 0080 bae0 0280 f5fb 0100
000000c0: 5ca0 0100 aa16 0000 1860 0480 236a 0480
000000d0: 993d 0100 782c 0300 206b 0380 74b8 0280
000000e0: c035 0280 28cf 0000 e5af 0100 a5a1 0180
000000f0: 75a4 0100 ff8f 0000 c485 0400 0282 0180
00000100: df34 0180 0329 0480 3912 0180 d875 0280
00000110: bc3b 0280 94d8 0300 4fb5 0000 42da 0280
00000120: 4128 0380 1893 0000 d95f 0280 f1ab 0080
00000130: 8e4f 0100 3012 0480 892f 0300 4318 0000
00000140: bc9f 0080 ae49 0000 b569 0280 a4ba 0100
00000150: 869f 0200 caff 0000 b618 0400 1550 0180
00000160: a22a 0000 3531 0000 dc36 0200 4a52 0300
00000170: 0a56 0180 0d22 0080 74a8 0280 6ea5 0100
00000180: c033 0080 1473 0180 7836 0000 f27f 0480
00000190: 1f3c 0480 74a3 0080 7968 0400 fb2f 0100
000001a0: 0755 0400 fc91 0080 b2a7 0200 6f97 0180
000001b0: 9c43 0000 9dec 0200 ff2d 0380 d43b 0000
000001c0: 1394 0180 020b 0100 baeb 0000 d020 0080
000001d0: 04fc 0380 fe42 0180 21ca 0200 e05a 0480
000001e0: d76f 0380 eb28 0480 1083 0080 c118 0380
000001f0: f42c 0400 1668 0200 bd8b 0180 3805 0200
00000200: 8368 0280 526a 0200 ae6c 0480 48a0 0280
00000210: 2e63 0080 8f07 0000 a5b0 0400 b948 0080
00000220: 09e2 0200 b545 0280 6bfe 0300 f845 0280
00000230: af29 0180 8c7e 0280 a2a9 0000 6ba2 0380
00000240: 7b6f 0280 26d9 0080 5b1c 0480 9e90 0300
00000250: b9fb 0100 ef14 0480 aa8d 0300 9445 0200
00000260: 2ea3 0380 3cf2 0080 46b4 0000 ae36 0380
00000270: 21e0 0080 627e 0080 ee49 0180 eea6 0000
00000280: 87d5 0100 3ea7 0200 c07b 0380 0d31 0400
00000290: da6d 0200 9868 0200 9800 0480 c283 0300
000002a0: 8a91 0200 b53d 0480 612f 0080 316c 0300
000002b0: 90f4 0300 41f9 0280 71e1 0380 af4a 0180
000002c0: 0341 0300 8b90 0300 b88c 0300 4b41 0480
000002d0: 2d72 0480 2f29 0100 89d5 0100 7e0b 0400
000002e0: 41e4 0280 3829 0480 8d53 0100 1bf9 0300
000002f0: cd64 0300 8fba 0180 8375 0480 8c04 0300
00000300: 2a75 0280 96e9 0180 acce 0000 d3c7 0180
00000310: 98ab 0380 a152 0480 7876 0200 026f 0280
00000320: a62c 0200 5522 0180 a8b7 0200 15bd 0200
00000330: d750 0000 1050 0200 a9d2 0180 b442 0200
00000340: 8f4e 0200 62e0 0200 7a06 0080 ab83 0280
00000350: 4a24 0000 00ab 0300 7b7b 0380 920e 0200
00000360: 4277 0000 8b71 0100 d57c 0400 8162 0000
00000370: e865 0100 a285 0480 3fba 0100 2820 0000
00000380: 4003 0280 8cd8 0200 1d7b 0480 263f 0580
00000390: 36e1 0000 fe38 0000 391a 0080 23ec 0000
000003a0: ac56 0480 164c 0480 862c 0400 2e2c 0080
000003b0: 3981 0200 19a8 0280 e23f 0100 8014 0300
000003c0: d2c8 0200 c04b 0380 a525 0300 d754 0080
000003d0: 6f0d 0300 9e6e 0000 fdbf 0100 e8a8 0200
000003e0: 0e9e 0200 7316 0000 f3f5 0380 8b7d 0280
000003f0: b0a8 0200 1192 0200 5cff 0100 e86d 0080
4.16836e-40 -4.03169e-40 -3.32541e-40 2.46983e-40 -8.7725e-41 -1.71338e-40 9.9907e-41 1.13432e-40
-3.8498e-40 9.9295e-41 9.7026e-41 -1.765e-40 -2.78889e-40 -8.0712e-41 3.79449e-40 2.295e-40
-7.1255e-41 1.21945e-40 3.96255e-40 3.88011e-40 3.1158e-40 1.57947e-40 -3.80638e-40 -1.68138e-40
3.891e-40 -1.9415e-41 -3.96293e-40 -1.78064e-40 -2.55395e-40 5.1212e-41 2.59515e-40 1.31167e-40
1.5653e-41 -2.62811e-40 9.344e-41 6.2232e-41 -1.62266e-40 5.338e-41 2.34985e-40 1.72023e-40
3.82838e-40 2.74024e-40 3.99677e-40 5.4157e-41 -3.70796e-40 -2.0009e-41 -2.64288e-40 1.8222e-40
1.49362e-40 8.13e-42 -4.01814e-40 -4.05417e-40 1.13933e-40 2.91459e-40 -3.13936e-40 -2.4984e-40
-2.02953e-40 7.4314e-41 1.54935e-40 -1.49823e-40 1.50832e-40 5.1656e-41 4.15328e-40 -1.38474e-40
-1.10802e-40 -3.82054e-40 -9.8373e-41 -2.25945e-40 -2.051e-40 3.532e-40 6.5041e-41 -2.61967e-40
-2.89947e-40 5.2767e-41 -2.18055e-40 -6.1681e-41 1.20374e-40 -3.73866e-40 2.92559e-40 8.703e-42
-5.7302e-41 2.6431e-41 -2.21592e-40 1.5879e-40 2.40897e-40 9.176e-41 3.76207e-40 -1.20564e-40
1.5294e-41 1.7652e-41 2.03351e-40 3.05026e-40 -1.227e-40 -1.2215e-41 -2.441e-40 1.5118e-40
-1.8564e-41 -1.33118e-40 1.954e-41 -4.1324e-40 -3.8891e-40 -5.8636e-41 4.0482e-40 1.09048e-40
3.97844e-40 -5.237e-41 2.43829e-40 -1.4616e-40 2.4254e-41 2.68552e-40 -2.92007e-40 2.1462e-41
-1.44955e-40 9.5784e-41 8.4563e-41 -1.1771e-41 -3.65913e-40 -1.15868e-40 2.56181e-40 -3.99942e-40
-3.15627e-40 -3.8202e-40 -4.7016e-41 -2.84387e-40 3.83468e-40 2.2101e-40 -1.41964e-40 1.85543e-40
-2.21163e-40 2.21812e-40 -4.06329e-40 -2.41169e-40 -3.5579e-41 2.712e-42 4.3071e-40 -2.6088e-41
2.64757e-40 -2.08677e-40 3.66774e-40 -2.08771e-40 -1.06789e-40 -2.29067e-40 6.0853e-41 -3.33771e-40
-2.23663e-40 -7.7898e-41 -3.77514e-40 3.27385e-40 1.82137e-40 -3.74852e-40 3.26326e-40 2.08631e-40
-3.34044e-40 -8.6897e-41 6.467e-41 -2.95122e-40 -8.0402e-41 -4.5338e-41 -1.18356e-40 5.9883e-41
1.68435e-40 2.43666e-40 -3.199e-40 3.84938e-40 2.23078e-40 2.21192e-40 -3.67555e-40 3.22772e-40
2.3588e-40 -3.89478e-40 -1.6996e-41 3.14318e-40 3.63239e-40 -2.73086e-40 -3.5638e-40 -1.18627e-40
2.98828e-40 3.27359e-40 3.25987e-40 -3.90765e-40 -4.083e-40 1.0661e-40 1.68437e-40 3.71465e-40
-2.65553e-40 -3.82128e-40 1.21808e-40 3.64869e-40 3.11667e-40 -1.5876e-40 -4.09497e-40 2.77138e-40
-2.25702e-40 -1.7563e-40 7.414e-41 -1.63519e-40 -3.37063e-40 -3.96984e-40 2.2617e-40 -2.23493e-40
1.99688e-40 -1.04152e-40 2.49554e-40 2.51501e-40 2.9e-41 2.12392e-40 -1.67406e-40 2.076e-40
2.11853e-40 2.64164e-40 -2.323e-42 -2.30905e-40 1.3018e-41 3.3685e-40 -3.19803e-40 1.88898e-40
4.2782e-41 1.32567e-40 4.12123e-40 3.5337e-41 1.28393e-40 -4.1528e-40 1.58648e-40 1.1535e-41
-1.84837e-40 2.61353e-40 -4.11507e-40 -4.81831e-40 8.079e-41 2.0445e-41 -9.407e-42 8.471e-41
-3.98434e-40 -3.94636e-40 3.83314e-40 -1.5849e-41 2.30027e-40 -2.43973e-40 1.14752e-40 2.8286e-40
2.55712e-40 -3.0268e-40 2.89011e-40 -3.0435e-41 2.80326e-40 3.9682e-41 1.60708e-40 2.44263e-40
2.4037e-40 8.053e-42 -3.63736e-40 -2.28707e-40 2.44185e-40 2.3607e-40 1.83441e-40 -3.9427e-41

sparse_weighted_adjacency_matrices.spatial_attention.query.bias f4 [64]
00000000: aeb6 0180 754f 0100 da66 0180 8690 0380
00000010: 520e 0200 ef20 0480 d831 0080 a553 0180
00000020: bd9f 0180 8c9d 0200 08d0 0280 4999 0300
00000030: 0e99 0100 bfe6 0080 59e8 0300 cf58 0400
00000040: d5c6 0080 f4bc 0480 5c14 0280 663a 0300
00000050: 9192 0280 9aac 0200 ae8d 0200 25f7 0200
00000060: 7f1b 0400 ef5f 0000 306e 0100 9791 0380
00000070: 8072 0280 2197 0080 5020 0480 8248 0400
00000080: ca18 0200 b748 0300 6ba6 0380 339f 0200
00000090: 7db4 0000 7b16 0480 e9a3 0200 73ff 0100
000000a0: 0d56 0180 29ea 0200 13de 0300 90de 0080
000000b0: 1b09 0480 5134 0180 ca7c 0180 9cc3 0300
000000c0: 72ab 0100 8edc 0080 bacc 0180 f69e 0200
000000d0: caf8 0300 7201 0100 3c45 0200 eb82 0200
000000e0: 94ac 0280 ef55 0000 3d7b 0000 53e5 0180
000000f0: e33f 0100 7d2a 0280 079d 0180 1c85 0300
-1.57369e-40 1.2034e-40 -1.28732e-40 -3.27352e-40 1.88808e-40 -3.79156e-40 -1.788e-41 -1.21842e-40
-1.49139e-40 2.40188e-40 -2.58299e-40 3.30495e-40 1.46741e-40 -8.2776e-41 3.58857e-40 3.992e-40
-7.1327e-41 -4.35126e-40 -1.90975e-40 2.96456e-40 -2.36249e-40 2.45589e-40 2.34496e-40 2.7233e-40
3.77206e-40 3.4414e-41 1.31363e-40 -3.27734e-40 -2.24746e-40 -5.4215e-41 -3.78934e-40 3.93353e-40
1.92564e-40 3.01592e-40 -3.35206e-40 2.40781e-40 6.4747e-41 -3.75406e-40 2.42471e-40 1.83473e-40
-1.22705e-40 2.67672e-40 3.55172e-40 -7.984e-41 -3.70608e-40 -1.10603e-40 -1.36601e-40 3.45678e-40
1.53338e-40 -7.912e-41 -1.65278e-40 2.40695e-40 3.64755e-40 9.2354e-41 2.08508e-40 2.30636e-40
-2.4558e-40 3.0827e-41 4.421e-41 -1.74102e-40 1.14754e-40 -1.98913e-40 -1.48166e-40 3.23257e-40

sparse_weighted_adjacency_matrices.spatial_attention.key.weight f4 [64, 64]
00000000: 7879 0400 dcb5 0480 7200 0080 6097 0100
00000010: a1d5 0380 faf1 0300 dac1 0280 f53a 0400
00000020: 423e 0000 e627 0080 0e9c 0200 dcd1 0200
00000030: 986a 0400 f1e1 0280 2469 0480 514a 0380
00000040: fb93 0100 4632 0200 43ef 0080 12c8 0100
00000050: 8647 0380 4916 0000 5ca2 0180 c4c3 0080
00000060: cfe2 0200 eb65 0380 e282 0380 8683 0080
00000070: f10f 0280 8261 0300 a013 0400 ac03 0200
00000080: 689f 0000 516a 0280 3258 0180 b11a 0200
00000090: e85a 0100 4e49 0300 7348 0080 f4f5 0300
000000a0: 59b8 0280 bda1 0280 edf8 0280 2baa 0100
000000b0: e640 0000 ebae 0200 f131 0080 6c14 0380
000000c0: 711a 0080 6b77 0080 dd48 0080 2ed8 0200
000000d0: 3761 0400 8d5b 0400 5468 0200 104f 0280
000000e0: 6197 0080 9128 0380 12a1 0100 78b5 0100
000000f0: 4fda 0200 c482 0280 fa52 0080 8eb3 0180
00000100: 4f7f 0000 268f 0280 7d90 0180 c030 0300
00000110: 6db8 0280 6b41 0000 779a 0200 12e4 0100
00000120: 0fe7 0300 9475 0300 8ac7 0200 367b 0280
00000130: 1555 0100 5b8f 0200 f478 0080 756d 0300
00000140: c393 0200 ac82 0300 2c69 0400 f314 0280
00000150: 2849 0380 599b 0380 8f38 0100 f6d7 0000
00000160: d6ed 0280 9c7b 0380 4525 0280 0bf8 0380
00000170: 73c0 0200 ff58 0400 0c3a 0300 ec54 0100
00000180: a674 0000 c671 0280 539e 0480 3246 0180
00000190: a7b9 0180 dbb9 0200 7a6a 0180 fa47 0400
000001a0: 73f3 0300 aee7 0080 3195 0200 f9d1 0300
000001b0: 7209 0180 9998 0080 51e9 0300 ef6d 0380
000001c0: c5a1 0180 4f35 0480 f016 0080 ea46 0280
000001d0: 2a5f 0380 bafa 0100 6e91 0000 d3d8 0100
000001e0: 58b2 0200 fd53 0100 845e 0080 7fdd 0280
000001f0: 0e25 0300 f81a 0200 c78f 0280 a248 0480
00000200: b6f3 0380 8340 0380 647b 0300 2ff0 0180
00000210: 6e43 0080 cfb5 0280 85be 0180 843d 0080
00000220: e279 0000 6e95 0280 de70 0300 e1b8 0000
00000230: 4f57 0400 3019 0400 44dd 0280 4f23 0100
00000240: b10d 0480 a428 0300 cc61 0280 4131 0180
00000250: f2c2 0180 1f75 0180 b6ac 0200 92af 0280
00000260: 433e 0200 bfb1 0280 2c20 0480 e28a 0300
00000270: 035c 0480 a641 0100 f3c5 0100 8164 0380
00000280: 6e3d 0180 06ea 0100 eded 0280 2622 0300
00000290: 769b 0180 bd6c 0480 56b3 0380 eb2b 0480
000002a0: 5197 0180 820a 0100 4b95 0300 2998 0200
000002b0: 28df 0100 8f0a 0180 e561 0200 250c 0000
000002c0: 1a7e 0100 7c0c 0280 192a 0300 9815 0400
000002d0: 5cb2 0180 750b 0200 f94e 0400 9e38 0400
000002e0: 5f42 0100 2282 0400 32cc 0080 e42b 0200
000002f0: bc1d 0180 76b3 0000 c1a5 0380 904c 0180
00000300: 8b8c 0380 042a 0300 ff2e 0280 7443 0380
00000310: 5142 0180 1df0 0380 7998 0300 d918 0000
00000320: 5c39 0280 42f1 0180 9a88 0280 762f 0000
00000330: d587 0200 50e1 0000 0c4e 0400 e270 0400
00000340: e413 0480 ee84 0380 af6a 0400 da5e 0400
00000350: 2b1c 0180 fcf5 0180 bded 0000 c208 0180
00000360: 2071 0480 1232 0480 2769 0280 27df 0280
00000370: 0d51 0380 f5f9 0000 62a1 0200 2de7 0200
00000380: fa36 0180 2f4a 0300 5eaa 0180 c9fc 0000
00000390: 87c3 0380 f3a2 0200 242d 0480 f1ab 0180
000003a0: 341f 0200 4d77 0400 d117 0480 26ba 0280
000003b0: dafc 0300 3a18 0400 451f 0480 ca03 0000
000003c0: a4e7 0200 1be1 0200 cb36 0400 7942 0180
000003d0: 8a5f 0100 e4e9 0280 2730 0280 8d81 0100
000003e0: 3709 0000 4a62 0080 e7db 0380 390f 0300
000003f0: e882 0280 bbe9 0180 9b57 0080 5e9d 0180
4.10917e-40 -4.32581e-40 -1.6e-43 1.46139e-40 -3.52142e-40 3.62311e-40 -2.53212e-40 3.88492e-40
2.2334e-41 -1.4313e-41 2.39653e-40 2.58954e-40 4.0558e-40 -2.64723e-40 -4.0506e-40 -3.02166e-40
1.44921e-40 2.01706e-40 -8.5831e-41 1.63607e-40 -3.01164e-40 7.994e-42 -1.50079e-40 -7.0227e-41
2.65035e-40 -3.12068e-40 -3.22458e-40 -4.7182e-41 -1.8939e-40 3.10486e-40 3.74382e-40 1.84988e-40
5.7184e-41 -2.2181e-40 -1.23474e-40 1.93246e-40 1.24447e-40 3.01803e-40 -2.599e-41 3.63738e-40
-2.49802e-40 -2.41692e-40 -2.72969e-40 1.5288e-40 2.3281e-41 2.4642e-40 -1.7916e-41 -2.82832e-40
-9.485e-42 -4.2839e-41 -2.6138e-41 2.61222e-40 4.02216e-40 4.00184e-40 2.21097e-40 -2.12033e-40
-5.4305e-41 -2.90059e-40 1.49617e-40 1.56934e-40 2.61985e-40 -2.30581e-40 -2.9766e-41 -1.56248e-40
4.567e-41 -2.35023e-40 -1.43668e-40 2.92995e-40 -2.4983e-40 2.3468e-41 2.39083e-40 1.73652e-40
3.58395e-40 3.17686e-40 2.55252e-40 -2.27871e-40 1.22357e-40 2.35097e-40 -4.339e-41 3.14772e-40
2.36678e-40 3.22383e-40 4.0507e-40 -1.91186e-40 -3.0175e-40 -3.31235e-40 1.12125e-40 7.7472e-41
-2.6899e-40 -3.19849e-40 -1.97041e-40 -3.64488e-40 2.52709e-40 3.99268e-40 2.9633e-40 1.223e-40
4.1846e-41 -2.24485e-40 -4.24138e-40 -1.17017e-40 -1.58435e-40 2.50343e-40 -1.30032e-40 3.93162e-40
3.6284e-40 -8.3111e-41 2.37191e-40 3.5083e-40 -9.5224e-41 -5.4742e-41 3.59205e-40 -3.14943e-40
-1.49867e-40 -3.86466e-40 -8.228e-42 -2.0911e-40 -3.09645e-40 1.81779e-40 5.217e-41 1.69617e-40
2.47649e-40 1.21965e-40 -3.3906e-41 -2.63129e-40 2.88799e-40 1.93346e-40 -2.35249e-40 -3.93398e-40
-3.62933e-40 -2.98649e-40 3.19771e-40 -1.77997e-40 -2.4189e-41 -2.48892e-40 -1.60181e-40 -2.2068e-41
4.3723e-41 -2.37276e-40 3.15996e-40 6.6322e-41 3.98662e-40 3.76378e-40 -2.63046e-40 1.04502e-40
-3.72254e-40 2.90086e-40 -2.18754e-40 -1.09504e-40 -1.61769e-40 -1.3385e-40 2.45628e-40 -2.46654e-40
2.06006e-40 -2.47434e-40 -3.78883e-40 3.25328e-40 -4.0035e-40 1.15386e-40 1.62846e-40 -3.1156e-40
-1.13872e-40 1.75787e-40 -2.69023e-40 2.87757e-40 -1.47604e-40 -4.0635e-40 -3.3984e-40 -3.83097e-40
-1.46118e-40 9.5605e-41 3.29063e-40 2.38256e-40 1.71889e-40 -9.5623e-41 2.18789e-40 4.357e-42
1.37072e-40 -1.8815e-40 2.90608e-40 3.75088e-40 -1.55819e-40 1.87781e-40 3.95672e-40 3.87652e-40
1.15645e-40 4.14025e-40 -7.3251e-41 1.99416e-40 -1.02502e-40 6.4378e-41 -3.34968e-40 -1.19301e-40
-3.25924e-40 2.90579e-40 -2.0053e-40 -2.99704e-40 -1.15625e-40 -3.61643e-40 3.30203e-40 8.914e-42
-2.04248e-40 -1.78382e-40 -2.32674e-40 1.7026e-41 2.32398e-40 8.0827e-41 3.9534e-40 4.07837e-40
-3.74477e-40 -3.23193e-40 4.05613e-40 4.01368e-40 -1.0194e-40 -1.80078e-40 8.5284e-41 -9.4977e-41
-4.07924e-40 -3.85304e-40 -2.21393e-40 -2.63723e-40 -3.04582e-40 8.9668e-41 2.41564e-40 2.66601e-40
-1.11557e-40 3.02119e-40 -1.52952e-40 9.0682e-41 -3.45648e-40 2.42126e-40 -3.83535e-40 -1.53516e-40
1.94865e-40 4.10139e-40 -3.75886e-40 -2.50448e-40 3.66213e-40 3.76033e-40 -3.7856e-40 1.359e-42
2.66768e-40 2.64424e-40 3.86998e-40 -1.15681e-40 1.26108e-40 -2.67575e-40 -2.00945e-40 1.3831e-40
3.306e-42 -3.526e-41 -3.54393e-40 2.80967e-40 -2.30631e-40 -1.75682e-40 -3.1427e-41 -1.48288e-40

sparse_weighted_adjacency_matrices.spatial_attention.key.bias f4 [64]
00000000: 12e2 0180 9a04 0280 eb1b 0480 ae15 0200
00000010: fd64 0300 1f3e 0080 a58b 0180 efbe 0280
00000020: eb2d 0180 9a52 0180 4c4c 0480 49df 0180
00000030: 4fb3 0280 f41a 0000 ea28 0180 0d58 0080
00000040: 3fa5 0080 9daf 0100 4613 0100 4b93 0080
00000050: 5259 0000 033a 0100 86f5 0000 c738 0200
00000060: 8532 0180 95dd 0180 9473 0400 d527 0380
00000070: 83ab 0000 82b1 0280 97f4 0200 e1a3 0300
00000080: 0136 0280 d0c2 0300 820b 0400 7236 0180
00000090: 91bc 0100 36f2 0080 dcdd 0280 d08a 0280
000000a0: 1737 0300 49a7 0180 6c55 0200 a79c 0300
000000b0: 92b4 0380 ef4c 0400 4132 0480 0121 0300
000000c0: bbfd 0300 ae18 0180 a8a6 0000 aca1 0480
000000d0: b4c8 0080 39cd 0100 8b03 0180 b1a7 0300
000000e0: 7e1f 0180 018b 0280 9bb3 0100 a2d7 0300
000000f0: bb37 0000 4c91 0300 5cc5 0100 4d2f 0100
-1.72934e-40 -1.85322e-40 -3.77357e-40 1.91448e-40 3.11734e-40 -2.2285e-41 -1.4193e-40 -2.52165e-40
-1.08308e-40 -1.21467e-40 -3.94712e-40 -1.71935e-40 -2.47995e-40 9.669e-42 -1.06513e-40 -3.1587e-41
-5.9279e-41 1.54834e-40 9.875e-41 -5.2839e-41 3.2042e-41 1.12646e-40 8.8077e-41 2.04039e-40
-1.09958e-40 -1.71324e-40 4.08804e-40 -2.89796e-40 6.1527e-41 -2.47349e-40 2.71413e-40 3.34295e-40
-2.03044e-40 3.45392e-40 3.7147e-40 -1.11367e-40 1.5948e-40 -8.6889e-41 -2.63259e-40 -2.33468e-40
2.95269e-40 -1.51846e-40 2.14315e-40 3.31703e-40 -3.40283e-40 3.9494e-40 -3.8537e-40 2.87346e-40
3.66528e-40 -1.00689e-40 5.9785e-41 -4.25339e-40 -7.1999e-41 1.65456e-40 -9.3106e-41 3.35663e-40
-1.03133e-40 -2.33536e-40 1.56266e-40 3.52861e-40 1.9992e-41 3.27629e-40 1.62635e-40 1.08804e-40

sparse_weighted_adjacency_matrices.temporal_attention.embedding.weight f4 [64, 3]
00000000: 5028 b43e 63fa 2abc 2bcf fbbb d4ad 71b3
00000010: b1f1 092e b99a ae31 fd34 f636 6a9d 1c36
00000020: 2479 8f36 3337 5d38 02b2 dc36 9d2e eeb7
00000030: e5c2 e3be 2066 473c ac0f 2f3c 4e1f f5be
00000040: 01ff 513c b93f 413c 4953 aab5 bb7b 35b2
00000050: cdac bd33 450c c53e 6fe9 34bc 9631 0fbc
00000060: 1040 b335 820b 17b4 84af 8534 7e2a 3c36
00000070: 80a9 3034 22d1 2735 705b aaa4 17fd 5c24
00000080: 62de 1324 ac72 622e 9a1e c6ab 1ceb 61ad
00000090: b793 3db1 5d43 b7af 36d3 fe2f 7428 90b5
000000a0: c64f d832 a41e 4eb4 393e 3824 5e67 b1a3
000000b0: b317 54a2 8114 9bbe c0b3 1c3c 6367 c93b
000000c0: d27b aabe e864 253c 5236 e83b fb17 8332
000000d0: 6ffa 0230 8252 a431 a454 0637 5041 7b35
000000e0: 25f6 3035 9019 7fb8 6733 d9b6 12ad f4b6
000000f0: 8bed 40b0 c30e 38ae 15ef 85af 8719 28b8
00000100: 38ff 8fb6 6ca0 12b6 9d13 56be d98a 033c
00000110: 88cd 5c3b 810d bbbe 0502 2f3c 1ef0 043c
00000120: 64da 3cbe 2fa2 fa3b e641 313b b64a 091e
00000130: c6d0 c91b a15d 7a9d 0444 81be accd 0e3c
00000140: 9247 973b c57a 853e 7102 11bc d04c 9fbb
00000150: 6364 383e c46b f8bb 07d6 29bb 4c3d d8ac
00000160: 4de5 77ab 7f30 15ac 6307 c2be 011f 333c
00000170: a916 0c3c f92b 04a7 a4e5 a126 15d3 7326
00000180: bc77 9e32 0991 fd31 9f7a eeb2 579c 1f2d
00000190: 97fe b5ac e78e 45ae 53e2 c23e d1a0 33bc
000001a0: d2f7 0cbc ee53 6c3e 461b 09bc 4087 82bb
000001b0: dbd7 8033 1ae6 1f32 369a 7532 6e75 0cbe
000001c0: 4521 e13b 55a3 cd3a 4239 9d3e 3ae5 1dbc
000001d0: 4ea8 cdbb c010 b89f c51c 401e 8574 0d1e
000001e0: 7308 abbe 7db5 253c ea51 e93b 168c 4a3e
000001f0: 04b2 00bc 8c96 48bb 9d41 adbd 9f50 b63b
00000200: 034c 2b3a 9589 8938 f173 a7b5 e9a2 9bb3
00000210: d64a e0be 974a 453c be70 2b3c 5303 a9be
00000220: 9b8d 243c 653f e53b 74aa 953e 98b6 19bc
00000230: dfb6 bebb be4f 0f1f e094 1a1e dfb2 a59e
00000240: 555c 463e b553 ffbb 295f 41bb d811 a939
00000250: 78ce 25b7 103e a635 9842 8c36 8377 7734
00000260: d9a8 0135 ae84 4423 ce84 ad21 c669 a2a2
00000270: 0595 d43e 7d35 3ebc 3541 1fbc ed11 873e
00000280: 50d9 11bc ac58 a2bb ab1c 0fb8 3d48 4e38
00000290: 14f0 fcb7 c524 bc3e ffa5 2fbc b20d 06bc
000002a0: a710 c23e 8924 33bc 4820 0cbc 93f5 12b2
000002b0: de4f e2b1 8983 e431 d174 b6be 2851 2c3c
000002c0: d43e 003c 351d c635 1dd4 25b4 0feb 8434
000002d0: f425 c73e 3429 36bc 7c5b 11bc 3b02 7db8
000002e0: a516 d9b6 4e97 27b7 f994 d23e 3401 3dbc
000002f0: be2d 1dbc b8d6 23a3 9558 e522 c0e1 3922
0.35187006 -0.010435673 -0.0076846085 -5.627028e-08 3.136486e-11 5.0816564e-09 7.33754e-06 2.3337439e-06
4.2758347e-06 5.2741914e-05 6.5772338e-06 -2.8393517e-05 -0.4448463 0.012170345 0.010684889 -0.47875446
0.012817145 0.011794978 -1.2690226e-06 -1.056372e-08 8.8324306e-08 0.38485923 -0.011041983 -0.00873985
1.3355184e-06 -1.4067157e-07 2.4900885e-07 2.8038917e-06 1.6452941e-07 6.2516676e-07 -7.388065e-17 4.791927e-17
3.206391e-17 5.14883e-11 -1.407724e-12 -1.2841974e-11 -2.7587086e-09 -3.333537e-10 4.6352405e-10 -1.074061e-06
2.5181986e-08 -1.9196392e-07 3.9951345e-17 -1.9234156e-17 -2.8743904e-18 -0.3028908 0.00956434 0.006146358
-0.33297592 0.010094859 0.0070865536 1.5261312e-08 4.764961e-10 4.7824082e-09 8.006729e-06 9.359983e-07
6.5923297e-07 -6.0820545e-05 -6.473088e-06 -7.2919147e-06 -7.018676e-10 -4.1849867e-11 -2.4362437e-10 -4.0078095e-05
-4.2914435e-06 -2.1849073e-06 -0.2090592 0.008028709 0.0033691842 -0.3653374 0.010681634 0.008113889
-0.18442684 0.0076487283 0.0027047335 7.2681695e-21 3.3387577e-22 -3.313563e-21 -0.25247204 0.008716028
0.004616686 0.26070228 -0.00885068 -0.0048614517 0.18007044 -0.007581206 -0.0025914924 -6.1458946e-12
-8.8070247e-13 -2.1201094e-12 -0.3789626 0.010932685 0.0085503245 -1.8342518e-15 1.1233863e-15 8.459363e-16
1.844807e-08 7.3797577e-09 -2.7762608e-08 9.072818e-12 -5.1725946e-12 -4.4919537e-11 0.38063297 -0.010963635
-0.008604007 0.23078892 -0.008368319 -0.003983408 5.9997284e-08 9.307337e-09 1.429594e-08 -0.13716671
0.006870421 0.0015688936 0.30707747 -0.009637171 -0.006276167 -7.795474e-20 1.0170345e-20 7.4885735e-21
-0.33404884 0.010114071 0.0071203606 0.19780001 -0.007854942 -0.003060731 -0.0845978 0.00556381
0.0006534459 6.558296e-05 -1.2476213e-06 -7.247383e-08 -0.43807095 0.012041709 0.010463892 -0.3301035
0.010043527 0.0069960826 0.29231608 -0.009381913 -0.00582014 3.034739e-20 8.183479e-21 -1.7544034e-20
0.1937116 -0.007791961 -0.0029506183 0.00032247487 -9.882839e-06 1.2386026e-06 4.1800777e-06 2.3047146e-07
4.830195e-07 1.0653277e-17 1.1758089e-18 -4.402218e-18 0.41519943 -0.011609432 -0.009720136 0.26380864
-0.008901909 -0.004954418 -3.4120556e-05 4.9181504e-05 -3.0152536e-05 0.36746803 -0.010720729 -0.008181976
0.3790333 -0.010934004 -0.008552618 -8.554156e-09 -6.5865455e-09 6.650627e-09 -0.35636 0.010517396
0.007827479 1.476065e-06 -1.5443989e-07 2.4757944e-07 0.38896143 -0.011118222 -0.008871909 -6.0321978e-05
-6.46974e-06 -9.989204e-06 0.41129282 -0.011535931 -0.009593425 -8.881716e-18 6.2164364e-18 2.5191686e-18

sparse_weighted_adjacency_matrices.temporal_attention.embedding.bias f4 [64]
00000000: 82d5 533d b256 42b0 6730 b0b6 c76f e337
00000010: 1d36 86bd 708c 90bd 5bc9 c534 62e6 673d
00000020: fc9a 4ab4 1b45 fab3 a8dc ae24 9335 af2c
00000030: cc4b 1630 3d80 0135 f895 0723 220f 36bd
00000040: a658 48bd fd38 10b2 62e3 92b6 cf3a 0d38
00000050: 07e6 dc2f 81bc b637 b937 fabc 3e06 5cbd
00000060: 0370 dcbc 45ed de1c ba6e 17bd e46d 1c3d
00000070: 892e d73c 393b 722c f14f 64bd cf01 7825
00000080: 866c a731 735c b0ad 2f54 653d 8d46 0a3d
00000090: 7e52 8bb2 51b4 a3bc 6d9a 383d ab56 2f1f
000000a0: 89ff 48bd 0798 ec3c 6e48 4bbc 13d0 3636
000000b0: a425 84bd 8899 46bd 01a2 2f3d a340 2c1b
000000c0: b0a6 e73c 24df a637 db0c 05b6 9084 8422
000000d0: 7c5d 7a3d c650 1e3d 09e8 77b6 0352 5d3d
000000e0: f75a 643d d215 c431 8890 56bd 619c 2fb4
000000f0: 4e65 6a3d 75f3 0d38 9bfc 773d cc82 e721
0.05171729 -7.069999e-10 -5.2508435e-06 2.711256e-05 -0.0655329 -0.07058036 3.6840615e-07 0.056616195
-1.8869099e-07 -1.16541024e-07 7.583428e-17 4.979747e-12 5.4677396e-10 4.8242856e-07 7.350122e-18 -0.044448026
-0.048912667 -8.394861e-09 -4.37761e-06 3.367179e-05 4.018121e-10 2.178387e-05 -0.030544149 -0.05371689
-0.02690888 1.475206e-21 -0.03697083 0.038190737 0.026267307 3.4423144e-12 -0.0557403 2.1511184e-16
4.8726774e-09 -2.004994e-11 0.055988487 0.03375869 -1.6219243e-08 -0.019983443 0.045069147 3.712938e-20
-0.049071822 0.028881086 -0.012407405 2.7241229e-06 -0.06452492 -0.048486263 0.04287911 1.4248392e-22
0.028277725 1.989265e-05 -1.9826027e-06 3.5919028e-18 0.06112431 0.03865125 -3.694093e-06 0.05403329
0.055750813 5.7068315e-09 -0.05238393 -1.6355035e-07 0.057225518 3.3843757e-05 0.060543638 1.568779e-18

sparse_weighted_adjacency_matrices.temporal_attention.query.weight f4 [64, 64]
00000000: b259 04ab 47eb 27a0 31ea 00a7 3a6c 1d27
00000010: fd29 d72a 23e8 892a 36ca 87a4 f83a 08ab
00000020: d9a7 9ca4 6b30 6825 36a5 3713 ee31 461c
00000030: c462 9f9f 05e7 f523 5df5 d891 dbdc da2a
00000040: 1399 fb2a 5458 3ea1 54e7 ad25 1241 5da7
00000050: 77b7 3b1f e267 8e26 7fb3 ab28 0a2f 072b
00000060: 6ada 0faa 730c 510c 8da1 802a c4aa 92aa
00000070: 80ec 2e2a 896b 471c 6254 082b 18bd c393
00000080: 60a1 6321 4f27 499d ff56 08ab 6607 15aa
00000090: 7c29 33a1 4c3c f3aa 674d e0aa dfeb a80e
000000a0: 067f fc2a e6ac 4e29 2e66 29ab 1c0f 91a6
000000b0: 019f e32a e319 f92a 2ccb cbaa 724d e98d
000000c0: 8691 9e29 3131 cca7 b936 3ba5 a820 da11
000000d0: f5d6 00ab d21f 99aa b6f5 da26 757b 07ab
000000e0: 8754 08ab 3d66 60a1 ea78 052b 7d3d ac23
000000f0: 79ee 07ab 9387 5727 3186 02ab 697c 8f11
00000100: 49da cdb6 01eb db2a 96ff 4b30 a33e 0032
00000110: fb81 d836 a7c7 db36 8481 31af 2bf5 d1b6
00000120: 5592 012f 44c8 b62f 8c7d 239e ee73 09a5
00000130: 3d9b daaa cb8b b9ae c478 8b1d d4d8 c636
00000140: 624c cb36 49b1 b52b f809 3630 7564 afb1
00000150: 3336 8aa9 c0f0 7ab1 7929 b336 f693 cf36
00000160: ecf4 aa36 11ac 2117 b2cf bd36 3978 bfb6
00000170: 0145 a9b6 abf1 71a4 db40 d136 da8a 0ba0
00000180: bacf 122c 4338 ca25 2e74 d1b6 5df5 b8b6
00000190: a0c4 c32c 5e30 9336 ed7f c7b6 ae94 5198
000001a0: c072 cb36 adaa afb6 7001 4936 20b3 90b0
000001b0: abd1 d736 56e5 ca36 b824 c5b6 4512 2318
000001c0: e34b aeb6 bc07 01b2 00e4 cf2f 5f09 8b1c
000001d0: f966 d5b6 a012 c0b6 e0e8 8b31 49d8 cfb6
000001e0: f542 d1b6 a0ed e3ab a06f ce36 9639 fa2e
000001f0: b970 d2b6 a4a6 b8b1 a7f9 d4b6 1ba0 979c
00000200: c337 f63d d2fc 12b3 cb9a 83b6 1f75 85b8
00000210: d88b 1bbe bf57 27be f123 99b4 11a2 063e
00000220: 06cf 5535 ad0e 28b6 23e0 f8a4 5784 572e
00000230: 387a a3b0 f230 6734 9239 6f24 c7f1 d3bd
00000240: 1901 e9bd d1fa 5ab1 ac7a e1b5 c3d2 0c37
00000250: 8171 212f 467f a736 2327 92bd 90a1 ffbd
00000260: c7de 80bd 782e 871d c69b b0bd 2761 b63d
00000270: 9da0 7b3d 8b58 ba2b 0693 04be 5282 f3a6
00000280: 6533 fe31 196f 5b2e 7728 053e 1466 a13d
00000290: ec73 deb2 2179 3fbd 4ae0 d63d 1529 b59e
000002a0: 21c1 e9bd bb40 8a3d 9714 ecbc becd e337
000002b0: f42f 19be 75fe e6bd 7689 cc3d 4cc6 631f
000002c0: 5a62 873d c03d 0539 7867 4eb5 06b5 8922
000002d0: d137 113e b98e b83d 15cf a3b6 568f 003e
000002e0: 6199 043e f8d8 59b1 675b f9bd 46df 5e35
000002f0: 9e10 083e c965 1537 f3da 0f3e e12e 7da3
00000300: 54f2 8517 d1e9 780d f0a6 2612 418e f813
00000310: fd8b 1a97 0bd5 e796 094c 0491 3df6 6217
00000320: 2d31 fb10 7be3 a80f 7b4d 3300 8519 8988
00000330: f8ea a18c d4d3 468b 9b10 1080 434f a397
00000340: 658d 9197 4f32 e70c a94d 5710 98b5 4992
00000350: 5e77 ce8a 0986 9293 e8ef c597 ca2e 7b97
00000360: 063a c397 68d5 0180 d000 bc97 3eaa b817
00000370: b8e7 c117 a505 1107 f543 6a97 6cab 1101
00000380: a501 388d 3566 a909 d831 6817 a2d6 c217
00000390: 4320 900d 6516 a497 eceb a017 5766 0180
000003a0: a1e6 9097 cea2 c517 359b 2897 3bb2 4092
000003b0: b27d 2297 304c 9397 0d2c a917 90e3 0280
000003c0: 7e26 c517 b671 9f92 32f3 0891 87fc 0100
000003d0: fccc 3d17 1951 b717 6387 d213 a589 7817
000003e0: 262d 6a17 467d 7b8d 2c2a 8397 7b36 4c0f
000003f0: 5ee4 5d17 67bc dd93 9889 4217 50e7 0700
-4.70203e-13 -1.4223297e-19 -1.7890524e-15 2.1846797e-15 3.8220807e-13 2.4497166e-13 -5.8889476e-17 -4.839874e-13
-6.793856e-17 2.0139197e-16 2.3179303e-27 6.5577237e-22 -6.7502513e-20 2.6660794e-17 -3.4230008e-28 3.8877828e-13
4.4692773e-13 -6.4491405e-19 3.016747e-16 -3.0705186e-15 3.975055e-20 9.881387e-16 1.9062658e-14 4.8026914e-13
-1.2776729e-13 1.6104521e-31 2.2849466e-13 -2.6053302e-13 1.5536357e-13 6.5982563e-22 4.843401e-13 -4.941138e-27
7.712417e-19 -2.662245e-21 -4.843764e-13 -1.3236425e-13 -6.0702463e-19 -4.320731e-13 -3.9844102e-13 4.1642333e-30
4.4852333e-13 4.5891154e-14 -6.0182664e-13 -1.0065492e-15 4.0433631e-13 4.4249248e-13 -3.6201023e-13 -1.4378378e-30
7.041854e-14 -5.6674708e-15 -1.6238205e-16 3.4414461e-28 -4.577305e-13 -2.720034e-13 1.5193389e-15 -4.8132966e-13
-4.843421e-13 -7.6029463e-19 4.7418894e-13 1.8674319e-17 -4.829258e-13 2.9910739e-15 -4.6371506e-13 2.2638096e-28
-6.134888e-06 3.9065282e-13 7.421418e-10 7.4648225e-09 6.4524334e-06 6.549951e-06 -1.614407e-10 -6.2572267e-06
1.1784469e-10 3.3247904e-10 -8.655111e-21 -1.1922134e-16 -3.8832297e-13 -8.437658e-11 3.6917862e-21 5.926102e-06
6.0587636e-06 1.291003e-12 6.622538e-10 -5.104591e-09 -6.137833e-14 -3.6516639e-09 5.3394438e-06 6.1863057e-06
5.0949075e-06 5.2239084e-25 5.656818e-06 -5.7062393e-06 -5.0446256e-06 -5.2463245e-17 6.2362355e-06 -1.18197e-19
2.086316e-12 3.5079539e-16 -6.2422105e-06 -5.5121914e-06 5.564063e-12 4.386572e-06 -5.9455547e-06 -2.708768e-24
6.06323e-06 -5.2352757e-06 2.995217e-06 -1.0528289e-09 6.431908e-06 6.0467673e-06 -5.875332e-06 2.107648e-24
-5.1944385e-06 -7.510547e-09 3.7815084e-10 9.200671e-22 -6.3598823e-06 -5.724214e-06 4.0719073e-09 -6.1942596e-06
-6.23648e-06 -1.6195274e-12 6.1522733e-06 1.1378913e-10 -6.2716103e-06 -5.3740496e-09 -6.3471557e-06 -1.0033728e-21
0.120223545 -3.4223213e-08 -3.9221245e-06 -6.36375e-05 -0.15190065 -0.16342066 -2.8524622e-07 0.13147761
7.964994e-07 -2.5042493e-06 -1.0793256e-16 4.900288e-11 -1.1894548e-09 2.1531358e-07 5.1873628e-17 -0.1034885
-0.113771625 -3.1865748e-09 -1.6799509e-06 8.393722e-06 1.468319e-10 4.9918044e-06 -0.07136371 -0.124819875
-0.062924914 3.578225e-21 -0.086234614 0.08905249 0.06143247 1.324067e-12 -0.1294671 -1.6896836e-15
7.398216e-09 4.989351e-11 0.13003717 0.07880798 -2.5896917e-08 -0.046746377 0.104919985 -1.9181112e-20
-0.114137895 0.067506276 -0.028818412 2.7156315e-05 -0.14959699 -0.112790026 0.09987156 4.8233147e-20
0.06610556 0.00012706872 -7.6891547e-07 3.732559e-18 0.14181449 0.09011597 -4.881886e-06 0.12554678
0.12949134 -3.1700989e-09 -0.12175637 8.302635e-07 0.13287589 8.904791e-06 0.14048366 -1.37250845e-17
8.656096e-25 7.6702346e-31 5.258613e-28 6.2744275e-27 -4.9936774e-25 -3.7454512e-25 -1.0436394e-28 7.3335335e-25
9.907781e-29 1.6653701e-29 4.711405e-39 -8.251387e-34 -2.4947394e-31 -3.8292775e-32 -1.475325e-39 -1.0553637e-24
-9.406098e-25 3.5621464e-31 4.24611e-29 -6.364825e-28 -1.988198e-32 -3.698775e-27 -1.2791387e-24 -8.116153e-25
-1.2616227e-24 -1.68391e-40 -1.214942e-24 1.1933696e-24 1.2530827e-24 1.0910246e-34 -7.569525e-25 2.6755283e-38
-5.6701357e-31 4.0781385e-33 7.5026155e-25 1.2591137e-24 8.882452e-31 -1.0603905e-24 1.0399313e-24 -1.28548e-40
-9.364001e-25 1.2771924e-24 -5.4479627e-25 -6.0804204e-28 -5.2503673e-25 -9.518885e-25 1.0932489e-24 -2.65305e-40
1.2740543e-24 -1.0062343e-27 -1.0803449e-28 1.82425e-40 6.132792e-25 1.184657e-24 5.3144954e-27 8.0306854e-25
7.5666463e-25 -7.749614e-31 -8.476322e-25 1.0068469e-29 7.169719e-25 -5.5974022e-27 6.285845e-25 7.25828e-40

sparse_weighted_adjacency_matrices.temporal_attention.query.bias f4 [64]
00000000: 0df1 10ab 0a11 a7b6 0ba5 f13d 730c 0517
00000010: 7f0b 8bbd 43c0 a7ae 9a98 9f38 3fe1 c12e
00000020: b182 a43d 2b2a ce36 4518 259c 5856 3513
00000030: ae9d cdb0 9afa 0938 e4a0 bdaf a42c d726
00000040: eecc 0339 1722 6fa7 7e6d d124 b31a ed34
00000050: 67b0 223a a329 dd3c 173f 801b 3fa7 6690
00000060: 1cda 9b91 1d65 a5bc 9712 ac3d c969 11ad
00000070: 33ad a031 4e56 b196 b78f de3a cb4f 3d13
00000080: 30d4 0015 bbf8 8609 10d7 7ebc 2b69 c5bd
00000090: 7a02 91bc c9d3 4d35 9d3e 0b39 7cbb e7bc
000000a0: ffe3 7c29 d110 f19a c8d2 b0b9 b0fe bc3b
000000b0: 3100 be3c 5a9f d71f 9803 cabb 2ee3 25bc
000000c0: ad69 3335 d84d 35a7 296e 6e23 7f7b 973c
000000d0: c545 23b1 6f1f ffa8 9722 6d2c 195d 1cb9
000000e0: 5818 3538 7987 1b3d a45b d530 b2e1 3f36
000000f0: d6e7 a01c 288a 9023 7968 9823 01d3 48a9
-5.14936e-13 -4.9789714e-06 0.117990576 4.299033e-25 -0.06789302 -7.628433e-11 7.610135e-05 8.8166356e-11
0.0803274 6.1441874e-06 -5.462529e-22 2.2887983e-27 -1.4960528e-09 3.2896736e-05 -3.449322e-10 1.4930722e-15
0.00012569476 -3.3186393e-15 9.082479e-17 4.4164116e-07 0.00062060956 0.026997393 2.1216595e-22 -4.5488344e-29
-2.4589108e-28 -0.020189816 0.08401983 -8.265785e-12 4.6763033e-09 -2.8650358e-25 0.0016980086 2.3894495e-27
2.601678e-26 3.249323e-33 -0.015554205 -0.096392 -0.017701376 7.667664e-07 0.00013279398 -0.028287642
5.6152996e-14 -9.970243e-23 -0.0003372638 0.005767666 0.02319345 9.131967e-20 -0.006164979 -0.010124965
6.6836475e-07 -2.5160995e-15 1.2925333e-17 0.018491505 -2.3759281e-09 -2.832432e-14 3.3698927e-12 -0.00014912001
4.3176435e-05 0.037970994 1.5523836e-09 2.859259e-06 1.064784e-21 1.5671023e-17 1.6524119e-17 -4.4591938e-14

sparse_weighted_adjacency_matrices.temporal_attention.key.weight f4 [64, 64]
00000000: 9882 122b 8316 7320 efdd 1927 a03c 00a7
00000010: 2f38 edaa ec8d a0aa ebef 4024 2a24 162b
00000020: 53e7 aa24 1199 9da5 853c 3092 8641 679c
00000030: c037 4a1f cab4 bca3 b111 1212 bf40 f6aa
00000040: 02dd 0bab 93f2 d020 7931 c8a5 8ce6 4227
00000050: ab2d d79e fa03 bea6 889f 7ea9 2552 15ab
00000060: 23c6 d829 70c2 058c 34a2 99aa 2e2f ac2a
00000070: 8bdb 0caa efc5 3b9c 5f56 16ab 3e12 ba14
00000080: d9c8 13a1 fa02 1f1d b552 162b 90b0 432a
00000090: bc80 8221 4313 eb2a e0d2 fb2a b4bc 938e
000000a0: 4852 0cab 33ec 44a8 a6e3 2c2b 8723 9b26
000000b0: 2799 faaa 1897 0aab b1d0 e62a 802e 190d
000000c0: 5e38 24a9 cdb2 d227 68ca ad24 a982 8991
000000d0: b1ba 0d2b 34d2 b22a 23c5 d6a6 679b 152b
000000e0: 5d56 162b 7406 2a21 6fa2 13ab 561e a2a3
000000f0: d8c1 152b 9cc9 52a6 a799 0f2b 1e13 5491
00000100: b84c d1b6 5e5d c52b 6755 8d30 7be0 0432
00000110: 1f0c da36 25dd dc36 4039 1daf eba0 d4b6
00000120: 55d6 082f 26d1 b82f b50c 219e bfe1 8da6
00000130: 1a06 c9aa fc35 e5ae e264 831d db90 cb36
00000140: 9b39 cf36 e303 ea2b 6db2 7e30 1ec2 e0b1
00000150: 2df8 b1a9 66e8 99b1 da31 ba36 72b2 d236
00000160: d492 b236 a6b1 3a17 9bd4 c336 1449 c5b6
00000170: d4ff b0b6 c0ca b523 460e d436 7664 11a0
00000180: 93e7 2d2c f480 2e27 1938 d4b6 a17e bfb6
00000190: 52b9 bd2c e173 9c36 8b1b ccb6 9177 5598
000001a0: e758 cf36 55f5 b6b6 0b18 6236 49a7 16b1
000001b0: 5877 d936 d2e5 ce36 8524 cab6 17b8 bd18
000001c0: 58af b5b6 134c 57b2 5dba 0130 5723 771c
000001d0: 5973 d7b6 72cf c5b6 471b f031 e2e9 d2b6
000001e0: f20f d4b6 d796 e4ab b0c5 d136 4a5d 092f
000001f0: 7e05 d5b6 69e5 e5b1 2e19 d7b6 33d1 8b9c
00000200: c69e fabd 63d5 2c33 e346 7d36 d74c 8738
00000210: bd47 1e3e b744 2a3e dc9b 7234 3e06 09be
00000220: 9b2c 67b5 f56f 3a36 13d9 0e25 e4ba 85ae
00000230: 2274 b62f b9d2 9cb4 6ddb 59a4 3bc7 d73d
00000240: df2f ed3d 677e 9931 403c ee35 dffb 97b6
00000250: ef54 54af df51 e4b5 61e7 943d 3d18 023e
00000260: ee57 833d e1f8 589d 61db b33d 19b9 b9bd
00000270: 123d 80bd 5712 05ac 7cee 063e 07ea 0927
00000280: 264b 3eb1 d208 4eae 5d86 07be c265 a4bd
00000290: ee4a ea32 2763 433d 3ac2 dabd 7f35 ff1e
000002a0: 36f3 ed3d 56e0 8cbd 62ae f13c 4459 f5b7
000002b0: f4e1 1b3e cd24 eb3d 813f d0bd c638 3e9f
000002c0: 1cf6 89bd b099 0db9 68e2 7d35 da78 05a2
000002d0: 91c8 13be 04f0 bbbd 4d8d b236 c4d9 02be
000002e0: f2f4 06be 1b43 e32f 8dcf fd3d 907e 6fb5
000002f0: df7a 0abe d32b b5b6 fa65 12be 2a04 8023
00000300: 2985 4497 836a 878d f149 ac92 e82d dc93
00000310: 782d ac16 93ee 4916 1bb2 ef10 1e78 1b97
00000320: 28c8 1991 75c0 4591 a2c0 0380 349e 9d08
00000330: 4240 9b0c 7a87 8b0f 17de 0380 a060 8117
00000340: 148e 5c17 2ef6 4f8d 415a 6391 4f32 e212
00000350: 717c 990b 7ae2 b513 6564 af17 2993 3317
00000360: 14b7 b117 e37d 0200 04ab 9e17 425a 9a97
00000370: 0b5c b197 6f21 3587 3baf 2217 a6bb 9081
00000380: 5028 6e0d be0e db89 63a2 2097 7e8c a897
00000390: 3db5 e58d 0fa0 9d17 8b7e 7d97 66f8 0000
000003a0: b92f 5b17 a14b b197 0dfa 2e17 434b 3e12
000003b0: cb0c bb16 8b39 6017 66f1 8797 8f2e 0000
000003c0: d2a6 b197 416d d111 7830 5611 d2cb 0180
000003d0: 51ce ee96 a3a8 9897 5956 f293 67ea 3097
000003e0: 1399 2297 bf04 5a0d ddd8 3e17 449c bd8f
000003f0: 7a7c 1697 7259 0c14 4ae2 f796 5335 0580
5.2050855e-13 2.0590349e-19 2.1353326e-15 -1.7796433e-15 -4.2138642e-13 -2.8520188e-13 4.1836582e-17 5.3340893e-13
7.4117626e-17 -2.733888e-16 -5.5610404e-28 -7.6516176e-22 4.282128e-20 -2.0459568e-17 4.6091283e-28 -4.3743305e-13
-4.968943e-13 3.5397093e-19 -3.4727993e-16 2.7047888e-15 -2.2782898e-20 -1.3184976e-15 -5.65377e-14 -5.304943e-13
9.626698e-14 -1.0304459e-31 -2.729081e-13 3.0586075e-13 -1.2510667e-13 -6.2128933e-22 -5.341057e-13 1.8788396e-26
-5.0071357e-19 2.1045014e-21 5.3405484e-13 1.7380737e-13 8.843218e-19 4.175775e-13 4.473288e-13 -3.6420012e-30
-4.985218e-13 -1.0931403e-14 6.14226e-13 1.0764915e-15 -4.4515192e-13 -4.9237133e-13 4.1001016e-13 4.7202737e-31
-3.6464206e-14 5.8480565e-15 7.536968e-17 -2.1695314e-28 5.035235e-13 3.176501e-13 -1.4902667e-15 5.31511e-13
5.341056e-13 5.760678e-19 -5.2450313e-13 -1.7576923e-17 5.3204446e-13 -7.313162e-16 5.101704e-13 -1.6729742e-28
-6.2376166e-06 1.4023606e-12 1.0283373e-09 7.734452e-09 6.4983174e-06 6.5822555e-06 -1.4299406e-10 -6.3368257e-06
1.2445274e-10 3.3618014e-10 -8.525897e-21 -9.845029e-16 -3.5709006e-13 -1.0423304e-10 3.477972e-21 6.066735e-06
6.175787e-06 1.6627779e-12 9.265822e-10 -6.5413266e-09 -7.9034306e-14 -4.4793067e-09 5.5490354e-06 6.2792615e-06
5.3219064e-06 6.0324065e-25 5.8362034e-06 -5.879565e-06 -5.274991e-06 1.9709927e-17 6.319754e-06 -1.2315217e-19
2.4713328e-12 2.4217256e-15 -6.324623e-06 -5.706985e-06 5.3922778e-12 4.6626524e-06 -6.08288e-06 -2.758997e-24
6.1794303e-06 -5.452583e-06 3.369062e-06 -2.1922963e-09 6.4809974e-06 6.166033e-06 -6.0243206e-06 4.904124e-24
-5.414633e-06 -1.2531944e-08 4.7194765e-10 8.177112e-22 -6.4209275e-06 -5.8952073e-06 6.9880204e-09 -6.2857152e-06
-6.3199486e-06 -1.6242241e-12 6.2516992e-06 1.249322e-10 -6.348534e-06 -6.690858e-09 -6.4104306e-06 -9.252325e-22
-0.12237315 4.0240945e-08 3.77412e-06 6.451614e-05 0.15457053 0.16627775 2.2594708e-07 -0.13381287
-8.6119115e-07 2.7781327e-06 1.2390084e-16 -6.081338e-11 3.3188124e-10 -2.9210585e-07 -4.7240235e-17 0.10536047
0.11581396 4.4672563e-09 1.7749917e-06 -4.5294723e-06 -1.9311462e-10 -1.7011151e-06 0.072706945 0.12704559
0.06413256 -2.871603e-21 0.087820776 -0.09068508 -0.06261648 -1.8910617e-12 0.13176912 1.9139436e-15
-2.7691356e-09 -4.684681e-11 -0.1323485 -0.08027221 2.727526e-08 0.04770198 -0.10681577 2.70213e-20
0.116186544 -0.06878726 0.029502098 -2.9247843e-05 0.15222913 0.114816286 -0.101683624 -4.0281027e-20
-0.06736395 -0.00013504061 9.457931e-07 -1.808884e-18 -0.14431979 -0.09176639 5.321263e-06 -0.12778383
-0.13179377 4.133874e-10 0.12393103 -8.921861e-07 -0.13523434 -5.399322e-06 -0.14296713 1.3879551e-17
-6.3499087e-25 -8.345659e-31 -1.0872954e-27 -5.5581075e-27 2.7816794e-25 1.6311931e-25 9.4543293e-29 -5.023481e-25
-1.213125e-28 -1.5599865e-28 -3.4461e-40 9.486287e-34 2.3920205e-31 1.3758642e-29 -3.55177e-40 8.360821e-25
7.126516e-25 -6.408313e-31 -1.7934954e-28 1.4275007e-27 5.9120695e-32 4.5914147e-27 1.1334453e-24 5.802376e-25
1.1484572e-24 2.2883e-40 1.0253681e-24 -9.974801e-25 -1.1461592e-24 -1.3626752e-34 5.2566195e-25 -5.316651e-38
7.3387937e-31 -5.2736196e-33 -5.190375e-25 -1.0892211e-24 -1.4156846e-30 1.0186292e-24 -8.190843e-25 8.9109e-41
7.082295e-25 -1.1457448e-24 5.653804e-25 6.0046196e-28 3.0219553e-25 7.2450933e-25 -8.785108e-25 1.6702e-41
-1.1480468e-24 3.3041719e-28 1.6896559e-28 -1.64952e-40 -3.8581178e-25 -9.86534e-25 -6.1174534e-27 -5.7164524e-25
-5.253823e-25 6.718215e-31 6.166603e-25 -1.869703e-29 -4.8624726e-25 7.085834e-27 -4.004781e-25 -4.78307e-40

sparse_weighted_adjacency_matrices.temporal_attention.key.bias f4 [64]
00000000: 8855 92a1 0968 312c 807f 0a33 e2a2 1a8e
00000010: 3c70 9f31 d695 0223 0edb ca2d 8411 9da6
00000020: 6c29 8eb3 a3a0 2eaa e125 ed92 5465 df8a
00000030: 7aab a0a6 efd4 3f2d 79f8 87a3 95c1 2b9e
00000040: 84d7 a7ae 31f5 051f 656c 5c1a 2f76 1829
00000050: 9b5b 9f2f 4279 4cb2 3fcf 3410 e4ea dc04
00000060: 413a d784 7cc1 2631 f1e6 8ab2 4f8d 65a2
00000070: 2e30 6727 b134 508c 8095 31b0 8628 9d89
00000080: ac0b 4f8a 3091 0c00 cb5d ad31 12e9 8931
00000090: e62e d132 0945 9caa c0bc 9c2e fb6a 0933
000000a0: 3512 911f dbb6 de8f d3aa ef2f c103 962f
000000b0: 861c 2032 00cb c516 36a8 a131 bf69 a531
000000c0: 0b31 b2aa 8c74 ec1d c453 4799 883a a7b3
000000d0: 04cc c7a6 822c 1f20 4d43 ffa2 aec6 30ae
000000e0: a5bf 00ad 54fb 96b3 1f0e bc25 5f5b ad2c
000000f0: ec59 5492 c124 a81a 5be0 bd9a 6611 03a0
-9.915985e-19 2.5210964e-12 3.224659e-08 -1.906039e-30 4.6402686e-09 7.079043e-18 2.3062021e-11 -1.0898811e-15
-6.619925e-08 -1.5510037e-13 -1.4966141e-27 -2.1512234e-32 -1.1148709e-15 1.0904374e-11 -1.4741962e-17 -9.0926964e-21
-7.632564e-11 2.8366663e-20 4.5582494e-23 3.3853288e-14 2.898702e-10 -1.1901934e-08 3.5658397e-29 5.1937464e-36
-5.0599755e-36 2.4266162e-09 -1.6170334e-08 -3.1110095e-18 3.2083808e-15 -1.6039593e-31 -6.4604677e-10 -3.7834483e-33
-9.968883e-33 1.15411e-39 5.0456257e-09 4.013722e-09 2.435213e-08 -2.775907e-13 7.1275874e-11 3.1995096e-08
6.144001e-20 -2.1961323e-29 4.3595225e-10 2.7287508e-10 9.319711e-09 3.1955178e-25 4.70484e-09 4.814154e-09
-3.1653182e-13 6.2589187e-21 -1.0304975e-23 -7.78719e-08 -1.3863697e-15 1.348255e-19 -6.9189146e-18 -4.019423e-11
-7.318511e-12 -7.0306356e-08 3.262237e-16 4.9271e-12 -6.700624e-28 6.954255e-23 -7.8531034e-23 -1.1101888e-19

sparse_weighted_adjacency_matrices.spa_fusion.conv.0.weight f4 [8, 8, 1, 1]
00000000: d840 c8b7 9540 c8b7 e240 c8b7 8641 c8b7
00000010: 4c40 c8b7 1b40 c8b7 c240 c8b7 fd41 c8b7
00000020: 1d3b d7b9 8039 d7b9 1639 d7b9 8138 d7b9
00000030: b637 d7b9 7736 d7b9 ef36 d7b9 3638 d7b9
00000040: b0fe 27b8 6afe 27b8 31fe 27b8 eefd 27b8
00000050: c3fd 27b8 a8fd 27b8 c1fd 27b8 cefd 27b8
00000060: 374e bdb6 c64c bdb6 074b bdb6 0748 bdb6
00000070: 6d48 bdb6 0f4a bdb6 ba4a bdb6 c14b bdb6
00000080: 16af fd36 89af fd36 afb1 fd36 fcb5 fd36
00000090: edb2 fd36 9db0 fd36 43b0 fd36 b4b0 fd36
000000a0: c9aa 60b6 d4aa 60b6 84aa 60b6 eaa9 60b6
000000b0: 43ab 60b6 32ad 60b6 72ae 60b6 b7af 60b6
000000c0: eb61 8fb9 aa61 8fb9 9961 8fb9 d361 8fb9
000000d0: d861 8fb9 3561 8fb9 3361 8fb9 4761 8fb9
000000e0: c711 2738 cc12 2738 2916 2738 ac15 2738
000000f0: be12 2738 2012 2738 3915 2738 ac22 2738
-2.3872053e-05 -2.3871931e-05 -2.3872071e-05 -2.387237e-05 -2.3871798e-05 -2.387171e-05 -2.3872013e-05 -2.3872586e-05
-0.00041052038 -0.00041050836 -0.00041050528 -0.00041050094 -0.00041049503 -0.00041048575 -0.00041048924 -0.00041049876
-4.00531e-05 -4.0052844e-05 -4.0052637e-05 -4.0052393e-05 -4.0052237e-05 -4.005214e-05 -4.005223e-05 -4.0052277e-05
-5.6417443e-06 -5.6415765e-06 -5.6413733e-06 -5.641024e-06 -5.6410704e-06 -5.6412605e-06 -5.6413382e-06 -5.641458e-06
7.5603702e-06 7.5604225e-06 7.5606727e-06 7.5611733e-06 7.5608173e-06 7.560548e-06 7.560507e-06 7.5605585e-06
-3.347801e-06 -3.3478036e-06 -3.3477854e-06 -3.3477504e-06 -3.3478289e-06 -3.3479414e-06 -3.3480142e-06 -3.348088e-06
-0.0002734804 -0.0002734785 -0.000273478 -0.0002734797 -0.00027347985 -0.0002734751 -0.00027347505 -0.00027347563
3.983246e-05 3.983341e-05 3.983654e-05 3.9836086e-05 3.9833358e-05 3.9832783e-05 3.9835668e-05 3.9848193e-05

sparse_weighted_adjacency_matrices.spa_fusion.conv.0.bias f4 [8]
00000000: 22ad ebb8 84f2 b1bb 894f 43b9 cd33 8ab8
00000010: d36a 00b8 6f3b 71bb 24b3 48ba 1a2d c4b9
-0.00011237922 -0.0054305214 -0.00018626278 -6.5900014e-05 -3.0617066e-05 -0.0036809107 -0.00076560886 -0.00037417636

sparse_weighted_adjacency_matrices.interaction_mask.spatial_asymmetric_convolutions.0.conv1.weight f4 [4, 4, 3, 1]
00000000: b866 5c3c 0f47 b83c 2aca 833c b966 5c3c
00000010: 0f47 b83c 2aca 833c b966 5c3c 0f47 b83c
00000020: 2aca 833c b966 5c3c 0f47 b83c 2aca 833c
00000030: beed d2b7 fae1 88b8 8db4 41b8 beed d2b7
00000040: fae1 88b8 8db4 41b8 beed d2b7 fae1 88b8
00000050: 8db4 41b8 beed d2b7 fae1 88b8 8db4 41b8
00000060: 05d8 f4b7 1855 52b8 5b32 2cb8 05d8 f4b7
00000070: 1855 52b8 5832 2cb8 05d8 f4b7 1855 52b8
00000080: 5832 2cb8 05d8 f4b7 1855 52b8 5832 2cb8
00000090: c26a 09b8 1017 47b8 d70f 73b8 c26a 09b8
000000a0: 1017 47b8 d70f 73b8 c26a 09b8 1017 47b8
000000b0: d70f 73b8 c26a 09b8 0e17 47b8 d60f 73b8
0.013452224 0.02249482 0.01608761 0.013452225 0.02249482 0.01608761 0.013452225 0.02249482
0.01608761 0.013452225 0.02249482 0.01608761 -2.5144658e-05 -6.527077e-05 -4.6182937e-05 -2.5144658e-05
-6.527077e-05 -4.6182937e-05 -2.5144658e-05 -6.527077e-05 -4.6182937e-05 -2.5144658e-05 -6.527077e-05 -4.6182937e-05
-2.9187659e-05 -5.014715e-05 -4.1054893e-05 -2.9187659e-05 -5.014715e-05 -4.1054882e-05 -2.9187659e-05 -5.014715e-05
-4.1054882e-05 -2.9187659e-05 -5.014715e-05 -4.1054882e-05 -3.276277e-05 -4.7466776e-05 -5.7950467e-05 -3.276277e-05
-4.7466776e-05 -5.7950467e-05 -3.276277e-05 -4.7466776e-05 -5.7950467e-05 -3.276277e-05 -4.746677e-05 -5.7950463e-05

sparse_weighted_adjacency_matrices.interaction_mask.spatial_asymmetric_convolutions.0.conv2.weight f4 [4, 4, 1, 3]
00000000: d70d 563c 0f47 b83c 588c 8d3c d70d 563c
00000010: 0f47 b83c 588c 8d3c d70d 563c 0f47 b83c
00000020: 588c 8d3c d70d 563c 0f47 b83c 588c 8d3c
00000030: 45b9 81b8 fbe1 88b8 a1b1 4bb8 45b9 81b8
00000040: fbe1 88b8 a1b1 4bb8 45b9 81b8 fbe1 88b8
00000050: 9cb1 4bb8 45b9 81b8 fbe1 88b8 a1b1 4bb8
00000060: 60db 2fb8 1755 52b8 c8d0 2eb7 60db 2fb8
00000070: 1755 52b8 c8d0 2eb7 60db 2fb8 1755 52b8
00000080: c8d0 2eb7 60db 2fb8 1755 52b8 c8d0 2eb7
00000090: f14c 22b8 0f17 47b8 5768 0237 f14c 22b8
000000a0: 1117 47b8 5768 0237 f14c 22b8 0f17 47b8
000000b0: 5768 0237 f14c 22b8 0f17 47b8 5368 0237
0.013064823 0.02249482 0.017278835 0.013064823 0.02249482 0.017278835 0.013064823 0.02249482
0.017278835 0.013064823 0.02249482 0.017278835 -6.1857085e-05 -6.5270775e-05 -4.85644e-05 -6.1857085e-05
-6.5270775e-05 -4.85644e-05 -6.1857085e-05 -6.5270775e-05 -4.8564383e-05 -6.1857085e-05 -6.5270775e-05 -4.85644e-05
-4.192756e-05 -5.0147148e-05 -1.0419819e-05 -4.192756e-05 -5.0147148e-05 -1.0419819e-05 -4.192756e-05 -5.0147148e-05
-1.0419819e-05 -4.192756e-05 -5.0147148e-05 -1.0419819e-05 -3.8695467e-05 -4.7466772e-05 7.772897e-06 -3.8695467e-05
-4.746678e-05 7.772897e-06 -3.8695467e-05 -4.7466772e-05 7.772897e-06 -3.8695467e-05 -4.7466772e-05 7.772894e-06

sparse_weighted_adjacency_matrices.interaction_mask.spatial_asymmetric_convolutions.0.conv2.bias f4 [4]
00000000: 92da e23d d915 bbb9 97f1 8dbb eb04 9db9
0.11076845 -0.00035683697 -0.0043317783 -0.00029949038

sparse_weighted_adjacency_matrices.interaction_mask.spatial_asymmetric_convolutions.1.conv1.weight f4 [4, 4, 3, 1]
00000000: bba4 b83c acad 183d e70b d33c e114 3b3c
00000010: 5869 a13c 2c85 663c 1113 3b3c 9e67 a13c
00000020: e782 663c 1d15 3b3c 6869 a13c 8685 663c
00000030: 4512 1427 7ace afa9 134d 8ea9 5e59 63a9
00000040: 262c 11a8 01e5 1ea8 8d4a 63a9 662c 11a8
00000050: 93e4 1ea8 5152 63a9 8029 11a8 b3e2 1ea8
00000060: 083e 88a8 9a8f 66a9 a533 e2a8 6499 caa6
00000070: 5e8c f628 79ad 0529 0c99 caa6 df8a f628
00000080: d3ac 0529 5b56 bca6 bed6 f528 c7e0 0529
00000090: 91f4 3f29 2695 78a8 e4fa 4ba9 3ca2 dfa8
000000a0: f1c4 4729 71e2 1d29 d39a dfa8 6fc4 4729
000000b0: ffdf 1d29 fac7 dfa8 41ba 4729 71f1 1d29
0.022539487 0.037275 0.025762511 0.011418552 0.019703552 0.014069837 0.01141812 0.019702729
0.0140692955 0.011418608 0.019703582 0.01406992 2.054903e-15 -7.807379e-14 -6.319437e-14 -5.048164e-14
-8.05869e-15 -8.820419e-15 -5.0468788e-14 -8.058744e-15 -8.820326e-15 -5.0475523e-14 -8.058116e-15 -8.8199195e-15
-1.5125935e-14 -5.1194814e-14 -2.5113438e-14 -1.4058142e-15 2.7372361e-14 2.9682396e-14 -1.4058049e-15 2.7371712e-14
2.9681834e-14 -1.3068527e-15 2.7293594e-14 2.9726896e-14 4.2622647e-14 -1.3799107e-14 -4.5292668e-14 -2.4828331e-14
4.4357696e-14 3.505741e-14 -2.4825118e-14 4.4357255e-14 3.505529e-14 -2.48447e-14 4.4348426e-14 3.507042e-14
