checkpoints/intersectionB/val_best.pth (torch_old, 133683 bytes, 81 tensors)

sparse_weighted_adjacency_matrices.spatial_attention.embedding.weight f4 [64, 2]
000000 e5 26 00 80 ab 05 03 80 da 00 00 00 43 04 01 80
       -1.3953e-41 -2.7754e-40 3.05e-43 -9.3364e-41
000010 8f 44 01 00 fd 2b 00 00 fc a3 00 00 5e 48 01 80
       1.1643e-40 1.578e-41 5.8827e-41 -1.17796e-40
000020 cf 72 02 00 66 51 02 00 b5 87 02 80 ef e0 02 00
       2.24857e-40 2.12871e-40 -2.32354e-40 2.64362e-40
000030 29 f3 00 00 ae 4b 01 00 fb b4 01 80 2a 56 00 00
       8.723e-41 1.18984e-40 -1.56759e-40 3.091e-41
000040 1d fd 03 00 06 53 02 00 4e b9 01 00 3d 32 00 80
       3.66306e-40 2.13454e-40 1.5831e-40 -1.8022e-41
000050 1a 2a 00 80 86 63 04 00 35 a8 00 00 61 16 00 00
       -1.5103e-41 4.03044e-40 6.0341e-41 8.028e-42
000060 4e 96 02 80 a2 9e 02 00 14 73 03 80 dd a1 00 00
       -2.3759e-40 2.40578e-40 -3.16789e-40 5.8066e-41
000070 66 e9 00 80 9e 6e 02 80 f7 85 00 00 c7 f3 00 00
       -8.3728e-41 -2.23353e-40 4.8058e-41 8.7451e-41
000080 b3 05 04 80 12 b3 03 80 a0 cd 01 00 a0 a8 01 00
       -3.69386e-40 -3.39745e-40 1.656e-40 1.52327e-40
000090 24 0b 01 00 1f 39 01 80 f7 46 00 80 3d 69 02 80
       9.5832e-41 -1.12327e-40 -2.5457e-41 -2.21423e-40
0000a0 08 e7 01 80 1f b5 00 00 33 8b 00 80 f3 f3 00 00
       -1.74714e-40 6.4974e-41 -4.9935e-41 8.7512e-41
0000b0 03 59 02 00 e0 e7 01 00 2c 3f 03 00 b7 94 03 80
       2.15602e-40 1.75017e-40 2.98168e-40 -3.28855e-40
0000c0 a7 6a 02 00 77 07 02 80 f7 4f 00 00 01 6b 00 00
       2.2193e-40 -1.86349e-40 2.8686e-41 3.8386e-41
0000d0 bc 64 03 80 c6 51 01 80 97 95 00 00 9b 5d 03 80
       -3.11643e-40 -1.2117e-40 5.3663e-41 -3.09086e-40
0000e0 72 d6 00 00 0b 93 04 00 5d 70 02 80 2f a4 02 80
       7.6928e-41 4.20091e-40 -2.2398e-40 -2.42569e-40
0000f0 9f 54 01 00 6f fe 01 00 0b a8 03 00 23 8a 00 80
       1.22192e-40 1.83109e-40 3.35789e-40 -4.9554e-41
000100 86 b4 02 80 ac 1d 03 80 09 a9 02 00 4e e7 02 00
       -2.4843e-40 -2.86151e-40 2.4431e-40 2.66647e-40
000110 2c 71 00 00 b9 6a 03 80 3a 8b 02 00 08 a2 01 00
       4.0598e-41 -3.13791e-40 2.33616e-40 1.49961e-40
000120 ad b5 02 00 11 37 00 80 2f 59 03 00 00 78 00 00
       2.48844e-40 -1.9754e-41 3.075e-40 4.3048e-41
000130 7b 90 02 80 ba e6 00 80 58 70 00 80 67 ee 02 00
       -2.35501e-40 -8.2769e-41 -4.0301e-41 2.69194e-40
000140 03 86 00 80 2c 8f 02 00 9d 13 00 80 10 f4 02 80
       -4.8074e-41 2.35031e-40 -7.036e-42 -2.71224e-40
000150 36 8b 02 00 c8 24 01 00 4a e9 00 80 eb 44 02 80
       2.3361e-40 1.0503e-40 -8.3688e-41 -2.08394e-40
000160 7c 59 00 00 1c 85 02 80 55 b1 03 80 43 9b 02 00
       3.2101e-41 -2.31422e-40 -3.39121e-40 2.39368e-40
000170 30 64 02 00 a4 2c 02 00 67 ac 00 00 47 57 04 00
       2.19611e-40 1.99685e-40 6.1846e-41 3.98651e-40
000180 16 82 02 80 e5 25 01 00 95 41 02 00 3c 9f 02 80
       -2.30337e-40 1.0543e-40 2.07197e-40 -2.40794e-40
000190 9c 27 04 80 e9 23 02 80 4d 6a 01 80 7a 18 00 80
       -3.81551e-40 -1.96553e-40 -1.29969e-40 -8.78e-42
0001a0 92 6c 01 00 3a 4b 00 80 df 26 01 00 c9 f4 02 00
       1.30783e-40 -2.6986e-41 1.0578e-40 2.71483e-40
0001b0 57 ac 00 80 dc 7c 00 00 c2 a1 02 80 35 ea 02 80
       -6.1824e-41 4.4791e-41 -2.41699e-40 -2.67689e-40
0001c0 f3 9a 04 00 87 8b 04 80 8e 62 03 00 17 15 03 80
       4.22927e-40 -4.17395e-40 3.10861e-40 -2.83072e-40
0001d0 db a4 00 00 7d 61 02 80 98 04 00 80 3c 44 04 00
       5.9139e-41 -2.18643e-40 -1.648e-42 3.9182e-40
0001e0 d7 66 00 00 ae ff 00 80 7c da 00 80 da 40 02 80
       3.6892e-41 -9.172e-41 -7.8377e-41 -2.06935e-40
0001f0 ef 67 00 80 36 5d 00 00 ff e1 02 00 53 02 00 80
       -3.7284e-41 3.3438e-41 2.64743e-40 -8.34e-43

sparse_weighted_adjacency_matrices.spatial_attention.embedding.bias f4 [64]
000000 d9 2a 03 00 ae 8e 01 80 3d 8b 00 80 80 04 03 80
       2.90877e-40 -1.4302e-40 -4.9949e-41 -2.77121e-40
000010 dd 84 01 80 bf b5 01 00 79 93 02 80 0c 15 02 00
       -1.39498e-40 1.57034e-40 -2.36574e-40 1.91221e-40
000020 ba 0a 00 80 72 2c 03 00 43 8e 00 80 25 63 00 80
       -3.848e-42 2.9145e-40 -5.1034e-41 -3.5566e-41
000030 ba 73 02 80 0c 3b 01 00 4e 71 02 80 50 59 00 80
       -2.25186e-40 1.13018e-40 -2.24317e-40 -3.2039e-41
000040 59 80 03 00 0d 76 02 80 60 90 00 80 dd d6 02 00
       3.21549e-40 -2.2602e-40 -5.1792e-41 2.6075e-40
000050 07 40 04 00 c2 4e 01 80 84 33 02 00 01 5d 02 00
       3.9031e-40 -1.20088e-40 2.02151e-40 2.17035e-40
000060 14 6c 01 00 98 fb 01 80 1b 68 04 80 f7 69 00 80
       1.30607e-40 -1.8209e-40 -4.04688e-40 -3.8013e-41
000070 48 58 03 00 8b d3 02 80 8c 70 02 80 f8 97 00 80
       3.07176e-40 -2.59558e-40 -2.24045e-40 -5.4516e-41
000080 91 f8 01 80 7a bc 01 80 f4 25 02 80 a2 ee 02 00
       -1.81004e-40 -1.59448e-40 -1.97286e-40 2.69276e-40
000090 f9 33 00 80 e5 df 02 80 92 7a 04 80 a4 ba 00 80
       -1.8644e-41 -2.63989e-40 -4.11312e-40 -6.6954e-41
0000a0 9c e6 02 80 ae 19 01 00 ab 7a 00 80 de 54 01 80
       -2.66398e-40 1.01048e-40 -4.4005e-41 -1.2228e-40
0000b0 e9 8e 03 80 3b 53 00 80 2a 3b 00 80 5c 6a 02 00
       -3.26773e-40 -2.9857e-41 -2.1224e-41 2.21826e-40
0000c0 b3 a1 00 00 1e 7b 00 80 7d 0e 00 00 82 14 02 00
       5.8007e-41 -4.4166e-41 5.197e-42 1.91028e-40
0000d0 87 1c 00 00 06 12 01 00 9e 7b 00 00 88 dd 02 00
       1.0234e-41 9.8301e-41 4.4345e-41 2.63141e-40
0000e0 2e 11 02 80 a5 66 01 80 52 12 02 80 44 44 01 00
       -1.89834e-40 -1.28657e-40 -1.90243e-40 1.16325e-40
0000f0 27 3a 01 80 c4 0f 03 00 09 e9 00 00 fc 97 02 00
       -1.12697e-40 2.81162e-40 8.3597e-41 2.38193e-40

sparse_weighted_adjacency_matrices.spatial_attention.query.weight f4 [64, 64]
000000 f7 89 04 00 fb 2f 00 00 58 18 02 80 69 b0 02 00
       4.16834e-40 1.7212e-41 -1.92404e-40 2.46955e-40
000010 f6 91 00 00 4e 27 04 80 04 70 00 80 2c 3c 01 00
       5.2361e-41 -3.81442e-40 -4.0184e-41 1.13421e-40
000020 28 ac 02 00 c6 14 01 00 17 48 04 80 e1 35 04 80
       2.45429e-40 9.9288e-41 -3.93203e-40 -3.8667e-40
000030 29 09 03 80 a1 a5 00 00 f8 bb 02 80 86 7f 02 00
       -2.78793e-40 5.9416e-41 -2.51101e-40 2.29418e-40
000040 ed bf 00 00 3e 17 02 00 5b 43 01 00 ac a3 02 80
       6.885e-41 1.92009e-40 1.15998e-40 -2.42385e-40
000050 83 64 03 00 de 3e 03 00 f0 7b 03 00 5d 11 01 80
       3.11563e-40 2.98059e-40 3.19967e-40 -9.8064e-41
000060 68 2f 01 00 1c 36 00 80 91 43 01 80 05 2d 01 80
       1.08842e-40 -1.9411e-41 -1.16074e-40 -1.07985e-40
000070 24 15 04 00 bb 8e 00 00 56 0a 04 80 99 6d 01 00
       3.74926e-40 5.1202e-41 -3.7105e-40 1.31152e-40
000080 d1 5a 01 80 8c dc 02 80 6a 04 01 00 76 ad 00 00
       -1.24414e-40 -2.62788e-40 9.3419e-41 6.2226e-41
000090 38 0e 04 80 16 65 04 00 21 52 03 00 66 29 04 00
       -3.72443e-40 4.03605e-40 3.04969e-40 3.82193e-40
0000a0 84 68 00 80 bb fb 02 00 f0 4c 01 00 6a 67 04 00
       -3.7493e-41 2.73975e-40 1.19435e-40 4.0444e-40
0000b0 6c fc 00 80 c6 37 00 80 97 e0 02 80 6b 75 00 00
       -9.0552e-41 -2.0008e-41 -2.64239e-40 4.2122e-41
0000c0 54 a0 01 00 1e 9d 01 00 ec 7c 02 00 a6 29 00 00
       1.4935e-40 1.48199e-40 2.28485e-40 1.494e-41
0000d0 88 3d 01 00 f4 68 02 00 2d 21 01 80 61 b8 02 80
       1.13909e-40 2.21321e-40 -1.03737e-40 -2.49814e-40
0000e0 6c 72 01 80 e1 0b 00 00 91 ec 00 00 7c a1 01 80
       -1.32882e-40 4.261e-42 8.4864e-41 -1.49765e-40
0000f0 bd 67 02 00 55 16 02 00 ba 85 04 00 f7 81 01 80
       2.20885e-40 1.91682e-40 4.15314e-40 -1.38458e-40
000100 ab 51 00 00 c7 1b 01 80 d6 44 04 00 b8 75 02 80
       2.9297e-41 -1.018e-40 3.92036e-40 -2.259e-40
000110 9a 3b 02 80 8d d8 03 00 43 b5 00 00 83 9d 03 80
       -2.05052e-40 3.5319e-40 6.5024e-41 -3.32011e-40
000120 4f de 00 80 92 63 04 00 09 16 00 80 8b da 00 00
       -7.9749e-41 4.03061e-40 -7.905e-42 7.8398e-41
000130 0a 37 00 80 f3 04 01 80 e9 a8 01 00 38 6e 01 80
       -1.9744e-41 -9.3611e-41 1.52429e-40 -1.31375e-40
000140 b1 9f 00 80 d3 3c 01 80 92 69 02 80 48 04 04 00
       -5.7286e-41 -1.13655e-40 -2.21542e-40 3.68878e-40
000150 b7 62 03 00 a7 ff 00 00 0b 7b 00 80 7d 36 00 00
       3.10919e-40 9.1711e-41 -4.414e-41 1.9547e-41
000160 57 74 02 00 a3 01 04 00 d3 36 02 00 41 8b 03 80
       2.25406e-40 3.67929e-40 2.03338e-40 -3.25461e-40
000170 fb 55 01 80 91 64 01 00 48 a8 02 80 03 e2 00 00
       -1.2268e-40 1.27912e-40 -2.44039e-40 8.1078e-41
000180 38 04 04 80 53 36 02 80 70 36 00 00 c5 72 01 80
       -3.68855e-40 -2.03159e-40 1.9528e-41 -1.33007e-40
000190 38 64 03 00 20 e3 00 00 8c b1 01 80 ee 2f 01 00
       3.11458e-40 8.1477e-41 -1.55527e-40 1.0903e-40
0001a0 b8 88 02 80 4f 18 02 80 a5 6a 03 00 49 97 01 80
       -2.32716e-40 -1.92391e-40 3.13763e-40 -1.46106e-40
0001b0 d3 42 01 80 26 f1 03 80 18 e4 00 80 26 0c 04 00
       -1.15808e-40 -3.62014e-40 -8.1825e-41 3.717e-40
0001c0 0d 94 01 80 94 54 03 00 0b 6b 04 80 c7 20 00 80
       -1.44946e-40 3.05847e-40 -4.05742e-40 -1.1758e-41
0001d0 cc ee 00 80 fc 42 01 80 9c 13 04 80 a8 4d 01 80
       -8.5664e-41 -1.15865e-40 -3.74377e-40 -1.19693e-40
0001e0 ee 6d 03 00 7f f1 01 00 99 cc 02 80 a5 18 03 80
       3.14942e-40 1.78468e-40 -2.57067e-40 -2.84347e-40
0001f0 d2 1f 01 00 fd 67 02 00 b3 8b 01 80 c3 4e 04 00
       1.0325e-40 2.20975e-40 -1.4195e-40 3.95596e-40
000200 bc 2b 03 80 4a 6a 02 00 29 27 00 00 2b a0 02 80
       -2.91195e-40 2.218e-40 1.4048e-41 -2.41128e-40
000210 28 63 00 80 b8 bb 00 80 7b 69 01 80 a0 92 02 80
       -3.557e-41 -6.7341e-41 -1.29675e-40 -2.3627e-40
000220 d8 e1 02 00 84 45 02 80 aa a2 03 80 be 45 02 80
       2.64688e-40 -2.08608e-40 -3.3386e-40 -2.0869e-40
000230 95 73 03 80 db 41 03 80 3a 30 02 00 87 58 01 80
       -3.1697e-40 -2.99131e-40 2.00971e-40 -1.23593e-40
000240 48 6f 02 80 79 ad 00 00 bc 84 03 00 fd 09 02 00
       -2.23591e-40 6.223e-41 3.23123e-40 1.87254e-40
000250 22 75 00 00 a3 8b 03 00 55 8d 03 00 92 45 02 00
       4.202e-41 3.25599e-40 3.26207e-40 2.08628e-40
000260 43 59 01 80 37 f2 00 80 42 b4 00 00 c2 ec 00 80
       -1.23857e-40 -8.689e-41 6.4664e-41 -8.4933e-41
000270 c9 76 04 00 1e 08 01 00 e8 49 01 80 da f0 02 00
       4.09954e-40 9.4747e-41 -1.18348e-40 2.70072e-40
000280 61 d5 01 00 34 a7 02 00 89 61 03 00 b6 62 00 80
       1.68381e-40 2.43652e-40 3.10496e-40 -3.5411e-41
000290 b5 6d 02 00 75 68 02 00 75 f3 00 80 b3 59 03 80
       2.23026e-40 2.21143e-40 -8.7336e-41 -3.07685e-40
0002a0 84 91 02 00 80 30 01 80 b3 ff 03 80 e3 6b 03 00
       2.35872e-40 -1.09234e-40 -3.67234e-40 3.14209e-40
0002b0 4f e7 00 00 83 bc 03 80 70 e1 03 80 e3 3b 00 00
       8.2978e-41 -3.43132e-40 -3.56378e-40 2.1483e-41
0002c0 14 f7 00 00 28 4d 03 80 df 50 03 80 15 d9 01 00
       8.8635e-41 -3.03185e-40 -3.04518e-40 1.6971e-40
0002d0 f5 64 01 80 95 2d 04 80 2d 12 01 00 31 d2 02 80
       -1.28052e-40 -3.83694e-40 9.8356e-41 -2.59073e-40
0002e0 66 f9 03 00 05 1c 01 80 7e 53 01 00 d9 eb 00 00
       3.64974e-40 -1.01887e-40 1.21787e-40 8.4606e-41
0002f0 9a 64 03 00 39 f7 00 80 46 68 01 80 31 04 03 00
       3.11596e-40 -8.8687e-41 -1.29242e-40 2.7701e-40
000300 03 75 02 80 42 26 01 80 a8 ce 00 00 f0 8a 02 80
       -2.25647e-40 -1.0556e-40 7.4134e-41 -2.33512e-40
000310 17 e8 02 80 c7 c7 01 00 2f 76 02 00 32 25 00 80
       -2.66929e-40 1.63502e-40 2.26067e-40 -1.3343e-41
000320 d7 ef 02 00 47 22 01 80 51 f4 01 00 fd 7f 03 00
       2.6971e-40 -1.04132e-40 1.7948e-40 3.2142e-40
000330 a2 35 01 80 d5 4f 02 00 72 1c 04 80 93 42 02 00
       -1.11075e-40 2.1231e-40 -3.77546e-40 2.07553e-40
000340 61 4e 02 00 39 e0 02 00 c6 bc 00 00 9d 83 02 80
       2.11788e-40 2.64107e-40 6.7719e-41 -2.30885e-40
000350 4b 24 00 00 a2 e7 02 00 3a 7b 03 80 8e d1 02 00
       1.302e-41 2.66765e-40 -3.19712e-40 2.58845e-40
000360 5b 47 04 00 fd 14 00 80 ad 6f 01 00 f8 e8 01 00
       3.9294e-40 -7.529e-42 1.31897e-40 1.75409e-40
000370 11 29 02 00 67 85 04 80 b1 03 04 00 25 20 00 00
       1.98403e-40 -4.15198e-40 3.68666e-40 1.1531e-41
000380 e3 3f 01 80 86 d8 02 00 f5 6d 01 80 14 db 00 00
       -1.14754e-40 2.61345e-40 -1.3128e-40 7.859e-41
000390 2a e1 00 00 83 bf 01 00 70 ea 03 80 15 ec 00 00
       8.0774e-41 1.60537e-40 -3.59607e-40 8.469e-41
0003a0 7f 49 01 80 3d ce 01 00 4a 1f 01 00 5e 5a 01 00
       -1.18201e-40 1.6582e-40 1.0306e-40 1.24253e-40
0003b0 53 37 00 00 d4 a7 02 80 a6 46 00 80 52 14 03 00
       1.9847e-41 -2.43876e-40 -2.5344e-41 2.82796e-40
0003c0 da 14 04 80 d5 01 01 80 82 25 03 00 ca 54 00 80
       -3.74822e-40 -9.2493e-41 2.88962e-40 -3.0417e-41
0003d0 58 0d 03 00 83 b8 02 00 eb 89 00 80 e5 6b 03 00
       2.80293e-40 2.49861e-40 -4.9476e-41 3.14212e-40
0003e0 b3 da 01 00 09 70 01 80 9c e7 02 00 29 ba 01 80
       1.7029e-40 -1.32026e-40 2.66757e-40 -1.58617e-40
0003f0 96 6b 03 00 fa 91 02 00 32 ff 01 00 e4 6d 00 80
       3.14101e-40 2.36038e-40 1.83382e-40 -3.9421e-41

sparse_weighted_adjacency_matrices.spatial_attention.query.bias f4 [64]
000000 e0 79 02 80 a0 07 04 80 d5 66 01 80 1f 4d 03 00
       -2.27392e-40 -3.70077e-40 -1.28725e-40 3.03172e-40
000010 2f 58 04 00 96 bc 02 00 4d 02 04 80 9b 53 01 80
       3.98976e-40 2.51323e-40 -3.68167e-40 -1.21827e-40
000020 86 9f 01 80 60 9d 02 00 fc cf 02 80 58 4f 01 00
       -1.49062e-40 2.40127e-40 -2.58282e-40 1.20299e-40
000030 08 99 01 00 03 aa 01 80 b9 31 02 80 75 c1 01 80
       1.46733e-40 -1.52824e-40 -2.01508e-40 -1.61235e-40
000040 bc c6 00 80 4e 5d 01 00 4e 14 02 80 35 a3 03 80
       -7.1292e-41 1.25307e-40 -1.90955e-40 -3.34054e-40
000050 7e 55 03 80 44 e9 01 00 a4 8d 02 00 cc 33 02 00
       -3.06175e-40 1.75515e-40 2.34482e-40 2.02252e-40
000060 36 78 00 80 b3 a9 02 00 af b7 03 00 d1 4b 03 00
       -4.3124e-41 2.44548e-40 3.414e-40 3.02704e-40
000070 5d 72 02 80 b2 b2 01 00 0e 13 01 80 23 4b 00 80
       -2.24697e-40 1.55939e-40 -9.8671e-41 -2.6954e-41
000080 fd db 02 00 0a c2 01 00 f9 e2 02 80 11 62 03 00
       2.62588e-40 1.61444e-40 -2.65093e-40 3.10686e-40
000090 64 b4 00 00 41 09 01 80 d7 a3 02 00 ae c2 02 00
       6.4712e-41 -9.5155e-41 2.42446e-40 2.53509e-40
0000a0 02 56 01 80 18 ea 02 00 f1 dd 03 00 f3 a7 00 00
       -1.22689e-40 2.67648e-40 3.55124e-40 6.0249e-41
0000b0 05 fc 00 80 3a 34 01 80 c4 7c 01 80 8b 86 04 00
       -9.0408e-41 -1.10571e-40 -1.36593e-40 4.15607e-40
0000c0 99 6e 02 00 bf 9f 01 80 88 16 04 80 e4 9e 02 00
       2.23346e-40 -1.49142e-40 -3.75425e-40 2.4067e-40
0000d0 03 9b 00 80 28 3e 00 00 0a 45 02 00 bb 82 02 00
       -5.5608e-41 2.2297e-41 2.08438e-40 2.30568e-40
0000e0 27 31 04 00 56 6d 00 80 3e 7b 00 00 75 a8 02 80
       3.84975e-40 -3.9222e-41 4.4211e-41 -2.44102e-40
0000f0 a0 89 03 00 93 ed 02 80 d9 ac 00 00 a5 c1 02 00
       3.24877e-40 -2.68897e-40 6.2006e-41 2.53138e-40

sparse_weighted_adjacency_matrices.spatial_attention.key.weight f4 [64, 64]
000000 51 6c 01 00 97 64 01 00 70 00 00 80 40 97 01 00
       1.30692e-40 1.2792e-40 -1.57e-43 1.46094e-40
000010 7c d5 03 80 83 a1 00 80 f1 1b 04 00 4d df 01 80
       -3.5209e-40 -5.794e-41 3.77365e-40 -1.71941e-40
000020 4c 48 01 80 b1 5e 01 00 c8 9b 02 00 e6 94 03 00
       -1.17771e-40 1.25804e-40 2.39555e-40 3.28921e-40
000030 c0 72 02 80 e5 e1 02 80 8a 2a 00 00 a6 92 03 00
       -2.24836e-40 -2.64707e-40 1.526e-41 3.28114e-40
000040 fa 93 01 00 ec 6e 01 00 4a 97 00 00 50 8b 02 00
       1.4492e-40 1.31627e-40 5.4272e-41 2.33647e-40
000050 9a fd 00 80 e5 9c 01 00 c4 1b 00 80 b9 c3 00 80
       -9.0975e-41 1.48119e-40 -9.96e-42 -7.0212e-41
000060 71 1f 02 00 bd 65 03 80 41 fc 01 80 fb 02 01 00
       1.9495e-40 -3.12003e-40 -1.82327e-40 9.2905e-41
000070 d6 0f 02 80 8d 17 01 00 a9 06 02 80 de c6 02 00
       -1.89352e-40 1.00284e-40 -1.8606e-40 2.55011e-40
000080 69 9f 00 00 36 6a 02 80 7d 1b 02 80 5f 57 01 00
       5.7186e-41 -2.21772e-40 -1.93532e-40 1.23178e-40
000090 59 fc 03 80 59 ff 00 00 6f 48 00 80 ce e8 00 00
       -3.66032e-40 9.1601e-41 -2.5984e-41 8.3515e-41
0000a0 31 7b 03 80 d8 64 03 80 a7 f8 02 80 0c aa 01 00
       -3.19699e-40 -3.11682e-40 -2.7287e-40 1.52837e-40
0000b0 9e 45 01 80 2c 72 03 00 8a 54 01 00 41 14 03 80
       -1.1681e-40 3.16464e-40 1.22162e-40 -2.82772e-40
0000c0 6e 1a 00 80 6f 47 04 80 58 cf 01 80 ec d7 02 00
       -9.481e-42 -3.92968e-40 -1.66216e-40 2.61129e-40
0000d0 5e 7c 02 80 f8 37 00 80 2d 68 02 00 f2 4e 02 80
       -2.28286e-40 -2.0078e-41 2.21042e-40 -2.11991e-40
0000e0 5f 97 00 80 8d 28 03 80 76 1a 00 00 a8 3b 03 00
       -5.4302e-41 -2.90053e-40 9.492e-42 2.96907e-40
0000f0 31 9d 03 00 92 82 02 80 50 d9 01 80 ee 2c 00 80
       3.31896e-40 -2.30511e-40 -1.69793e-40 -1.6118e-41
000100 22 07 01 80 f1 8e 02 80 6e 90 01 80 4a 6d 02 00
       -9.4394e-41 -2.34949e-40 -1.43647e-40 2.22877e-40
000110 00 f5 01 80 20 45 01 80 fb 42 04 80 d0 2d 04 00
       -1.79725e-40 -1.16633e-40 -3.9137e-40 3.83776e-40
000120 54 33 02 80 a7 2b 01 00 7c c7 02 00 0c 7b 02 80
       -2.02084e-40 1.07495e-40 2.55233e-40 -2.27812e-40
000130 10 55 01 00 19 8f 02 00 88 ff 01 80 88 23 01 00
       1.2235e-40 2.35005e-40 -1.83503e-40 1.04582e-40
000140 91 93 02 00 49 bf 02 00 f0 5b 01 00 1a d8 02 80
       2.36608e-40 2.52291e-40 1.24816e-40 -2.61194e-40
000150 f6 48 03 80 03 d8 02 80 69 38 01 00 36 7f 04 80
       -3.0168e-40 -2.61161e-40 1.12072e-40 -4.12977e-40
000160 1b b1 03 80 c3 31 01 80 f0 61 01 80 ca 9b 00 00
       -3.3904e-40 -1.09687e-40 -1.26969e-40 5.5887e-41
000170 b5 83 03 00 c5 84 02 80 b8 76 02 00 e5 54 01 00
       3.22754e-40 -2.313e-40 2.26259e-40 1.2229e-40
000180 a1 74 00 00 0d 35 03 80 08 9e 04 80 29 46 01 80
       4.1839e-41 -2.94538e-40 -4.24033e-40 -1.17004e-40
000190 0a 33 00 80 bb b9 02 00 23 1c 00 00 b6 3a 01 00
       -1.831e-41 2.50299e-40 1.0094e-41 1.12897e-40
0001a0 68 a0 00 80 96 e7 00 80 e6 94 02 00 f3 d1 03 00
       -5.7543e-41 -8.3077e-41 2.37086e-40 3.50822e-40
0001b0 08 53 03 80 91 98 00 80 42 aa 00 80 76 aa 02 80
       -3.05292e-40 -5.473e-41 -6.1077e-41 -2.44821e-40
0001c0 44 1b 00 80 16 28 01 80 ce 60 02 80 c4 46 02 80
       -9.781e-42 -1.06216e-40 -2.18398e-40 -2.09057e-40
0001d0 3b 15 01 80 ac fa 01 00 6a b8 01 80 a3 22 04 00
       -9.9452e-41 1.8176e-40 -1.57991e-40 3.79767e-40
0001e0 9a 75 03 00 9b 32 00 80 ff e4 01 80 64 dd 02 80
       3.17694e-40 -1.8154e-41 -1.73984e-40 -2.63091e-40
0001f0 6d 9e 01 00 8d a1 03 00 ab 8f 02 80 49 95 02 00
       1.48668e-40 3.3346e-40 -2.3521e-40 2.37224e-40
000200 ba e9 02 00 1c 7d 02 80 73 31 01 00 46 b3 02 80
       2.67516e-40 -2.28552e-40 1.09575e-40 -2.47982e-40
000210 13 43 01 00 b0 b5 02 80 ba 81 02 80 f0 c3 01 80
       1.15897e-40 -2.48848e-40 -2.30208e-40 -1.62125e-40
000220 dc 79 00 00 1b d2 01 80 85 ad 02 00 ad cd 00 80
       4.3715e-41 -1.67207e-40 2.45918e-40 -7.3783e-41
000230 4c c3 01 80 5c 7a 00 80 28 00 04 00 46 23 01 00
       -1.61895e-40 -4.3894e-41 3.67398e-40 1.04489e-40
000240 09 d0 02 00 43 65 02 00 60 9e 01 80 3f 31 01 80
       2.583e-40 2.19997e-40 -1.4865e-40 -1.09502e-40
000250 9a ff 00 80 f4 74 01 80 ec 6f 03 00 bd 72 03 80
       -9.1693e-41 -1.3379e-40 3.15656e-40 -3.16667e-40
000260 3b 3e 02 00 00 75 03 80 ac f9 01 00 42 04 02 00
       2.05995e-40 -3.17478e-40 1.81401e-40 1.85198e-40
000270 74 be 01 00 9f 41 01 00 9b 02 01 00 94 1a 01 80
       1.60157e-40 1.15376e-40 9.277e-41 -1.0137e-40
000280 5e 3d 01 80 38 70 03 00 eb ed 02 80 38 d8 00 00
       -1.1385e-40 3.15763e-40 -2.6902e-40 7.7565e-41
000290 d9 14 00 80 19 27 00 00 6d 69 01 80 18 b1 02 00
       -7.479e-42 1.4026e-41 -1.29655e-40 2.472e-40
0002a0 49 97 01 80 58 4c 04 80 a6 0e 02 00 fe 97 02 00
       -1.46106e-40 -3.94729e-40 1.88926e-40 2.38196e-40
0002b0 b3 1b 01 00 3f 54 03 80 b2 61 02 00 2a 0c 00 00
       1.01772e-40 -3.05728e-40 2.18717e-40 4.364e-42
0002c0 f3 7d 01 00 80 56 04 80 36 e0 00 00 eb c7 02 80
       1.37018e-40 -3.98372e-40 8.0432e-41 -2.55388e-40
0002d0 bc 2b 00 80 d5 84 00 00 dd 41 01 00 40 5b 00 80
       -1.5689e-41 4.7651e-41 1.15463e-40 -3.2734e-41
0002e0 3d 44 00 80 1c 82 04 00 27 cc 00 80 cd 2b 02 00
       -2.4479e-41 4.14016e-40 -7.3236e-41 1.99384e-40
0002f0 c7 68 00 00 72 b3 00 00 d6 5b 01 80 b5 0f 02 80
       3.7587e-41 6.4373e-41 -1.2478e-40 -1.89306e-40
000300 a2 42 01 80 a9 66 02 00 67 a8 00 80 82 f9 00 80
       -1.15739e-40 2.20499e-40 -6.0411e-41 -8.9507e-41
000310 3d 42 01 80 dd e2 00 80 a0 4e 01 00 9e 6d 01 80
       -1.15597e-40 -8.1383e-41 1.20041e-40 -1.31159e-40
000320 24 39 02 80 e9 3a 04 80 93 88 02 80 70 2f 00 00
       -2.04169e-40 -3.88475e-40 -2.32665e-40 1.7017e-41
000330 79 55 04 80 45 e1 00 00 e8 40 01 00 89 a9 01 80
       -3.98004e-40 8.0811e-41 1.1512e-40 -1.52653e-40
000340 a0 06 01 80 6a c1 02 80 0e 73 02 80 cc 7e 02 80
       -9.4212e-41 -2.53055e-40 -2.24945e-40 -2.29157e-40
000350 2a 1c 01 80 25 b9 02 80 c9 37 03 00 aa 08 01 80
       -1.01939e-40 -2.50088e-40 2.95518e-40 -9.4944e-41
000360 08 64 01 80 9a 61 00 00 13 69 02 80 21 df 02 80
       -1.2772e-40 3.5013e-41 -2.21365e-40 -2.63715e-40
000370 81 8d 02 80 ea f9 00 00 36 a1 02 00 f5 e6 02 00
       -2.34433e-40 8.9652e-41 2.41503e-40 2.66523e-40
000380 f7 36 01 80 45 00 01 00 cb 23 00 80 c9 89 00 80
       -1.11553e-40 9.1932e-41 -1.284e-41 -4.9428e-41
000390 79 c3 03 80 a1 df 01 00 4d ed 01 00 57 25 00 80
       -3.45629e-40 1.72058e-40 1.76963e-40 -1.3395e-41
0003a0 20 69 04 00 10 6a 01 00 d1 c5 02 00 51 7d 03 80
       4.05054e-40 1.29884e-40 2.54634e-40 -3.20462e-40
0003b0 7f e0 02 80 01 0b 01 00 93 74 00 00 c7 03 00 00
       -2.64205e-40 9.5783e-41 4.1819e-41 1.355e-42
0003c0 4b 24 02 00 0b e1 02 00 89 29 01 00 20 44 00 00
       1.9669e-40 2.64401e-40 1.06736e-40 2.4439e-41
0003d0 a6 22 02 00 3a f3 03 00 99 a9 00 80 7d 81 01 00
       1.961e-40 3.6276e-40 -6.084e-41 1.38287e-40
0003e0 3c 09 00 00 4a 62 00 80 ab db 03 80 13 0f 03 00
       3.313e-42 -3.526e-41 -3.54309e-40 2.80914e-40
0003f0 bf 5a 04 00 92 33 04 80 d8 2e 01 00 c9 16 00 80
       3.99896e-40 -3.85842e-40 1.0864e-40 -8.174e-42

sparse_weighted_adjacency_matrices.spatial_attention.key.bias f4 [64]
000000 e0 2b 04 80 c7 c7 02 80 e5 c1 02 00 b0 d8 02 00
       -3.83081e-40 -2.55338e-40 2.53227e-40 2.61404e-40
000010 da 1a 01 00 f4 87 02 80 88 8b 01 80 96 fb 01 80
       1.01468e-40 -2.32442e-40 -1.4189e-40 -1.82088e-40
000020 e4 2d 01 80 f8 33 00 00 2a ce 01 00 b7 65 03 80
       -1.08298e-40 1.8643e-41 1.65793e-40 -3.11995e-40
000030 0e b3 02 80 6a a1 01 00 7e 2d 04 00 03 58 00 80
       -2.47904e-40 1.4974e-40 3.83662e-40 -3.1573e-41
000040 ae 2b 02 80 75 f9 03 00 7e d6 01 00 2f dd 02 80
       -1.9934e-40 3.64995e-40 1.68781e-40 -2.63017e-40
000050 50 59 00 00 3b fd 01 00 79 f5 00 00 be 38 02 00
       3.2039e-41 1.82677e-40 8.8059e-41 2.04026e-40
000060 0e 54 00 00 fc 56 00 80 2c 6a 02 80 fb dd 00 80
       3.0153e-41 -3.1204e-41 -2.21758e-40 -7.9632e-41
000070 83 ab 00 00 1e ee 01 80 34 e9 03 80 ed 59 01 00
       6.1527e-41 -1.77256e-40 -3.59164e-40 1.24095e-40
000080 e9 7f 04 80 aa c2 03 00 56 fe 00 00 12 50 00 00
       -4.13228e-40 3.45339e-40 9.1239e-41 2.8724e-41
000090 6e bc 01 00 82 b5 01 80 bd dd 02 80 88 8a 02 80
       1.59431e-40 -1.56948e-40 -2.63216e-40 -2.33367e-40
0000a0 27 ed 00 00 f2 e3 00 80 03 92 01 00 fb 15 02 00
       8.5074e-41 -8.1771e-41 1.44215e-40 1.91556e-40
0000b0 0b 29 03 00 ab 3f 01 00 8f ab 02 00 59 9a 01 00
       2.9023e-40 1.14675e-40 2.45215e-40 1.47205e-40
0000c0 2f 1c 02 80 e2 6d 00 00 43 2d 02 00 8c a1 04 80
       -1.93781e-40 3.9419e-41 1.99908e-40 -4.25294e-40
0000d0 b4 c8 00 80 8e 16 04 00 49 53 04 00 0f 36 03 80
       -7.1999e-41 3.75433e-40 3.97219e-40 -2.94899e-40
0000e0 7a 1f 01 80 17 41 00 80 fe 2c 00 00 96 d7 03 00
       -1.03127e-40 -2.335e-41 1.614e-41 3.52844e-40
0000f0 6f d5 02 80 ac 0a 02 00 99 88 02 00 3c 57 00 80
       -2.60237e-40 1.875e-40 2.32673e-40 -3.1294e-41

sparse_weighted_adjacency_matrices.temporal_attention.embedding.weight f4 [64, 3]
000000 70 e0 b3 3e de 41 10 bc b0 c4 da bb 50 3b 9f 3b
       0.3513217 -0.008804766 -0.006676279 0.0048593655
000010 29 4b 39 b9 09 0b 09 38 c8 10 9e 34 f0 5e 78 33
       -0.00017670974 3.2673623e-05 2.9442003e-07 5.7828345e-08
000020 77 51 5c b3 7c 4d 00 34 8f c5 86 32 25 42 a6 b2
       -5.1296833e-08 1.1949118e-07 1.5689492e-08 -1.9355022e-08
000030 4a 35 e3 be c4 6e 29 3c 7e 27 1c 3c 24 81 f4 be
       -0.44376594 0.01034135 0.0095309 -0.47754776
000040 b2 6c 32 3c 1c 91 2d 3c fd d1 73 a7 63 61 0c 25
       0.010890173 0.010593679 -3.383686e-15 1.217606e-16
000050 e1 fd 1e 24 6a a6 c4 3e 75 4d 19 bc 64 9c fb bb
       3.4475832e-17 0.38408214 -0.009356846 -0.0076785553
000060 a4 aa 2b b0 13 72 54 30 12 75 5c b0 d2 ab 1c 21
       -6.245193e-10 7.728726e-10 -8.02019e-10 5.308226e-19
000070 16 8d e3 a1 47 4e ad 21 cc 44 15 2a 74 a5 4a 28
       -1.5419463e-18 1.1743656e-18 1.3257727e-13 1.12491295e-14
000080 d5 eb 0e a8 5c d7 43 bb d5 1a e9 38 5c c3 d3 b7
       -7.933721e-15 -0.0029883003 0.00011115304 -2.5244131e-05
000090 30 46 4c 1e 92 97 f0 1d 91 e9 0b 9e 56 11 d0 99
       1.08141845e-20 6.368419e-21 -7.406899e-21 -2.1513698e-23
0000a0 6f b8 c1 18 1d dc 3d 99 d5 6a e7 22 af 08 b8 21
       5.007556e-24 -9.8155225e-24 6.272579e-18 1.2470624e-18
0000b0 38 d2 59 a1 53 09 9b be df 77 02 3c f3 e1 aa 3b
       -7.380068e-19 -0.3028055 0.00796315 0.0052149235
0000c0 ad 48 aa be 71 ff 0a 3c 7f 28 c8 3b 94 e0 88 2c
       -0.33258572 0.008483754 0.006108343 3.8902857e-12
0000d0 ac a9 4e 2c 7b 36 c9 a7 b9 7a 60 b5 9e f0 b4 b4
       2.9368548e-12 -5.5847775e-15 -8.362509e-07 -3.3702685e-07
0000e0 a3 e4 88 34 62 f2 14 34 00 24 e8 33 3d e6 c9 b3
       2.549833e-07 1.3871752e-07 1.080989e-07 -9.401672e-08
0000f0 66 5f 06 2c e3 18 96 ab 31 96 78 2b fd f8 f1 2f
       1.9095502e-12 -1.0665048e-12 8.831573e-13 4.4014561e-10
000100 d8 fc 51 b0 0b 8d 56 30 8b ac 57 be 57 b0 cb 3b
       -7.639307e-10 7.805318e-10 -0.21061914 0.0062160897
000110 ed 7e 28 3b 97 b8 ba be 1b f8 13 3c 31 20 e8 3b
       0.002571042 -0.36468956 0.009031321 0.0070839156
000120 1b 34 3f be 4b 09 bb 3b 0f 7b fe 3a 48 d5 01 9a
       -0.1867222 0.005707895 0.0019415336 -2.6848862e-23
000130 f4 58 55 15 cc 97 ac 17 61 96 81 be 0c 26 e7 3b
       4.308518e-26 1.1153558e-24 -0.25310043 0.007054096
000140 1a 56 76 3b e8 ba 85 3e da 23 ec bb 18 cf 82 bb
       0.0037587942 0.2611916 -0.0072064223 -0.0039919727
000150 a1 e5 3a 3e c3 fd b7 bb 81 7c f0 ba a1 56 d3 38
       0.18251659 -0.0056149676 -0.0018347652 0.000100774
000160 e8 e5 8a b6 bd a5 b0 35 5a a6 c1 be 5b b2 17 3c
       -4.139485e-06 1.3161258e-06 -0.3782223 0.009258832
000170 be b5 f5 3b 32 42 e8 23 0f 69 cf 22 da 4a 95 a2
       0.007498472 2.5181525e-17 5.6218698e-18 -4.0465783e-18
000180 c6 6e cc a6 ab 5d 2d a6 93 f8 05 26 f4 ec 3d af
       -1.4185369e-15 -6.0148376e-16 4.6480525e-16 -1.7273633e-10
000190 65 e2 5b ad a5 d5 8f 2d f0 7f c2 3e fd 26 18 bc
       -1.2498978e-11 1.6352095e-11 0.37988234 -0.009286639
0001a0 5e 61 f7 bb 0c 66 6d 3e 79 b1 d9 bb d3 cb 4e bb
       -0.007549449 0.23183459 -0.006643471 -0.0031554594
0001b0 6a bb 89 9d 60 36 d7 1c bb 72 15 9d 4b f8 10 be
       -3.645738e-21 1.4241562e-21 -1.97793e-21 -0.14157216
0001c0 5c 0c 98 3b 29 20 68 3a e4 27 9d 3e 11 ab 03 bc
       0.004640145 0.000885489 0.30694497 -0.008036391
0001d0 37 ed ae bb 9f 48 04 aa f5 9c 5a 27 cf 11 73 26
       -0.005338337 -1.174915e-13 3.0338664e-15 8.4331696e-16
0001e0 09 d4 aa be 54 4c 0b 3c bf 35 c9 3b 1f 77 4c 3e
       -0.33364895 0.008502085 0.0061404402 0.19967316
0001f0 9c 30 c4 bb 45 4f 15 bb 46 3d bf bd 09 00 56 3b
       -0.00598724 -0.0022782844 -0.09337859 0.003265383
000200 45 d4 e9 38 ae a0 52 3c 85 8f ec b9 59 e8 1b 38
       0.00011149844 0.012855692 -0.00045120358 3.717127e-05
000210 f7 c0 df be 71 a0 27 3c 6e b2 18 3c 9c d3 a8 be
       -0.43701908 0.010231123 0.009319885 -0.32973945
000220 31 31 0a 3c 92 57 c5 3b c7 af 95 3e 82 d4 fe bb
       0.00843458 0.006022402 0.2923567 -0.0077767977
000230 49 b7 a0 bb 32 53 85 a4 6d 3c 31 22 cf fd 86 20
       -0.004904662 -5.7820494e-17 2.4019962e-18 2.286844e-19
000240 8f 67 48 3e d1 6b c1 bb 46 79 0e bb 2d 6a 82 3c
       0.19570754 -0.0059027453 -0.0021739765 0.01591977
000250 96 e1 11 ba c1 06 19 38 62 4e 07 a7 96 f7 10 a7
       -0.0005564926 3.6484333e-05 -1.8777505e-15 -2.011823e-15
000260 98 23 8c a6 c3 c3 5d 1d 98 1b 82 1c 11 1b 24 9c
       -9.724099e-16 2.9350313e-21 8.609811e-22 -5.429803e-22
000270 18 19 d4 3e d3 80 21 bc c1 14 0d bc 8b 4b 87 3e
       0.41425395 -0.009857374 -0.008610905 0.26424822
000280 6c 02 ee bb 05 b6 85 bb 6f e9 44 14 aa 57 87 94
       -0.0072634723 -0.0040805363 9.941508e-27 -1.3666094e-26
000290 f4 15 7f 14 da cd bb 3e af 8d 14 bc 9a 3e ea bb
       1.28785395e-26 0.3668049 -0.009066983 -0.007148576
0002a0 94 af c1 3e 5c b7 17 bc ed c7 f5 bb 60 ec ce 1a
       0.37829268 -0.009260025 -0.0075006397 8.558149e-23
0002b0 72 a6 b7 1a 03 5a 8d 9a 70 28 b6 be 76 7f 11 3c
       7.595593e-23 -5.8461655e-23 -0.35577726 0.008880487
0002c0 af 36 df 3b 47 03 99 22 1a 94 28 21 f4 07 5e 21
       0.0068119387 4.1474203e-18 5.7116625e-19 7.522705e-19
0002d0 d7 bc c6 3e d6 6a 1a bc e8 b8 ff bb 81 a8 80 b1
       0.38815948 -0.009424886 -0.007804025 -3.744447e-09
0002e0 d0 1d 66 b1 99 1a 34 31 a4 1b d2 3e c2 73 20 bc
       -3.3486351e-09 2.6208566e-09 0.41036713 -0.009793224
0002f0 c5 1a 0b bc 5b 4d 5d 26 e1 8a 00 25 4c 24 8f a4
       -0.008490269 7.6779614e-16 1.1149284e-16 -6.2077854e-17

sparse_weighted_adjacency_matrices.temporal_attention.embedding.bias f4 [64]
000000 58 5d 51 3d e1 9a 20 3a 0c 46 09 32 fc 60 01 32
       0.05111441 0.00061265944 7.990376e-09 7.53084e-09
000010 58 37 85 bd d9 b4 8f bd a1 bc c4 a5 db 88 65 3d
       -0.065046966 -0.07016916 -3.41284e-16 0.05603872
000020 b4 65 01 2f f2 d4 7b a0 ad b2 db 28 35 cb c4 b9
       1.1768614e-10 -2.1330985e-19 2.4391373e-14 -0.00037535434
000030 27 a6 1f 1d 0e 48 6f 99 dc 5e 9a 21 dc 96 33 bd
       2.1129374e-21 -1.2370562e-23 1.0460555e-18 -0.043845043
000040 78 da 45 bd 0a 25 13 ab fe 81 4e b3 30 84 b4 32
       -0.04830405 -5.2276293e-13 -4.808134e-08 2.101487e-08
000050 7f 7d 50 2a 5a d1 73 af 0d a1 f6 bc 96 96 59 bd
       1.8517651e-13 -2.2175098e-10 -0.030106092 -0.053122126
000060 81 9f d9 bc d0 d1 6e 97 b4 31 15 bd 5f 22 1a 3d
       -0.026565315 -7.716677e-25 -0.036424354 0.037630435
000070 72 87 d4 3c 5d 3b 63 37 3a ec 61 bd d0 43 61 22
       0.025943492 1.3544076e-05 -0.055156924 3.0529086e-18
000080 d5 4e 86 a5 90 af 0b ae 24 f2 62 3d c4 39 08 3d
       -2.3298713e-16 -3.176087e-11 0.055406705 0.033258215
000090 47 4d 54 9d fa 2d a3 bc 23 20 36 3d a4 f3 d6 a8
       -2.8097918e-21 -0.019919384 0.04446424 -2.3864435e-14
0000a0 8d 81 46 bd a8 54 e9 3c 98 fd 53 bc bb a6 d9 3a
       -0.048463393 0.02848275 -0.012938879 0.0016605476
0000b0 1a 20 83 bd 0a 1b 44 bd bd 30 2d 3d 63 24 0a a3
       -0.06402607 -0.04787735 0.04228281 -7.4887e-18
0000c0 8c 84 e4 3c 57 dc 07 3b cb 45 21 a6 9c 76 0c 1c
       0.027895235 0.0020730698 -5.5952683e-16 4.6475413e-22
0000d0 64 29 78 3d 66 00 1c 3d 93 ee a4 93 f7 e3 5a 3d
       0.06058635 0.038086317 -4.1634673e-27 0.05344006
0000e0 63 f7 61 3d 9c a7 0b 1a c8 1a 54 bd f4 26 c7 a1
       0.055167567 2.887992e-23 -0.051783353 -1.3495075e-18
0000f0 7b 0c 68 3d 58 5c 9f af 45 c2 75 3d a7 a2 19 25
       0.056652527 -2.8987546e-10 0.059999723 1.3325743e-16

sparse_weighted_adjacency_matrices.temporal_attention.query.weight f4 [64, 64]
000000 f4 57 b4 ba 14 5b c9 36 a2 48 84 30 53 1b 41 b1
       -0.0013759122 6.0008697e-06 9.624908e-10 -2.8100728e-09
000010 d3 68 03 3b 52 f5 14 3b 50 a8 89 21 33 6f cf ba
       0.0020051494 0.002272923 9.328033e-19 -0.0015825987
000020 65 30 cb 2c 83 31 73 9d 0c ef 83 24 db 28 66 37
       5.77498e-12 -3.218638e-21 5.7217155e-17 1.3718581e-05
000030 59 da f0 1b 80 88 3e 17 64 b9 8f 1c 68 d5 8f 3a
       3.9845773e-22 6.15646e-25 9.510869e-22 0.0010973634
000040 d9 c6 a5 3a 5f ff 24 aa 5b 7f d8 31 10 41 a8 30
       0.0012647762 -1.4654726e-13 6.300906e-09 1.2242101e-09
000050 89 9c 22 a9 36 a2 28 ae 8c 8a 26 3a 29 23 bf 3a
       -3.6107e-14 -3.834285e-11 0.00063530426 0.0014582622
000060 a0 7d 0a 3a 98 56 c2 14 3e e6 5b 3a e7 85 66 ba
       0.0005283002 1.9623149e-26 0.0008388496 -0.0008793757
000070 1f bb 05 ba 3c ab a9 34 67 6d ca 3a 1f 94 3e 20
       -0.00051014306 3.1603292e-07 0.0015443981 1.6142635e-19
000080 81 a8 10 a2 94 02 21 ab a3 d6 cb ba e8 ac 40 ba
       -1.9604844e-18 -5.720227e-13 -0.0015551638 -0.0007349984
000090 25 71 43 1b 47 16 b6 39 53 cd 92 ba c4 74 d7 a2
       1.6166581e-22 0.00034730343 -0.0011200107 -5.8399497e-18
0000a0 2d 96 a6 3a 3b 7e 19 ba 46 ec 52 39 0f 6a 4b b8
       0.0012709551 -0.00058552966 0.0002011518 -4.8497746e-05
0000b0 09 12 00 3b 22 9e a3 3a d2 72 88 ba 4b 19 6e a0
       0.0019542 0.001248304 -0.0010410196 -2.0167753e-19
0000c0 c9 d8 14 ba ed 1f 4a b8 ce 65 d8 a3 76 af 8a 16
       -0.00056780555 -4.8190286e-05 -2.3461883e-17 2.2405834e-25
0000d0 e8 67 ea ba 63 93 6a ba e6 9a ee 91 af e0 c0 ba
       -0.001788375 -0.0008948354 -3.7645243e-28 -0.0014715398
0000e0 bc 7c ca ba c1 f0 c5 96 1e e7 b7 3a 51 d1 87 a0
       -0.0015448551 -3.1979004e-25 0.001403067 -2.3008404e-19
0000f0 16 f6 d2 ba 14 6a 10 af f2 d0 e6 ba 56 11 c5 20
       -0.0016095068 -1.313441e-10 -0.0017609878 3.338457e-19
000100 82 92 a0 08 79 7f cf 85 1b af 57 00 73 d7 22 00
       9.664094e-34 -1.9513013e-35 8.052504e-39 3.199695e-39
000110 90 55 78 88 24 5c 42 88 d7 01 04 80 a8 c8 9b 08
       -7.4730364e-34 -5.848806e-34 -3.68002e-40 9.375897e-34
000120 76 af 03 00 94 f5 00 00 c1 98 02 80 f1 14 92 04
       3.3845e-40 8.8097e-41 -2.38469e-40 3.4343667e-36
000130 36 eb 03 00 52 26 02 00 79 a9 03 00 6a be 91 88
       3.59884e-40 1.97418e-40 3.36302e-40 -8.771636e-34
000140 41 30 9e 88 68 76 03 80 ce ec 1b 81 94 f9 69 00
       -9.5206235e-34 -3.17983e-40 -2.8638903e-38 9.732259e-39
000150 d0 8d 01 80 d6 01 03 80 a6 ad c2 87 28 e9 9f 88
       -1.42708e-40 -2.76165e-40 -2.9291937e-34 -9.624279e-34
000160 8f 42 2e 87 c5 d5 00 80 7d 63 4a 88 2f 75 5c 08
       -1.3109865e-34 -7.6686e-41 -6.090411e-34 6.634159e-34
000170 59 48 0e 07 4c d1 c8 03 53 67 9d 88 67 f1 00 80
       1.0704154e-34 1.1802996e-36 -9.473385e-34 -8.6599e-41
000180 58 0e 02 00 e8 aa 00 80 e6 f9 9c 08 ad b6 16 08
       1.88817e-40 -6.131e-41 9.447659e-34 4.5353717e-34
000190 57 f4 02 00 af d1 ae 05 65 22 94 08 75 a1 01 00
       2.71324e-40 1.6439907e-35 8.915512e-34 1.49755e-40
0001a0 c2 6e 9e 88 83 8a 8e 07 73 17 93 86 57 ca 08 87
       -9.535318e-34 2.1447195e-34 -5.532971e-35 -1.0290965e-34
0001b0 07 e8 80 88 32 78 9d 88 4a c1 8a 08 ed 13 00 00
       -7.758269e-34 -9.477352e-34 8.351015e-34 7.148e-42
0001c0 aa 6a 79 07 b7 9f 10 87 3b 09 04 80 a0 c1 00 00
       1.8764024e-34 -1.0880292e-34 -3.70653e-40 6.946e-41
0001d0 4a e8 8e 08 c6 fa 62 08 3f 67 00 80 2d a3 9f 08
       8.600925e-34 6.8304184e-34 -3.7038e-41 9.607827e-34
0001e0 bf 62 9d 08 49 6d 01 00 ba 8f a0 88 fd 51 01 80
       9.472309e-34 1.3104e-40 -9.66344e-34 -1.21247e-40
0001f0 cd 79 9a 08 c5 6f 02 80 5b f5 90 08 44 94 00 00
       9.297173e-34 -2.23766e-40 8.724368e-34 5.3188e-41
000200 68 f3 f4 3d 7c d9 b8 3a d5 df 84 33 5c 68 02 33
       0.119604886 0.0014102901 6.187444e-08 3.0362898e-08
000210 82 7b 1a be 6c 25 26 be 57 73 af a6 47 d5 05 3e
       -0.15086177 -0.16225213 -1.2174327e-15 0.1306964
000220 26 b8 07 b0 6c d7 ac 21 c3 ab b6 28 33 91 5d ba
       -4.9374405e-10 1.1712195e-18 2.0280549e-14 -0.00084521173
000230 10 30 9b 1d a2 81 a3 99 d8 ff 9f 21 67 40 d3 bd
       4.1077854e-21 -1.6906163e-23 1.084198e-18 -0.10315018
000240 08 f2 e7 bd f5 a7 2d 2c 9c 23 89 b4 8c 3a 96 33
       -0.11325461 2.4678014e-12 -2.5544148e-07 6.995569e-08
000250 05 c8 10 2c f6 09 d2 2c 1e 07 93 bd 42 39 fe bd
       2.0574664e-12 5.969665e-12 -0.07179092 -0.12413265
000260 89 55 82 bd 82 e0 ca 98 ad a7 b0 bd 92 4a b6 3d
       -0.06363971 -5.244247e-24 -0.086257316 0.08900942
000270 92 c9 7e 3d d2 3e d3 37 77 cd 03 be 4d 1b bd 22
       0.06220395 2.5182413e-05 -0.12871347 5.125746e-18
000280 79 e1 e8 a5 9f df f9 ad cf 60 04 3e c4 d4 a1 3d
       -4.039837e-16 -2.840733e-11 0.12927555 0.0790191
000290 79 af 8d 9d 1c 6e 45 bd 13 21 d6 3d b7 53 9b a8
       -3.7503824e-21 -0.04820071 0.10455527 -1.7244762e-14
0002a0 f7 ae e8 bd 4d 62 8b 3d 92 8c 01 bd cb 71 81 3b
       -0.11361497 0.06805859 -0.0316282 0.0039503328
0002b0 b0 26 18 be d2 f7 e5 bd 01 fc cb 3d 4c 90 27 a3
       -0.14858508 -0.112289086 0.09960175 -9.083644e-18
0002c0 22 9d 88 3d 35 88 a2 3b 4d cd 0f 26 d1 8b 54 1c
       0.06670596 0.004960085 4.9891326e-16 7.0325624e-22
0002d0 7d 47 10 3e b7 6b b8 3d 2f d1 eb 92 c4 b0 ff 3d
       0.1408977 0.0900492 -1.4882153e-27 0.12484887
0002e0 be d3 03 3e 7c c4 ca 19 cd 0a f8 bd 28 52 7c 21
       0.12873742 2.096567e-23 -0.12111435 8.5489654e-19
0002f0 da 3e 07 3e 39 28 67 b0 10 ef 0e 3e f5 90 0c 25
       0.1320757 -8.409447e-10 0.13958383 1.2192178e-16
000300 26 3d 00 80 5e 49 00 00 1e 60 02 80 6a 2b 04 80
       -2.1936e-41 2.6319e-41 -2.18151e-40 -3.82916e-40
000310 32 02 00 00 92 2b 00 00 89 38 00 00 c3 14 00 80
       7.88e-43 1.563e-41 2.0281e-41 -7.448e-42
000320 c2 e8 03 00 bb a9 00 00 88 5f 00 00 25 b6 00 00
       3.59004e-40 6.0888e-41 3.427e-41 6.5341e-41
000330 3c 14 01 80 b4 bd 00 80 45 08 03 80 aa 0e 00 00
       -9.9094e-41 -6.8053e-41 -2.78473e-40 5.26e-42
000340 5c 40 00 00 d6 de 02 00 17 6a 03 80 27 eb 03 80
       2.3088e-41 2.6361e-40 -3.13564e-40 -3.59863e-40
000350 38 ea 03 00 7d b4 02 80 19 a4 00 00 a1 2a 00 00
       3.59528e-40 -2.48418e-40 5.8867e-41 1.5292e-41
000360 74 d7 00 00 79 f3 00 80 8b 3e 00 00 9a 2b 00 80
       7.729e-41 -8.7342e-41 2.2436e-41 -1.5641e-41
000370 ef e1 00 80 dc 0f 01 00 4a 2a 00 00 08 9d 00 80
       -8.105e-41 9.7525e-41 1.517e-41 -5.6332e-41
000380 5a d4 00 80 ba e1 03 00 ba 27 00 80 e7 61 00 80
       -7.6177e-41 3.56482e-40 -1.4251e-41 -3.5121e-41
000390 c1 7f 01 00 e2 81 00 00 11 45 00 80 e4 b3 00 00
       1.37665e-40 4.6593e-41 -2.4776e-41 6.4533e-41
0003a0 de 2c 00 00 e2 dc 00 80 fd 69 00 80 18 1b 00 80
       1.6095e-41 -7.9238e-41 -3.8021e-41 -9.72e-42
0003b0 73 08 00 00 d0 43 00 00 b0 1e 00 80 d2 e9 00 00
       3.031e-42 2.4327e-41 -1.1009e-41 8.3879e-41
0003c0 49 95 00 80 5e 38 01 80 c2 1c 01 00 c9 db 00 00
       -5.3553e-41 -1.12056e-40 1.02152e-40 7.8844e-41
0003d0 ef 07 00 80 d6 5c 00 80 84 20 02 00 39 28 00 80
       -2.846e-42 -3.3303e-41 1.95335e-40 -1.4429e-41
0003e0 b1 11 00 80 76 44 00 80 fa 33 00 00 5f f4 00 00
       -6.346e-42 -2.4559e-41 1.8646e-41 8.7664e-41
0003f0 70 0a 00 80 8b cd 03 80 04 04 00 80 1d 5b 01 00
       -3.744e-42 -3.49241e-40 -1.44e-42 1.24521e-40

sparse_weighted_adjacency_matrices.temporal_attention.query.bias f4 [64]
000000 fd 52 ae ba 32 dd 3c 08 4b 70 f7 3d 5a 07 00 80
       -0.0013299879 5.6834206e-34 0.12081965 -2.637e-42
000010 2f f7 91 bd c4 13 09 86 72 6e de af 68 b4 8b 33
       -0.07127225 -2.5781358e-35 -4.046004e-10 6.5055076e-08
000020 41 df aa 3d 32 6f dc 12 53 b7 5a 0c eb 07 00 00
       0.083433636 1.3911364e-27 1.6849276e-31 2.84e-42
000030 c2 11 35 9f 44 35 59 0c 5b 9a a7 15 3f 36 da 35
       -3.834293e-20 1.6733101e-31 6.769429e-26 1.6258053e-06
000040 9a 3f 90 bb e4 30 90 b8 c4 19 0f 2c 71 42 a9 91
       -0.004402113 -6.875562e-05 2.0335825e-12 -2.6704446e-28
000050 29 7c 7a b3 f5 1c d8 3c 23 92 ff 08 db 15 47 0f
       -5.8320584e-08 0.026380995 1.5381611e-33 9.815667e-30
000060 35 05 ab 13 f5 56 a9 bc b2 23 a7 3d af 39 d2 ab
       4.3171603e-27 -0.020671347 0.08161105 -1.4937408e-12
000070 c1 7f c2 a6 3d 89 02 26 7e 67 ee 3b 37 7e 07 21
       -1.3496082e-15 4.5288803e-16 0.007275521 4.5906823e-19
000080 20 a0 7b 23 7f 33 86 91 70 17 89 bc 0c 47 ba bd
       1.3640645e-17 -2.117321e-28 -0.016734809 -0.09095582
000090 bd 90 95 bc c9 0c 18 ba 1e fa bc 3b 5d 2b d9 bc
       -0.018257493 -0.0005800245 0.005767121 -0.026509935
0000a0 81 6f a9 2c 7d 40 58 a6 d5 0d d3 85 9a 50 c8 19
       4.8156483e-12 -7.502745e-16 -1.9847426e-35 2.071207e-23
0000b0 22 b9 b7 3c df f7 fd 35 8f 2b 3e 3c 47 73 57 bc
       0.022427145 1.8922109e-06 0.011607065 -0.013150043
0000c0 9f ba e0 1b 4e c5 bd 35 a2 c1 70 2a 39 0f 9a 3c
       3.7178292e-22 1.413902e-06 2.1383462e-13 0.018806087
0000d0 2a b7 31 92 23 de 96 b5 19 62 29 38 08 87 7b a0
       -5.607712e-28 -1.1240521e-06 4.03841e-05 -2.1305205e-19
0000e0 71 5c be 17 57 bd 15 3d 50 b1 32 1a 3c 29 08 bb
       1.2301798e-24 0.03655752 3.695277e-23 -0.002077653
0000f0 fd 36 82 22 3c ef 56 33 4d 98 fa b0 5f 30 b9 b1
       3.529479e-18 5.004334e-08 -1.823318e-09 -5.389708e-09

sparse_weighted_adjacency_matrices.temporal_attention.key.weight f4 [64, 64]
000000 f8 f7 b7 3a 96 36 db b6 15 13 6b b0 3b b4 7c 31
       0.0014035692 -6.5330632e-06 -8.551962e-10 3.6773276e-09
000010 a2 1a 06 bb ba 04 18 bb 44 03 d5 22 f5 a0 d3 3a
       -0.0020462652 -0.0023196177 5.7737223e-18 0.0016145991
000020 6d 04 b6 ad 10 dc b3 1e c2 ac 71 a5 f4 46 21 b7
       -2.069297e-11 1.9043378e-20 -2.096195e-16 -9.612868e-06
000030 1e e3 32 9c c5 f7 ed 97 4a 37 a5 9d 16 c0 92 ba
       -5.91888e-22 -1.5378312e-24 -4.3732304e-21 -0.0011196162
000040 fc 1b a9 ba 1a 27 8e 2a 40 cb fd b1 75 59 8c af
       -0.0012902017 2.52514e-13 -7.386376e-09 -2.5529415e-10
000050 a4 92 1f 29 52 5d 93 2e 6d 53 2a ba 5d fc c2 ba
       3.5432283e-14 6.701363e-11 -0.0006497417 -0.0014876236
000060 a8 c7 0d ba ef 8d 86 13 fc 90 60 ba a3 5d 6b 3a
       -0.0005408474 3.3966313e-27 -0.0008566526 0.00089784915
000070 74 ee 08 3a aa 6d 3b b4 c9 83 ce ba b1 14 86 a0
       0.00052235206 -1.7455628e-07 -0.0015755828 -2.2714175e-19
000080 ea 65 16 23 2f 8f 63 2b b6 f4 cf 3a 49 e5 44 3a
       8.1530974e-18 8.084531e-13 0.0015865776 0.0007510973
000090 b9 19 db 9b af b2 ba b9 f5 c5 95 3a 42 34 0f 25
       -3.6247134e-22 -0.00035609814 0.0011426794 1.2420978e-16
0000a0 6f ef a9 ba 61 0d 1d 3a 82 e7 57 b9 c3 59 45 38
       -0.0012965034 0.00059910683 -0.00020590241 4.7052057e-05
0000b0 98 b1 02 bb 77 e8 a6 ba 94 3b 8b 3a ea c9 bb 20
       -0.001994228 -0.0012734075 0.0010622614 3.1812648e-19
0000c0 db 52 18 3a be 18 43 38 8f be ea 24 bf 6e 84 96
       0.0005810686 4.6514666e-05 1.0180414e-16 -2.139564e-25
0000d0 dd 2e ef 3a 6f 7c 6f 3a 0e c6 1d 12 47 c3 c4 3a
       0.0018248219 0.00091356685 4.9784586e-28 0.001501181
0000e0 68 93 ce 3a 3b 79 54 95 e2 99 bb ba 2c 60 a7 20
       0.0015760483 -4.2908693e-26 -0.0014312828 2.8354542e-19
0000f0 4c 3b d7 3a bd fa 3e 2f 00 84 eb 3a f3 42 c5 a1
       0.001642087 1.736948e-10 0.0017968416 -1.3366961e-18
000100 ed 1a aa 88 64 41 10 06 e8 07 60 80 34 f7 2f 80
       -1.0237833e-33 2.713143e-35 -8.819044e-39 -4.404948e-39
000110 72 7a 78 08 86 8d 3d 08 78 03 01 00 19 97 a1 88
       7.477372e-34 5.704148e-34 9.308e-41 -9.725358e-34
000120 82 e0 00 80 34 b7 03 00 7a 67 01 00 9c 68 38 85
       -8.0538e-41 3.41227e-40 1.28956e-40 -8.670852e-36
000130 5b c8 01 80 d2 cf 00 00 8e aa 00 80 6b e1 a0 08
       -1.6371e-40 7.4552e-41 -6.1183e-41 9.682645e-34
000140 a4 ee a9 08 f6 2d 04 80 7e 69 11 01 ce aa 69 80
       1.0227422e-33 -3.8383e-40 2.670798e-38 -9.704e-39
000150 f8 2c 01 00 e9 fb 00 00 37 74 05 08 b1 e3 a7 08
       1.07967e-40 9.0368e-41 4.015984e-34 1.0104477e-33
000160 f8 35 93 07 de d9 00 00 69 6e 70 08 e4 e3 80 88
       2.2149822e-34 7.8156e-41 7.235216e-34 -7.757297e-34
000170 5c 5c 80 87 89 41 ca 83 73 da a3 08 ba ba 00 00
       -1.9313583e-34 -1.1887539e-36 9.861563e-34 6.6985e-41
000180 d1 0c 03 00 bf 17 01 80 54 3e a3 88 eb 1d 3d 88
       2.80104e-40 -1.00354e-40 -9.824859e-34 -5.6910287e-34
000190 9d b8 02 80 10 d9 c7 05 85 d2 a2 88 55 af 02 00
       -2.49898e-40 1.8793606e-35 -9.799513e-34 2.46568e-40
0001a0 19 0d aa 08 b1 1e d2 87 3b ef a8 06 ed 32 10 07
       1.0234582e-33 -3.1615327e-34 6.3546094e-35 1.0848322e-34
0001b0 d8 8a 81 08 83 8c a9 08 02 f8 9a 88 17 e6 00 80
       7.796547e-34 1.0204352e-33 -9.326844e-34 -8.254e-41
0001c0 94 36 be 87 0b 8a 02 07 df 1e 04 80 a6 99 00 80
       -2.86201e-34 9.82068e-35 -3.78416e-40 -5.5119e-41
0001d0 64 9c 91 88 d8 fa 83 88 f4 9b 03 80 b7 5f a7 88
       -8.763637e-34 -7.943249e-34 -3.31452e-40 -1.0073449e-33
0001e0 ea d3 a3 88 ed 2f 01 00 96 92 a9 08 34 9d 03 00
       -9.860026e-34 1.09028e-40 1.020578e-33 3.319e-40
0001f0 53 d7 9f 88 1e 89 03 00 6c 0a 94 88 38 a9 02 00
       -9.620087e-34 3.24695e-40 -8.909876e-34 2.44375e-40
000200 9c 9d f9 bd 25 9a bf ba 9d 40 90 b3 9b a5 06 b3
       -0.12188265 -0.0014618082 -6.7172756e-08 -3.1349924e-08
000210 5d 5b 1d 3e cb 36 29 3e f9 65 88 26 17 5c 08 be
       0.15366884 0.16524808 9.464535e-16 -0.1331638
000220 31 84 97 30 23 1b 01 a2 51 05 be a8 92 0e 66 3a
       1.1024267e-09 -1.7497126e-18 -2.1096543e-14 0.0008775975
000230 22 a2 d6 9c e4 30 c2 19 27 0f b7 a1 76 54 d7 3d
       -1.4203242e-21 2.0078877e-23 -1.2404573e-18 0.105141565
000240 9d 62 ec 3d 8e c4 ca ac fe 01 8e 34 48 7b 90 b3
       0.115422465 -5.7630073e-12 2.645101e-07 -6.727947e-08
000250 c0 3c 46 ac ec a8 aa ae b2 f6 95 3d 2f 86 01 3e
       -2.8171215e-12 -7.7607115e-11 0.07322444 0.12648843
000260 31 f8 84 3d 64 30 cf 18 09 1f b4 3d b0 db b9 bd
       0.06492651 5.3557108e-24 0.08794982 -0.09075105
000270 da f9 81 bd bc a7 de b7 7e 4b 06 3e 28 ab e6 a2
       -0.063464835 -2.654257e-05 0.13114735 -6.2522844e-18
000280 cf 66 be 25 6c 3d 06 2e 50 e1 06 be 3d 08 a5 bd
       3.3029412e-16 3.0522626e-11 -0.13171887 -0.08058212
000290 fa fd a1 1d 85 90 49 3d 19 42 da bd 7e 7c 9a 28
       4.287895e-21 0.04921009 -0.106571384 1.7151424e-14
0002a0 d7 22 ed 3d ac 2e 8e bd e3 77 04 3d 5d b5 85 bb
       0.11578911 -0.06942496 0.032340895 -0.004080458
0002b0 a6 fc 1a 3e ad 5f ea 3d 68 ef cf bd 8d 61 33 23
       0.1513544 0.1144403 -0.10153085 9.724267e-18
0002c0 ae 5c 8b bd c4 e3 a7 bb ed b4 36 a7 26 96 64 9c
       -0.068047866 -0.0051235873 -2.5355654e-15 -7.5632934e-22
0002d0 97 fb 12 be 7e 06 bc bd 1d b0 0a 12 06 45 02 be
       -0.14353786 -0.09180926 4.37622e-28 -0.12721643
0002e0 df 51 06 be 02 40 c5 99 89 c2 fc 3d 4b 15 ab a1
       -0.13117169 -2.0395175e-23 0.12341792 -1.1593047e-18
0002f0 de cb 09 be 06 a4 fb 2f 58 9d 11 be 86 2e 18 a5
       -0.13456675 4.577318e-10 -0.14220178 -1.3199661e-16
000300 ba 1f 00 80 71 58 00 00 47 81 03 00 71 20 04 80
       -1.1381e-41 3.1727e-41 3.21882e-40 -3.7898e-40
000310 d7 08 00 00 68 17 00 00 ad a9 01 80 58 01 00 80
       3.171e-42 8.397e-42 -1.52704e-40 -4.82e-43
000320 21 df 03 00 aa 0e 01 80 40 80 03 00 98 23 01 80
       3.5555e-40 -9.7096e-41 3.21514e-40 -1.04604e-40
000330 90 fe 02 80 3e bd 01 00 0f 62 02 80 dd 24 00 00
       -2.74991e-40 1.59723e-40 -2.18848e-40 1.3224e-41
000340 f3 1a 00 00 24 65 00 80 d3 e0 02 80 79 48 04 80
       9.668e-42 -3.6282e-41 -2.64323e-40 -3.9334e-40
000350 e9 31 01 00 f0 20 03 80 2b 4c 00 00 1c 24 00 00
       1.0974e-40 -2.87322e-40 2.7324e-41 1.2954e-41
000360 83 95 00 00 ea 6a 00 80 48 34 00 00 d9 35 00 80
       5.3635e-41 -3.8354e-41 1.8755e-41 -1.9317e-41
000370 bd ae 00 80 1f 1c 00 80 42 06 00 00 17 5d 01 80
       -6.2684e-41 -1.0088e-41 2.245e-42 -1.2523e-40
000380 59 ad 01 80 ff da 02 00 0b 00 00 00 89 25 00 80
       -1.54021e-40 2.62232e-40 1.5e-44 -1.3465e-41
000390 45 d8 01 80 84 a8 00 00 cd 09 00 80 25 7b 01 80
       -1.69418e-40 6.0452e-41 -3.516e-42 -1.36011e-40
0003a0 55 0f 00 00 76 67 00 80 dc 4e 00 80 ac e0 00 80
       5.5e-42 -3.7115e-41 -2.829e-41 -8.0597e-41
0003b0 9f 12 00 00 72 20 00 00 43 27 00 80 27 21 02 00
       6.68e-42 1.1639e-41 -1.4084e-41 1.95564e-40
0003c0 43 70 00 80 0d 17 01 00 25 21 00 00 82 0b 02 00
       -4.0272e-41 1.00105e-40 1.189e-41 1.87799e-40
0003d0 4a 1b 00 80 e6 36 00 80 4f 12 02 00 b6 29 00 80
       -9.79e-42 -1.9694e-41 1.90239e-40 -1.4963e-41
0003e0 91 08 00 00 a7 66 01 80 2b 2b 00 00 c7 b7 02 80
       3.073e-42 -1.2866e-40 1.5486e-41 -2.49598e-40
0003f0 78 06 00 00 08 28 03 80 fd 20 00 80 4c 4b 00 00
       2.32e-42 -2.89867e-40 -1.1834e-41 2.7011e-41

sparse_weighted_adjacency_matrices.temporal_attention.key.bias f4 [64]
000000 ec 62 b7 2f 9a 6d 0b 80 a1 5f 39 b3 b0 70 00 80
       3.3357794e-10 -1.049508e-39 -4.3160643e-08 -4.0425e-41
000010 01 50 d8 b2 d0 19 03 00 81 e3 e0 24 6e 94 21 a8
       -2.5182091e-08 2.84766e-40 9.752992e-17 -8.969481e-15
000020 e9 f6 ad 30 b0 c7 18 08 fe 0d 88 01 59 cf 01 80
       1.2657583e-09 4.597557e-34 4.997859e-38 -1.66218e-40
000030 2d 3e 68 14 8d 5d 7c 02 1c 3d 3a 8b ad 5e 07 2b
       1.1725269e-26 1.8540884e-37 -3.586827e-32 4.8093024e-13
000040 8e 8b 90 af 0f fd ac ad 91 a2 dc a0 7b 57 8a 85
       -2.6292607e-10 -1.9666517e-11 -3.7377027e-19 -1.3009593e-35
000050 30 e0 b0 a7 87 18 a6 31 66 3f 04 00 b4 7c 89 83
       -4.9092878e-15 4.8340243e-09 3.90085e-40 -8.080767e-37
000060 33 26 12 07 d3 73 c9 31 7e 82 45 b3 61 2b 81 a0
       1.0995045e-34 5.8630376e-09 -4.598632e-08 -2.1882156e-19
000070 14 8b 9a 1b e1 04 81 9b cb c5 a9 b0 74 03 6e 15
       2.556704e-22 -2.1344413e-22 -1.2352585e-09 4.806644e-26
000080 1e 5c 0b 19 f8 02 17 87 f4 4e 95 b0 bb 2e 1d 33
       7.2047345e-24 -1.136085e-34 -1.0863617e-09 3.6596912e-08
000090 4b e1 ea b1 5b f0 92 af e8 60 65 b1 32 1a 0c b3
       -6.835909e-09 -2.6728028e-10 -3.337897e-09 -3.2620115e-08
0000a0 de 2f f3 a0 91 12 18 9c 16 de 00 00 f0 89 aa 0f
       -4.1197477e-19 -5.031658e-22 7.967e-41 1.6816426e-29
0000b0 d5 fb 8a 31 d2 76 ab aa 3e ed 77 31 b2 1d b9 b0
       4.0449586e-09 -3.045815e-13 3.6078087e-09 -1.3468962e-09
0000c0 33 5e 14 91 c2 7c 38 ac 02 75 36 a2 aa d0 1b b3
       -1.1704169e-28 -2.6217227e-12 -2.4727543e-18 -3.627853e-08
0000d0 6d 68 c3 87 c8 82 4e 2c 6d 68 8b ae 8d 9b 26 18
       -2.9401715e-34 2.9346959e-12 -6.339538e-11 2.153353e-24
0000e0 cf 10 36 8d a4 ce 39 33 7d 15 4c 8f 2d 3f 10 31
       -5.6103313e-31 4.3261608e-08 -1.0062115e-29 2.099067e-09
0000f0 11 74 99 98 7c 5a f2 a9 53 04 80 a6 86 c0 f4 27
       -3.966677e-24 -1.07626554e-13 -8.882956e-16 6.793234e-15
