checkpoints/sgcn/intersectionA/train_best.pth (torch_old, 133683 bytes, 81 tensors)

sparse_weighted_adjacency_matrices.spatial_attention.embedding.weight f4 [64, 2]
0	0x00028bd3	2.3383e-40
1	0x80014ed3	-1.20112e-40
2	0x80034d50	-3.03241e-40
3	0x8000a06f	-5.7553e-41
4	0x0000ead3	8.4239e-41
5	0x8001e7a9	-1.7494e-40
6	0x8001b62b	-1.57185e-40
7	0x0001a6e3	1.51703e-40
8	0x80005b8b	-3.284e-41
9	0x0001a6b9	1.51644e-40
10	0x0001f7d5	1.80741e-40
11	0x8000deb9	-7.9898e-41
12	0x80035183	-3.04747e-40
13	0x00012187	1.03863e-40
14	0x80021f47	-1.94891e-40
15	0x80010e58	-9.6981e-41
16	0x00045cc7	4.00624e-40
17	0x80044f65	-3.95823e-40
18	0x00001344	6.911e-42
19	0x80003f10	-2.2623e-41
20	0x0000aa22	6.1032e-41
21	0x800052a5	-2.9647e-41
22	0x8001bcdc	-1.59585e-40
23	0x80017e37	-1.37113e-40
24	0x8002a40c	-2.4252e-40
25	0x800052be	-2.9682e-41
26	0x8003b121	-3.39048e-40
27	0x0000d586	7.6598e-41
28	0x0002a331	2.42213e-40
29	0x000044eb	2.4723e-41
30	0x8000cb9b	-7.304e-41
31	0x80028469	-2.31171e-40
32	0x80010126	-9.2247e-41
33	0x00009097	5.1869e-41
34	0x8001c7f1	-1.63561e-40
35	0x0002a10d	2.41445e-40
36	0x8000a69c	-5.9768e-41
37	0x8003c150	-3.44854e-40
38	0x0000a526	5.9244e-41
39	0x00019707	1.46014e-40
40	0x8001c2be	-1.61696e-40
41	0x0003ab15	3.36879e-40
42	0x0001d420	1.67932e-40
43	0x0000bcc0	6.7711e-41
44	0x0002eebc	2.69313e-40
45	0x80002fd4	-1.7157e-41
46	0x000211a2	1.89996e-40
47	0x00030afa	2.79444e-40
48	0x8002cc5c	-2.56981e-40
49	0x000147ae	1.1755e-40
50	0x00012853	1.06301e-40
51	0x8001ba0f	-1.58581e-40
52	0x800194af	-1.45173e-40
53	0x000053e5	3.0096e-41
54	0x8001943b	-1.4501e-40
55	0x80008b58	-4.9987e-41
56	0x80033483	-2.94344e-40
57	0x80038bac	-3.25611e-40
58	0x80014e6f	-1.19972e-40
59	0x0000c822	7.1794e-41
60	0x0003f129	3.62018e-40
61	0x0001a24c	1.50057e-40
62	0x0002d062	2.58425e-40
63	0x0001f88c	1.80997e-40
64	0x80037fd3	-3.21361e-40
65	0x000000ff	3.57e-43
66	0x8001f110	-1.78312e-40
67	0x0000385a	2.0215e-41
68	0x0000cd00	7.354e-41
69	0x8001967a	-1.45816e-40
70	0x8000433f	-2.4123e-41
71	0x0001f4bc	1.7963e-40
72	0x00028deb	2.34582e-40
73	0x8002d141	-2.58737e-40
74	0x80018c63	-1.42197e-40
75	0x8003a0f8	-3.33251e-40
76	0x8003be27	-3.4372e-40
77	0x0001ae8b	1.5445e-40
78	0x8000c6c4	-7.1304e-41
79	0x000047ca	2.5753e-41
80	0x0001fb59	1.82002e-40
81	0x00006b93	3.859e-41
82	0x0002faea	2.73682e-40
83	0x00002bb4	1.5678e-41
84	0x0001b367	1.56193e-40
85	0x00020a93	1.87464e-40
86	0x8001b0cf	-1.55262e-40
87	0x00006846	3.7406e-41
88	0x00029668	2.37627e-40
89	0x0000ac34	6.1775e-41
90	0x0001b940	1.5829e-40
91	0x80035d56	-3.08989e-40
92	0x0002e7ab	2.66778e-40
93	0x8000fc6e	-9.0555e-41
94	0x00004026	2.3012e-41
95	0x0002aa3a	2.44737e-40
96	0x00021008	1.89422e-40
97	0x8002e1f3	-2.64726e-40
98	0x0001ade9	1.54223e-40
99	0x8000ee74	-8.5541e-41
100	0x0001d5b9	1.68505e-40
101	0x80016331	-1.27419e-40
102	0x00015cae	1.25083e-40
103	0x80018d7a	-1.42588e-40
104	0x000065b9	3.6491e-41
105	0x0000aeb5	6.2673e-41
106	0x00021bc9	1.93638e-40
107	0x00044473	3.91897e-40
108	0x8000a855	-6.0386e-41
109	0x0000012e	4.23e-43
110	0x80002609	-1.3644e-41
111	0x800215a5	-1.91436e-40
112	0x8002e4b4	-2.65714e-40
113	0x8001ecf7	-1.76842e-40
114	0x800176bf	-1.34434e-40
115	0x0000a71a	5.9945e-41
116	0x80004c0f	-2.7285e-41
117	0x0000695d	3.7797e-41
118	0x0000e1f5	8.1058e-41
119	0x8003454e	-3.00368e-40
120	0x80017308	-1.33101e-40
121	0x0003e028	3.55919e-40
122	0x00017d9e	1.36898e-40
123	0x80010942	-9.5157e-41
124	0x00018a11	1.41364e-40
125	0x8002e27c	-2.64918e-40
126	0x0002a6f6	2.43565e-40
127	0x8002b36a	-2.48033e-40

sparse_weighted_adjacency_matrices.spatial_attention.embedding.bias f4 [64]
0	0x800012ed	-6.789e-42
1	0x800210b1	-1.89659e-40
2	0x00012986	1.06731e-40
3	0x8000a0cb	-5.7682e-41
4	0x0002d9b9	2.61775e-40
5	0x000184c1	1.39459e-40
6	0x0001194e	1.00913e-40
7	0x0001fa18	1.81552e-40
8	0x000046d3	2.5407e-41
9	0x800067a6	-3.7182e-41
10	0x800059f7	-3.2273e-41
11	0x00008ea0	5.1164e-41
12	0x000079d8	4.371e-41
13	0x800397f6	-3.3002e-40
14	0x80001bcb	-9.97e-42
15	0x0002b854	2.49795e-40
16	0x80019a39	-1.4716e-40
17	0x0001ba5d	1.5869e-40
18	0x80017d67	-1.36821e-40
19	0x000295d9	2.37426e-40
20	0x8001fca7	-1.8247e-40
21	0x0000ed08	8.5031e-41
22	0x00024f67	2.12155e-40
23	0x000262f6	2.19171e-40
24	0x00015419	1.22004e-40
25	0x00005e3a	3.3802e-41
26	0x80023efb	-2.06264e-40
27	0x80019966	-1.46864e-40
28	0x8001f9ac	-1.81401e-40
29	0x80036c4c	-3.14356e-40
30	0x8002c8ba	-2.55678e-40
31	0x00016a0e	1.29881e-40
32	0x80038e97	-3.26658e-40
33	0x80038ddc	-3.26396e-40
34	0x0002502d	2.12433e-40
35	0x00003bef	2.15e-41
36	0x8003949e	-3.2882e-40
37	0x0001f0a1	1.78157e-40
38	0x00029d36	2.40068e-40
39	0x8002f80c	-2.72653e-40
40	0x800160e2	-1.2659e-40
41	0x000305ed	2.77632e-40
42	0x000047d7	2.5771e-41
43	0x80006b2a	-3.8443e-41
44	0x8000f9e4	-8.9644e-41
45	0x800184c7	-1.39467e-40
46	0x0001b3b7	1.56305e-40
47	0x0000c154	6.9353e-41
48	0x800385db	-3.23525e-40
49	0x8001a5c9	-1.51308e-40
50	0x00029852	2.38313e-40
51	0x00019f2a	1.48933e-40
52	0x8002e1fa	-2.64736e-40
53	0x8001ae05	-1.54262e-40
54	0x0000e5e6	8.2472e-41
55	0x800459a2	-3.99496e-40
56	0x00009bea	5.5931e-41
57	0x0002bf9f	2.52412e-40
58	0x0003af2f	3.3835e-40
59	0x8000e735	-8.2941e-41
60	0x80029148	-2.35788e-40
61	0x80002f2a	-1.6919e-41
62	0x80029725	-2.37891e-40
63	0x0001edf9	1.77204e-40

sparse_weighted_adjacency_matrices.spatial_attention.query.weight f4 [64, 64]
0	0x00036cee	3.14583e-40
1	0x8001ade9	-1.54223e-40
2	0x8003649e	-3.11601e-40
3	0x80008af3	-4.9846e-41
4	0x80024380	-2.07885e-40
5	0x0003707b	3.15857e-40
6	0x0002c77d	2.55234e-40
7	0x80021931	-1.92708e-40
8	0x00011ca0	1.02104e-40
9	0x00010615	9.4017e-41
10	0x0002ea29	2.67672e-40
11	0x8003c295	-3.4531e-40
12	0x8000f77c	-8.878e-41
13	0x00027e8c	2.29067e-40
14	0x80026062	-2.18247e-40
15	0x0000aed7	6.2721e-41
16	0x0001b26a	1.55838e-40
17	0x000098dd	5.4837e-41
18	0x80015441	-1.2206e-40
19	0x00003d73	2.2044e-41
20	0x80003e9c	-2.246e-41
21	0x00024b74	2.10738e-40
22	0x000402fa	3.6841e-40
23	0x8002557a	-2.14334e-40
24	0x8003cef5	-3.49749e-40
25	0x8001bd79	-1.59805e-40
26	0x00003ce9	2.185e-41
27	0x00000055	1.19e-43
28	0x80004d17	-2.7655e-41
29	0x0000fda6	9.0992e-41
30	0x0000d593	7.6616e-41
31	0x0003f8ff	3.6483e-40
32	0x0001c10a	1.61085e-40
33	0x000148c1	1.17935e-40
34	0x00002aab	1.5306e-41
35	0x800147a0	-1.1753e-40
36	0x8001bc53	-1.59393e-40
37	0x00029646	2.37579e-40
38	0x0000b8e7	6.633e-41
39	0x0001be9a	1.6021e-40
40	0x8000b3ab	-6.4453e-41
41	0x8002ebbf	-2.68241e-40
42	0x8001ed17	-1.76887e-40
43	0x800121a1	-1.03899e-40
44	0x8002dc5f	-2.62725e-40
45	0x80007774	-4.2852e-41
46	0x8003ba5f	-3.42364e-40
47	0x00026324	2.19236e-40
48	0x0000634f	3.5625e-41
49	0x8004b8fc	-4.33702e-40
50	0x8001d269	-1.67316e-40
51	0x8000a59e	-5.9412e-41
52	0x00023128	2.01305e-40
53	0x00026b37	2.22132e-40
54	0x80016338	-1.27428e-40
55	0x800171a0	-1.32596e-40
56	0x0001ce12	1.6576e-40
57	0x800102a9	-9.279e-41
58	0x8002b61a	-2.48997e-40
59	0x800179d2	-1.35536e-40
60	0x8002d514	-2.60109e-40
61	0x800092a0	-5.2599e-41
62	0x80020733	-1.86254e-40
63	0x00008738	4.8507e-41
64	0x800071b5	-4.079e-41
65	0x80023689	-2.03235e-40
66	0x800273bd	-2.2519e-40
67	0x000056bd	3.1116e-41
68	0x00014953	1.18139e-40
69	0x0003e6f6	3.5836e-40
70	0x0000dde5	7.9601e-41
71	0x80038d1c	-3.26127e-40
72	0x8003702a	-3.15743e-40
73	0x00011bb3	1.01772e-40
74	0x8001c9ce	-1.6423e-40
75	0x0001e9d2	1.75714e-40
76	0x000271d7	2.24509e-40
77	0x80008085	-4.6104e-41
78	0x80016138	-1.26711e-40
79	0x80004e48	-2.8082e-41
80	0x00046dcd	4.06731e-40
81	0x0003f334	3.62751e-40
82	0x0003c151	3.44855e-40
83	0x80000fc2	-5.653e-42
84	0x800201ca	-1.84313e-40
85	0x0002c154	2.53024e-40
86	0x0002b556	2.48722e-40
87	0x8001b980	-1.5838e-40
88	0x800123df	-1.04704e-40
89	0x8000e1d6	-8.1015e-41
90	0x800336b7	-2.95134e-40
91	0x80011548	-9.947e-41
92	0x8001b81f	-1.57886e-40
93	0x8001e9fe	-1.75776e-40
94	0x00021d43	1.94168e-40
95	0x8001057c	-9.3803e-41
96	0x80006cb7	-3.9e-41
97	0x00001f73	1.1282e-41
98	0x8004e992	-4.51131e-40
99	0x800131ae	-1.09657e-40
100	0x80004d53	-2.7739e-41
101	0x800022d5	-1.2495e-41
102	0x00011d5b	1.02366e-40
103	0x800172af	-1.32976e-40
104	0x80005945	-3.2024e-41
105	0x00046621	4.03979e-40
106	0x8000e04f	-8.0467e-41
107	0x8002a69f	-2.43443e-40
108	0x0001b2a7	1.55924e-40
109	0x80015f81	-1.26096e-40
110	0x8003b4ac	-3.4032e-40
111	0x80038abb	-3.25274e-40
112	0x80027e2b	-2.28932e-40
113	0x80005ddf	-3.3675e-41
114	0x00012f96	1.08906e-40
115	0x80002ba8	-1.5661e-41
116	0x8002c0a4	-2.52777e-40
117	0x0002f162	2.70263e-40
118	0x0003b9f3	3.42212e-40
119	0x0002f8b7	2.72893e-40
120	0x8002f667	-2.72063e-40
121	0x0001c1c4	1.61346e-40
122	0x8000f69b	-8.8465e-41
123	0x8002aefe	-2.46446e-40
124	0x800117a3	-1.00315e-40
125	0x80017c43	-1.36412e-40
126	0x8002714c	-2.24314e-40
127	0x8002cb1a	-2.5653e-40
128	0x0002caac	2.56376e-40
129	0x8002b3b8	-2.48142e-40
130	0x80031b41	-2.85283e-40
131	0x000446bc	3.92717e-40
132	0x0000a686	5.9737e-41
133	0x80034d72	-3.03289e-40
134	0x0000d4a7	7.6285e-41
135	0x80010323	-9.2961e-41
136	0x80019f39	-1.48954e-40
137	0x0000bedc	6.8467e-41
138	0x8001916e	-1.44006e-40
139	0x8001ed9e	-1.77076e-40
140	0x0001d18e	1.6701e-40
141	0x80043e87	-3.89773e-40
142	0x80019348	-1.4467e-40
143	0x000373ef	3.17096e-40
144	0x8001a366	-1.50452e-40
145	0x8001f0ef	-1.78266e-40
146	0x8001a239	-1.5003e-40
147	0x8001675e	-1.28917e-40
148	0x00038a5e	3.25143e-40
149	0x8004676e	-4.04446e-40
150	0x8000fd8a	-9.0953e-41
151	0x00001d8a	1.0597e-41
152	0x8000b718	-6.5682e-41
153	0x8002ad87	-2.45921e-40
154	0x8003ee96	-3.61095e-40
155	0x800118c8	-1.00725e-40
156	0x0004e49f	4.49356e-40
157	0x80023063	-2.01029e-40
158	0x0001ed43	1.76949e-40
159	0x80044c47	-3.94705e-40
160	0x8001fee8	-1.83279e-40
161	0x8002bfbd	-2.52454e-40
162	0x8000ce50	-7.4011e-41
163	0x8003a5d4	-3.34994e-40
164	0x0004b27e	4.31373e-40
165	0x00017db4	1.36929e-40
166	0x0002b6ea	2.49288e-40
167	0x8000f325	-8.7224e-41
168	0x0002e60c	2.66196e-40
169	0x8002440e	-2.08084e-40
170	0x800084de	-4.7664e-41
171	0x0002ef70	2.69565e-40
172	0x00002003	1.1484e-41
173	0x8002be3c	-2.51914e-40
174	0x8000f602	-8.8251e-41
175	0x0000706a	4.0327e-41
176	0x00018ff0	1.4347e-40
177	0x0002be75	2.51994e-40
178	0x80011750	-1.00198e-40
179	0x8001a13d	-1.49677e-40
180	0x00035dab	3.09108e-40
181	0x0001922d	1.44273e-40
182	0x80017e6b	-1.37186e-40
183	0x8000293a	-1.479e-41
184	0x00005797	3.1421e-41
185	0x80010a4e	-9.5532e-41
186	0x80043703	-3.87076e-40
187	0x8003dd55	-3.54905e-40
188	0x0002cf47	2.58028e-40
189	0x0000dadb	7.851e-41
190	0x80010d9f	-9.6722e-41
191	0x800211cc	-1.90055e-40
192	0x0002cd98	2.57424e-40
193	0x00016602	1.28429e-40
194	0x0001c174	1.61233e-40
195	0x8004caa7	-4.4004e-40
196	0x80013420	-1.10534e-40
197	0x8001b90b	-1.58216e-40
198	0x00025f84	2.17936e-40
199	0x8000fed3	-9.1414e-41
200	0x0004677d	4.04467e-40
201	0x000200a5	1.83902e-40
202	0x00027d60	2.28647e-40
203	0x0000f940	8.9414e-41
204	0x80003327	-1.835e-41
205	0x0001cecf	1.66024e-40
206	0x000147d9	1.1761e-40
207	0x0000f7e1	8.8922e-41
208	0x8000e2d1	-8.1366e-41
209	0x0002a757	2.43701e-40
210	0x8002d6c1	-2.6071e-40
211	0x0004528c	3.96954e-40
212	0x8002088b	-1.86736e-40
213	0x00002bd4	1.5723e-41
214	0x0000e61d	8.2549e-41
215	0x8001e509	-1.73998e-40
216	0x0002e22c	2.64806e-40
217	0x80010bf6	-9.6126e-41
218	0x8000f7b4	-8.8859e-41
219	0x00020422	1.85154e-40
220	0x000468d8	4.04953e-40
221	0x800098a5	-5.4759e-41
222	0x80028640	-2.31831e-40
223	0x80004ce9	-2.759e-41
224	0x80033f24	-2.98157e-40
225	0x80027b96	-2.28005e-40
226	0x80018093	-1.37959e-40
227	0x0000eac3	8.4217e-41
228	0x8000a268	-5.826e-41
229	0x80016cd7	-1.3088e-40
230	0x0001f18a	1.78483e-40
231	0x8000d13b	-7.5058e-41
232	0x000281aa	2.30186e-40
233	0x800371c2	-3.16315e-40
234	0x8002972d	-2.37903e-40
235	0x0000a598	5.9404e-41
236	0x80004be0	-2.7219e-41
237	0x80017132	-1.32442e-40
238	0x800217c5	-1.92198e-40
239	0x80002fa0	-1.7085e-41
240	0x00027845	2.26816e-40
241	0x8000bf35	-6.8592e-41
242	0x00014a81	1.18562e-40
243	0x0002299b	1.98596e-40
244	0x8002b125	-2.47218e-40
245	0x0001c5ca	1.62789e-40
246	0x80005da3	-3.359e-41
247	0x00011c35	1.01954e-40
248	0x0000e4c4	8.2066e-41
249	0x80016419	-1.27744e-40
250	0x0001f620	1.80129e-40
251	0x80021ce2	-1.94032e-40
252	0x8002bfbf	-2.52457e-40
253	0x8001deec	-1.71805e-40
254	0x800401c5	-3.67977e-40
255	0x00017865	1.35025e-40

sparse_weighted_adjacency_matrices.spatial_attention.query.bias f4 [64]
0	0x80016302	-1.27353e-40
1	0x8002a041	-2.41159e-40
2	0x0003761e	3.17879e-40
3	0x8001b6d8	-1.57427e-40
4	0x00009cb0	5.6209e-41
5	0x000042c3	2.395e-41
6	0x000187be	1.4053e-40
7	0x8002b5bb	-2.48864e-40
8	0x0002cc33	2.56924e-40
9	0x800026bd	-1.3897e-41
10	0x000132b2	1.10022e-40
11	0x800091c4	-5.2291e-41
12	0x8001264c	-1.05574e-40
13	0x0001820e	1.3849e-40
14	0x00016b14	1.30248e-40
15	0x8003aab3	-3.36742e-40
16	0x00044ffb	3.96034e-40
17	0x0000bf17	6.855e-41
18	0x0004b0b0	4.30726e-40
19	0x800153cf	-1.219e-40
20	0x80010fac	-9.7458e-41
21	0x800133a2	-1.10358e-40
22	0x00017a75	1.35765e-40
23	0x0000532e	2.9839e-41
24	0x00009394	5.2941e-41
25	0x00017594	1.34015e-40
26	0x0001712e	1.32437e-40
27	0x8003ed6c	-3.60677e-40
28	0x0002d17f	2.58824e-40
29	0x8003ef4c	-3.6135e-40
30	0x0004d246	4.42774e-40
31	0x8001b0f3	-1.55313e-40
32	0x0003ab88	3.3704e-40
33	0x0001139a	9.8867e-41
34	0x8004158a	-3.75069e-40
35	0x00027b40	2.27885e-40
36	0x0001f408	1.79377e-40
37	0x8000df7a	-8.0168e-41
38	0x000025e7	1.3597e-41
39	0x8001a141	-1.49682e-40
40	0x0001a897	1.52314e-40
41	0x000080f7	4.6264e-41
42	0x000178ba	1.35144e-40
43	0x800424f3	-3.80597e-40
44	0x80006a7a	-3.8197e-41
45	0x8001efc4	-1.77847e-40
46	0x00014a4b	1.18487e-40
47	0x80021096	-1.89621e-40
48	0x0003d0ce	3.50411e-40
49	0x80009208	-5.2386e-41
50	0x80028d6c	-2.34404e-40
51	0x00002fa7	1.7094e-41
52	0x00005a15	3.2315e-41
53	0x00014005	1.14801e-40
54	0x8002135e	-1.90619e-40
55	0x0003e6e4	3.58334e-40
56	0x80017c84	-1.36503e-40
57	0x8002416e	-2.07143e-40
58	0x8001e1ee	-1.72884e-40
59	0x00028c30	2.33961e-40
60	0x00029be9	2.39601e-40
61	0x8002eb0e	-2.67993e-40
62	0x80034842	-3.01428e-40
63	0x80007c8a	-4.4676e-41

sparse_weighted_adjacency_matrices.spatial_attention.key.weight f4 [64, 64]
0	0x0001a56c	1.51178e-40
1	0x0004183d	3.76037e-40
2	0x00029c1c	2.39672e-40
3	0x00037eaf	3.20952e-40
4	0x00000e4d	5.13e-42
5	0x80010510	-9.3652e-41
6	0x80008cac	-5.0464e-41
7	0x00018257	1.38593e-40
8	0x00024b25	2.10628e-40
9	0x8003bcaf	-3.43193e-40
10	0x8000691d	-3.7708e-41
11	0x00027623	2.2605e-40
12	0x800223c0	-1.96496e-40
13	0x0000c11f	6.9279e-41
14	0x0001ce9c	1.65953e-40
15	0x8000b873	-6.6168e-41
16	0x00013759	1.1169e-40
17	0x8000124d	-6.565e-42
18	0x00018136	1.38188e-40
19	0x80024b7a	-2.10747e-40
20	0x0001ed9f	1.77078e-40
21	0x80014009	-1.14807e-40
22	0x80016908	-1.29514e-40
23	0x0002ed0e	2.6871e-40
24	0x000194db	1.45235e-40
25	0x8000d62f	-7.6835e-41
26	0x0000dad8	7.8506e-41
27	0x8002d100	-2.58646e-40
28	0x800171cf	-1.32662e-40
29	0x000060d0	3.473e-41
30	0x8001a81b	-1.5214e-40
31	0x8000e5ee	-8.2483e-41
32	0x8002e484	-2.65647e-40
33	0x80026f26	-2.23544e-40
34	0x8001a4c6	-1.50945e-40
35	0x00045feb	4.01751e-40
36	0x00001c43	1.0138e-41
37	0x00005bdf	3.2957e-41
38	0x0003768d	3.18034e-40
39	0x00014853	1.1778e-40
40	0x80041fed	-3.78795e-40
41	0x000357b2	3.06966e-40
42	0x800471d4	-4.08176e-40
43	0x8000d0f1	-7.4954e-41
44	0x8002253a	-1.97025e-40
45	0x80003739	-1.981e-41
46	0x800260e6	-2.18432e-40
47	0x00041c21	3.77433e-40
48	0x800050ac	-2.894e-41
49	0x8003b866	-3.41656e-40
50	0x8001bf5d	-1.60484e-40
51	0x0000fb7d	9.0217e-41
52	0x80011fc1	-1.03227e-40
53	0x800259b3	-2.15849e-40
54	0x800256c2	-2.14794e-40
55	0x80019e3c	-1.48599e-40
56	0x80017e1e	-1.37078e-40
57	0x0001836a	1.38978e-40
58	0x80027a11	-2.2746e-40
59	0x0001525d	1.21382e-40
60	0x8003445f	-3.00033e-40
61	0x80037d03	-3.20352e-40
62	0x8001a579	-1.51196e-40
63	0x8001a207	-1.4996e-40
64	0x0001c27f	1.61608e-40
65	0x8001c878	-1.6375e-40
66	0x80026fab	-2.2373e-40
67	0x8004649e	-4.03437e-40
68	0x000425ea	3.80943e-40
69	0x8003e116	-3.56252e-40
70	0x80024b2d	-2.10639e-40
71	0x0000dc04	7.8927e-41
72	0x00008523	4.776e-41
73	0x000209f7	1.87246e-40
74	0x0003f6fe	3.6411e-40
75	0x000166bc	1.2869e-40
76	0x0001a756	1.51864e-40
77	0x00034448	3.00001e-40
78	0x8003541e	-3.05682e-40
79	0x8002dc9a	-2.62808e-40
80	0x0002ac69	2.4552e-40
81	0x000463e7	4.0318e-40
82	0x00003ccd	2.1811e-41
83	0x800141a9	-1.1539e-40
84	0x80037087	-3.15874e-40
85	0x800522dd	-4.71684e-40
86	0x000513b7	4.6625e-40
87	0x8000f1d1	-8.6747e-41
88	0x80027983	-2.27261e-40
89	0x8000fd01	-9.076e-41
90	0x80045bb1	-4.00235e-40
91	0x0002a0d5	2.41367e-40
92	0x800415f8	-3.75223e-40
93	0x80012ba3	-1.0749e-40
94	0x800154a3	-1.22197e-40
95	0x00020b65	1.87759e-40
96	0x80026156	-2.18589e-40
97	0x80038604	-3.23582e-40
98	0x80029d79	-2.40162e-40
99	0x0002d4cb	2.60007e-40
100	0x8002eb25	-2.68025e-40
101	0x8001117c	-9.8108e-41
102	0x00022727	1.97716e-40
103	0x0004121d	3.7384e-40
104	0x00001cd0	1.0336e-41
105	0x8003ddc3	-3.5506e-40
106	0x0001653e	1.28154e-40
107	0x0001d38b	1.67723e-40
108	0x8000cf78	-7.4426e-41
109	0x0003862b	3.23637e-40
110	0x000092ed	5.2707e-41
111	0x80005e83	-3.3904e-41
112	0x800114f3	-9.935e-41
113	0x80000f90	-5.583e-42
114	0x8002fb8e	-2.73912e-40
115	0x0001a079	1.49402e-40
116	0x00021433	1.90917e-40
117	0x00016bad	1.30462e-40
118	0x0001f5dc	1.80033e-40
119	0x8000c437	-7.0389e-41
120	0x00029bab	2.39514e-40
121	0x8002dc7a	-2.62763e-40
122	0x0003fd89	3.66458e-40
123	0x0000d008	7.4628e-41
124	0x0003afbd	3.3855e-40
125	0x8002e165	-2.64527e-40
126	0x0002eb6c	2.68124e-40
127	0x0000f8c4	8.924e-41
128	0x8002d15b	-2.58774e-40
129	0x8001b39e	-1.5627e-40
130	0x00020de2	1.88651e-40
131	0x800019ef	-9.303e-42
132	0x8000cd4b	-7.3645e-41
133	0x80006325	-3.5566e-41
134	0x00015e0b	1.25572e-40
135	0x00021be5	1.93678e-40
136	0x8003a08d	-3.33101e-40
137	0x80032fc9	-2.92649e-40
138	0x80024b84	-2.10761e-40
139	0x00004d82	2.7805e-41
140	0x0001cd12	1.65401e-40
141	0x0001ecc1	1.76767e-40
142	0x00004657	2.5233e-41
143	0x80014f95	-1.20384e-40
144	0x00026e46	2.2323e-40
145	0x80025080	-2.12549e-40
146	0x0000b3b1	6.4461e-41
147	0x0001c986	1.64128e-40
148	0x0004739c	4.08815e-40
149	0x80019d52	-1.48271e-40
150	0x00024b9d	2.10796e-40
151	0x80004031	-2.3028e-41
152	0x00034971	3.01852e-40
153	0x00046cc1	4.06356e-40
154	0x000460ac	4.02021e-40
155	0x00010595	9.3838e-41
156	0x00006c6a	3.8892e-41
157	0x80021742	-1.92014e-40
158	0x80019394	-1.44777e-40
159	0x000120cf	1.03605e-40
160	0x0002f236	2.7056e-40
161	0x80012b35	-1.07335e-40
162	0x000152d5	1.2155e-40
163	0x00021536	1.9128e-40
164	0x80021000	-1.89411e-40
165	0x8002df66	-2.63811e-40
166	0x8003f220	-3.62365e-40
167	0x0002075e	1.86314e-40
168	0x8001b2dd	-1.56e-40
169	0x80022b10	-1.99119e-40
170	0x80001ef0	-1.1098e-41
171	0x80008d28	-5.0637e-41
172	0x80002761	-1.4126e-41
173	0x00015000	1.20534e-40
174	0x0003d123	3.5053e-40
175	0x0000e01d	8.0397e-41
176	0x000147bf	1.17573e-40
177	0x80039163	-3.27661e-40
178	0x000193fe	1.44925e-40
179	0x00012081	1.03496e-40
180	0x80016298	-1.27204e-40
181	0x8001deeb	-1.71803e-40
182	0x000072c0	4.1165e-41
183	0x800279af	-2.27323e-40
184	0x80015547	-1.22427e-40
185	0x80034771	-3.01135e-40
186	0x0000f2a3	8.7042e-41
187	0x00007151	4.065e-41
188	0x000164cf	1.27999e-40
189	0x80021863	-1.92419e-40
190	0x8001c551	-1.62619e-40
191	0x8001b740	-1.57573e-40
192	0x000095e2	5.3768e-41
193	0x8003a7f1	-3.35753e-40
194	0x00002be2	1.5742e-41
195	0x80022f3d	-2.00617e-40
196	0x8001295a	-1.0667e-40
197	0x80012b58	-1.07384e-40
198	0x0003c9b6	3.47867e-40
199	0x80028a46	-2.33274e-40
200	0x80001ea7	-1.0996e-41
201	0x8001fdc2	-1.82867e-40
202	0x80032494	-2.88628e-40
203	0x00001718	8.284e-42
204	0x800275e7	-2.25966e-40
205	0x00002384	1.274e-41
206	0x800165e9	-1.28394e-40
207	0x0000889f	4.901e-41
208	0x00046d33	4.06515e-40
209	0x80021cb6	-1.9397e-40
210	0x80013064	-1.09195e-40
211	0x0002e9de	2.67567e-40
212	0x00013a50	1.12754e-40
213	0x00016c49	1.30681e-40
214	0x00015f02	1.25918e-40
215	0x80001d03	-1.0407e-41
216	0x80002711	-1.4014e-41
217	0x0001efd3	1.77868e-40
218	0x0001365e	1.11339e-40
219	0x00013db9	1.13977e-40
220	0x0002ad54	2.4585e-40
221	0x00027881	2.269e-40
222	0x80018dc9	-1.42698e-40
223	0x00018082	1.37935e-40
224	0x000031fb	1.793e-41
225	0x00016fbe	1.31921e-40
226	0x00047569	4.09461e-40
227	0x80018b28	-1.41755e-40
228	0x80008803	-4.8792e-41
229	0x0003a774	3.35577e-40
230	0x00013e33	1.14148e-40
231	0x0001c156	1.61191e-40
232	0x00034073	2.98627e-40
233	0x8002a577	-2.43029e-40
234	0x800450f3	-3.96381e-40
235	0x00013547	1.10948e-40
236	0x80006f64	-3.996e-41
237	0x8003667b	-3.1227e-40
238	0x00009abd	5.551e-41
239	0x00014dcd	1.19745e-40
240	0x8000ac2a	-6.1761e-41
241	0x80009063	-5.1796e-41
242	0x00014969	1.1817e-40
243	0x80035eda	-3.09533e-40
244	0x0000477d	2.5645e-41
245	0x80033748	-2.95338e-40
246	0x80004e60	-2.8116e-41
247	0x00002a7d	1.5242e-41
248	0x80009e17	-5.6712e-41
249	0x8002060e	-1.85843e-40
250	0x00014ae0	1.18696e-40
251	0x800051a2	-2.9284e-41
252	0x0001aabe	1.53086e-40
253	0x0000d334	7.5765e-41
254	0x00016cb3	1.3083e-40
255	0x000324b7	2.88677e-40

sparse_weighted_adjacency_matrices.spatial_attention.key.bias f4 [64]
0	0x80021c25	-1.93767e-40
1	0x800168c0	-1.29413e-40
2	0x0000fa64	8.9823e-41
3	0x0003f944	3.64926e-40
4	0x8000448b	-2.4589e-41
5	0x00046e67	4.06947e-40
6	0x80027d09	-2.28525e-40
7	0x800187a3	-1.40493e-40
8	0x80021884	-1.92466e-40
9	0x8002e516	-2.65852e-40
10	0x00050beb	4.63453e-40
11	0x00046fd5	4.0746e-40
12	0x00044bb0	3.94494e-40
13	0x0000a8a3	6.0495e-41
14	0x00016f26	1.31708e-40
15	0x80005f8d	-3.4277e-41
16	0x8000bb84	-6.7268e-41
17	0x8001f726	-1.80496e-40
18	0x0002914f	2.35798e-40
19	0x8002b010	-2.4683e-40
20	0x8001ce59	-1.65859e-40
21	0x0002ccfd	2.57207e-40
22	0x00041995	3.76519e-40
23	0x00012abc	1.07166e-40
24	0x8003b0fd	-3.38998e-40
25	0x0001b3f8	1.56396e-40
26	0x0000e5a7	8.2384e-41
27	0x8004e83d	-4.50653e-40
28	0x80000b6c	-4.097e-42
29	0x80005f98	-3.4293e-41
30	0x8002f6c2	-2.72191e-40
31	0x8002a276	-2.41951e-40
32	0x80020301	-1.84749e-40
33	0x80013bbf	-1.13268e-40
34	0x00008835	4.8862e-41
35	0x80026997	-2.2155e-40
36	0x0001e66f	1.745e-40
37	0x0001377c	1.1174e-40
38	0x00037b86	3.19818e-40
39	0x0000875e	4.856e-41
40	0x0000c1aa	6.9474e-41
41	0x00015c2f	1.24905e-40
42	0x8003962f	-3.29382e-40
43	0x80015d09	-1.2521e-40
44	0x00028b7d	2.3371e-40
45	0x0004164e	3.75343e-40
46	0x8003992d	-3.30456e-40
47	0x0003b9b8	3.4213e-40
48	0x80015fd1	-1.26208e-40
49	0x000477d6	4.10331e-40
50	0x00001396	7.026e-42
51	0x8003cd9b	-3.49264e-40
52	0x000370e3	3.16003e-40
53	0x80005af8	-3.2633e-41
54	0x800021d2	-1.2132e-41
55	0x00027bee	2.28129e-40
56	0x00028e94	2.34818e-40
57	0x00049b87	4.23135e-40
58	0x000408be	3.70478e-40
59	0x80022a1a	-1.98774e-40
60	0x8000f846	-8.9064e-41
61	0x8002031b	-1.84785e-40
62	0x800031d1	-1.7871e-41
63	0x00017503	1.33811e-40

sparse_weighted_adjacency_matrices.temporal_attention.embedding.weight f4 [64, 3]
0	0x3d18b851	0.037285153
1	0x3da0434d	0.078253366
2	0x3d4d4516	0.050114714
3	0xbe0bd4c3	-0.13655381
4	0xbb3d702b	-0.0028905969
5	0xbb376749	-0.0027985147
6	0x3ce9bb8e	0.028531816
7	0xbd52265b	-0.05130611
8	0xbcf81c75	-0.030287007
9	0x34d5ca62	3.9821595e-07
10	0x34a804ea	3.1296014e-07
11	0x3430531a	1.642151e-07
12	0xbe02d4d8	-0.12776506
13	0xbe49c658	-0.19704568
14	0xbe01e844	-0.12686259
15	0x3e0fefd4	0.14056331
16	0xbb970662	-0.004608915
17	0xba854d97	-0.0010170218
18	0xbecbd22c	-0.39808786
19	0xbd960cca	-0.07326658
20	0xbd5855fb	-0.052816372
21	0x3e86934f	0.26284263
22	0xbdba5ff2	-0.09100331
23	0xbd58bc2a	-0.052913822
24	0xbec91a8b	-0.39278063
25	0x3e2a5258	0.16632974
26	0x3dca8d17	0.09890192
27	0xbe6309d2	-0.22171715
28	0xbc7e6d26	-0.015528953
29	0xbc33b5a0	-0.010968596
30	0x3cd1e1f7	0.025620444
31	0x3da79127	0.081819825
32	0x3d54a3e8	0.051914126
33	0x3e2f49ae	0.1711795
34	0xbe0c8331	-0.1372192
35	0xbdaca309	-0.08429534
36	0x3e1e9fd3	0.15490656
37	0xbde9f7a6	-0.11424188
38	0xbd8f01d7	-0.06982773
39	0xbe445eb1	-0.19176747
40	0xbd479ae0	-0.048731685
41	0xbd069378	-0.03285548
42	0x39fb784c	0.0004796408
43	0x39a5da9a	0.00031634123
44	0x391836af	0.00014516221
45	0x396a6497	0.00022353452
46	0x38cc9f7d	9.757185e-05
47	0x38246d09	3.9202194e-05
48	0x3e91a0db	0.28443035
49	0xbe0b7472	-0.13618639
50	0xbda78a8a	-0.08180721
51	0xbe401b21	-0.18760349
52	0x3dd756df	0.10514616
53	0x3d81d59d	0.063395716
54	0xbe2f7968	-0.17136157
55	0x3d0da39e	0.034579866
56	0x3c8bbfc6	0.017059218
57	0xbd9a4884	-0.075333625
58	0xbddc47a4	-0.10755852
59	0xbd8f1d02	-0.06987955
60	0x3deb94dc	0.11503002
61	0xbd04be6d	-0.032408167
62	0xbc871fc0	-0.016494632
63	0xbce48718	-0.027896449
64	0xbc796ef5	-0.015224208
65	0xbc0e89f4	-0.008699883
66	0xbe464ded	-0.19365664
67	0x3e4f522a	0.20246187
68	0x3dffac6c	0.12484059
69	0x3eb02c08	0.34408593
70	0x3eaec48b	0.34134325
71	0x3e5fbbad	0.21848936
72	0x3ed7dff6	0.42163056
73	0xbd7ca3f5	-0.0616798
74	0xbcff2114	-0.031143703
75	0xb6606b13	-3.3440926e-06
76	0xb6d69018	-6.3944717e-06
77	0xb62718de	-2.4899414e-06
78	0x3e7ee541	0.24892141
79	0xbdd2e4db	-0.10297557
80	0xbd796005	-0.060882587
81	0x3d0a648f	0.033787306
82	0xbd379596	-0.04482039
83	0xbcd41e8f	-0.025893478
84	0xbc18b3a8	-0.009320177
85	0xbbbcffd7	-0.005767803
86	0xbb515faf	-0.00319479
87	0xbce4ec91	-0.027944835
88	0x3cdb350d	0.026758695
89	0x3c6b1345	0.014347856
90	0xbeb2fd3e	-0.34958833
91	0xbe6b03a1	-0.22950603
92	0xbe1a0efb	-0.15044777
93	0x3e99fcea	0.3007577
94	0xbe527510	-0.20552468
95	0xbdff4c73	-0.124657534
96	0xb8e8af92	-0.000110953246
97	0xb88ceab3	-6.719436e-05
98	0xb7e72bdc	-2.755777e-05
99	0x3e16d7d6	0.14730772
100	0xbcd8e732	-0.02647743
101	0xbc4abf21	-0.01237467
102	0xbdb10198	-0.08642882
103	0x3dc7654f	0.0973612
104	0x3d756961	0.05991495
105	0x3e0d52ca	0.13801113
106	0xb9b8e1b6	-0.00035263383
107	0x3a916866	0.0011093735
108	0x3e80017a	0.25001127
109	0xbe64255a	-0.22279873
110	0xbe0ba100	-0.13635635
111	0x340676bc	1.2522918e-07
112	0x3397234c	7.037906e-08
113	0x33090fad	3.1912055e-08
114	0xbe515780	-0.20443535
115	0xbd3a0782	-0.045417316
116	0xbcfc008e	-0.030761983
117	0x3dc081aa	0.093997315
118	0xbddb5672	-0.107098475
119	0xbd877470	-0.066140056
120	0x34c7739c	3.7150755e-07
121	0x3327c712	3.906377e-08
122	0x32e1d8d3	2.6292048e-08
123	0x399a6110	0.00029445486
124	0x37a55df0	1.9713276e-05
125	0x372e5434	1.0390813e-05
126	0xbe7aeb2b	-0.24503772
127	0xba2f886e	-0.000669605
128	0xbb2f248a	-0.002672466
129	0x3c9db2f8	0.019250378
130	0x3cbe75d0	0.023249537
131	0x3c60f90b	0.0137312515
132	0x3eaff510	0.34366655
133	0xbe876455	-0.26443735
134	0xbe246400	-0.16053772
135	0xbe5ff75a	-0.21871701
136	0x3da2dac6	0.07951884
137	0x3d3c8d95	0.04603346
138	0xbeca74ff	-0.39542386
139	0x3e8a4802	0.27008063
140	0x3e278ae9	0.16361584
141	0xba717ada	-0.0009211727
142	0xba2a9b44	-0.0006508122
143	0xb9a07a90	-0.00030608894
144	0x3ea733a6	0.32656592
145	0x3c396e13	0.011317748
146	0x3c21dbaf	0.009879037
147	0x385f4ee4	5.3240816e-05
148	0x380367c4	3.1329473e-05
149	0x37646bcf	1.361496e-05
150	0x3cdfea81	0.0273335
151	0xbd948877	-0.07252591
152	0xbd360040	-0.044433832
153	0x3e85c0d5	0.26123682
154	0x3db9218b	0.09039601
155	0x3d7e330f	0.062060412
156	0xbec3f0d2	-0.3826967
157	0xbdbc3584	-0.09189895
158	0xbd84967a	-0.064740136
159	0x3dbca19d	0.09210513
160	0xbd7486cf	-0.059698876
161	0xbd0edb46	-0.034877084
162	0x3e38eea0	0.18059778
163	0xbc48e179	-0.012260788
164	0xbb8e1c52	-0.004336872
165	0x3e045c64	0.12925869
166	0x3d69b6ef	0.057059225
167	0x3d19fdb0	0.03759545
168	0xbd40a450	-0.0470317
169	0xbdf938d7	-0.121690445
170	0xbda0253b	-0.07819601
171	0x3983fa8b	0.00025172936
172	0x3a643384	0.0008705186
173	0x39e8c38a	0.00044396176
174	0x38846654	6.3133106e-05
175	0x37d1fe21	2.503308e-05
176	0x373e23ea	1.1333244e-05
177	0x3ec1d95e	0.3786115
178	0x3e20b097	0.15692364
179	0x3dd9b0ff	0.106294625
180	0x3c416dd6	0.011805972
181	0xbdffb833	-0.12486305
182	0xbda12f23	-0.07870319
183	0x3e9d372a	0.3070615
184	0xbd8a4a19	-0.06752414
185	0xbd163c90	-0.03667885
186	0x3eac9b11	0.33712056
187	0xbc544949	-0.012956926
188	0xbb4b178b	-0.0030989374
189	0xbeb87eb7	-0.36034176
190	0xbd8fed4c	-0.07027683
191	0xbd4df052	-0.050278015

sparse_weighted_adjacency_matrices.temporal_attention.embedding.bias f4 [64]
0	0xbc1786a2	-0.009248408
1	0xbc8b7816	-0.017025035
2	0x3c3d3587	0.011548406
3	0xb3835404	-6.115445e-08
4	0x3ca6d049	0.02036299
5	0x3c9971c5	0.018731007
6	0xbd17b596	-0.03703841
7	0x3d471df6	0.048612557
8	0xbda0d5f2	-0.07853307
9	0xbcd0d255	-0.02549092
10	0xbc332df7	-0.010936252
11	0x3d398069	0.045288477
12	0x3d1fe11f	0.03903305
13	0xbc7e5460	-0.015523046
14	0x36f05684	7.162629e-06
15	0x36ff87be	7.6153947e-06
16	0x3d73b638	0.05949995
17	0xbd2a3a38	-0.041559428
18	0xbcde0f55	-0.02710692
19	0x3c2917d2	0.010320621
20	0x3c9f5ef4	0.019454457
21	0xba9e03b7	-0.001205555
22	0xbd75e2b2	-0.060030647
23	0xbca7b748	-0.020473137
24	0x3d82619b	0.06366273
25	0x34d8e5ee	4.040043e-07
26	0x3d48e20f	0.04904371
27	0x3c357431	0.0110750655
28	0xb9a8fe06	-0.0003223272
29	0xbbf0d717	-0.0073498595
30	0xbaced173	-0.0015778973
31	0x3d97f052	0.07418884
32	0x363e998c	2.8401582e-06
33	0x3cba595c	0.022747688
34	0xbcdef14c	-0.027214669
35	0x3c915ab9	0.017743455
36	0x3d9121d1	0.07086528
37	0x316d8c8b	3.4567929e-09
38	0xbc916a01	-0.017750742
39	0x3cf5713f	0.029961227
40	0x33114c2e	3.382973e-08
41	0x3819d71f	3.667839e-05
42	0xbcfe4eb0	-0.03104338
43	0xbabf994d	-0.0014617831
44	0x3db8be00	0.090206146
45	0xbd27ab3f	-0.040934797
46	0xbdc7c60a	-0.0975457
47	0xb72f36e6	-1.0443595e-05
48	0x3d218e0d	0.03944211
49	0x350f1e1f	5.3315483e-07
50	0x3c796afa	0.015223259
51	0x3c870eed	0.01648661
52	0xbd011593	-0.031514715
53	0x3cace17c	0.021103613
54	0x3ccca3af	0.024980394
55	0x3bc304e9	0.005951513
56	0x3c835047	0.01602949
57	0xb901ac59	-0.00012366603
58	0x3670b50a	3.5868165e-06
59	0x3c9b4077	0.018951638
60	0x3cbc6191	0.022995742
61	0x3d4d33ed	0.05009835
62	0x3d37ea2c	0.044901058
63	0xbd06ab73	-0.03287835

sparse_weighted_adjacency_matrices.temporal_attention.query.weight f4 [64, 64]
0	0x2c53ba13	3.0088195e-12
1	0xadee075a	-2.7060732e-11
2	0x2d5cf2f1	1.2559496e-11
3	0x2631c9c6	6.1682665e-16
4	0xadc054d2	-2.186554e-11
5	0x2df36cd0	2.7674224e-11
6	0xaf2a72d8	-1.550221e-10
7	0x2eddf5ec	1.0093601e-10
8	0xaf3cce95	-1.7171893e-10
9	0xaea2a417	-7.396055e-11
10	0x2b1c2d2c	5.548502e-13
11	0x2e442fb1	4.46076e-11
12	0x2e1afbc0	3.5239145e-11
13	0xae5de92f	-5.045669e-11
14	0x2b35624d	6.444054e-13
15	0x2aa4e0a0	2.9288117e-13
16	0x2ef7ca94	1.1268245e-10
17	0xae78a19e	-5.6532216e-11
18	0xae31b57a	-4.0406324e-11
19	0xae267be6	-3.7854074e-11
20	0x2e2b45e0	3.894296e-11
21	0xac929f8a	-4.167282e-12
22	0xae989f56	-6.9404635e-11
23	0x2ed32b2b	9.602837e-11
24	0x2f477e2d	1.8143771e-10
25	0xa7accf6c	-4.7964477e-15
26	0x2ed599e1	9.713453e-11
27	0x2d358f33	1.0320455e-11
28	0xac884041	-3.872486e-12
29	0xad2f855d	-9.977211e-12
30	0xaeef33ce	-1.0877664e-10
31	0x2f0a4bc1	1.257794e-10
32	0xaa3b918d	-1.6659435e-13
33	0x2e02131e	2.9575557e-11
34	0xae1dc5c2	-3.587331e-11
35	0x2dec925c	2.689509e-11
36	0x2ef0d633	1.0951986e-10
37	0x250f4281	1.2425805e-16
38	0xae8502f2	-6.048663e-11
39	0x2e2f5ae3	3.9871117e-11
40	0x260a7932	4.804262e-16
41	0x2a505f47	1.8507167e-13
42	0xaebc7fdd	-8.571963e-11
43	0x2d07084a	7.675702e-12
44	0x2f2713ca	1.5195592e-10
45	0xaeadbadb	-7.9003214e-11
46	0xaf49838c	-1.8327578e-10
47	0xabaabf12	-1.2132259e-12
48	0x2efd88ee	1.15294316e-10
49	0x29afc85a	7.8063166e-14
50	0x2d79036d	1.4154772e-11
51	0x2eb42e7e	8.193711e-11
52	0xaf1cc7e3	-1.4259131e-10
53	0x2e2de3c2	3.9537935e-11
54	0x2e50a5ae	4.7440878e-11
55	0x2e087c35	3.1033138e-11
56	0xad84a7af	-1.5081129e-11
57	0x28d9318c	2.4113327e-14
58	0x298ec9a3	6.341045e-14
59	0x2f13da39	1.34471e-10
60	0x2d59fc75	1.2391079e-11
61	0x2efa13ef	1.1372225e-10
62	0x2f076ea1	1.2317482e-10
63	0xaf0e7f49	-1.2960046e-10
64	0xadba0f2b	-2.1152488e-11
65	0x2f4c3a7c	1.857447e-10
66	0xae4edfa8	-4.7037624e-11
67	0xa6e3a533	-1.5796066e-15
68	0x2f04a7da	1.2064963e-10
69	0xaf553bec	-1.9393526e-10
70	0x302572e1	6.0189903e-10
71	0xafdfdb26	-4.0719178e-10
72	0x3029cbca	6.1771444e-10
73	0x2fb3a624	3.267796e-10
74	0xad6c11a0	-1.341896e-11
75	0xaf930ca7	-2.6748134e-10
76	0xaf82f068	-2.381768e-10
77	0x2f93c5e4	2.6879754e-10
78	0xabf97440	-1.772478e-12
79	0xab71275c	-8.567502e-13
80	0xaff5bab5	-4.4697904e-10
81	0x2f9dfa76	2.8736097e-10
82	0x2f88b6f1	2.4868244e-10
83	0x2e000c14	2.9114558e-11
84	0xaf2817e4	-1.5287999e-10
85	0x2df9ed91	2.8413523e-11
86	0x2fac0c1e	3.1295228e-10
87	0xb0067a4d	-4.8922716e-10
88	0xb03310d5	-6.514374e-10
89	0x2857cc57	1.1979207e-14
90	0xafd45fe9	-3.8630724e-10
91	0xae4baa15	-4.630792e-11
92	0x2d9c50a4	1.7770958e-11
93	0x2e368ae3	4.1505365e-11
94	0x300c3f40	5.1021587e-10
95	0xb004051c	-4.802858e-10
96	0x2a3494bd	1.6038816e-13
97	0xaf64b40b	-2.0800443e-10
98	0x2f00277b	1.1655558e-10
99	0xaf4fc0e4	-1.8895069e-10
100	0xafddd239	-4.0349038e-10
101	0xa60fa41e	-4.983551e-16
102	0x2fa050ce	2.9161246e-10
103	0xaf1539f0	-1.3572055e-10
104	0xa6d7aac1	-1.4964905e-15
105	0xab4b217d	-7.216656e-13
106	0x2fca5a1a	3.6807607e-10
107	0xae1506de	-3.3884777e-11
108	0xb017e41d	-5.525765e-10
109	0x2fb7732e	3.3369346e-10
110	0x302e22d6	6.3350336e-10
111	0x2c54b178	3.0225527e-12
112	0xb008fb4e	-4.9833637e-10
113	0xaa746501	-2.1706596e-13
114	0xae55bdda	-4.8599215e-11
115	0xafd2958a	-3.830503e-10
116	0x301e66a5	5.762593e-10
117	0xaef9d3a0	-1.1360801e-10
118	0xaf8f99f3	-2.6120936e-10
119	0xaf295d4d	-1.5403608e-10
120	0x2ca9fe3e	4.8314954e-12
121	0xaa9287d7	-2.6029068e-13
122	0xaa91248a	-2.5782528e-13
123	0xb01abe9f	-5.629576e-10
124	0xae3c369e	-4.279476e-11
125	0xb0028347	-4.748028e-10
126	0xb00e0d0c	-5.167784e-10
127	0x3015a5ae	5.444133e-10
128	0x3b6767c1	0.0035309645
129	0xbc7e09a7	-0.015505231
130	0x3b6a9f73	0.0035800606
131	0x3333afa2	4.1836422e-08
132	0xbc4d7bf2	-0.012541758
133	0x3c8343fe	0.016023632
134	0xbd388555	-0.04504903
135	0x3cfc455d	0.030794794
136	0xbd3f196b	-0.0466551
137	0xbccd980b	-0.025096914
138	0x3b1400c6	0.0022583469
139	0x3ca94859	0.02066438
140	0x3c985a36	0.018597703
141	0xbcae763f	-0.021296619
142	0x37b4e28e	2.156317e-05
143	0x376df7a8	1.4183963e-05
144	0x3d0a0c42	0.033703096
145	0xbcb63f01	-0.02224684
146	0xbca1d811	-0.019756349
147	0xbbf3d24c	-0.007440841
148	0x3c59e142	0.013298335
149	0xbb4a07c2	-0.0030827378
150	0xbcc33075	-0.023826817
151	0x3d145a7e	0.036219113
152	0x3d495d02	0.049160965
153	0xb4df5e05	-4.1605395e-07
154	0x3cefef5a	0.029288936
155	0x3b86f25f	0.0041182484
156	0xba8a396f	-0.0010545681
157	0xbb596f24	-0.0033177817
158	0xbd1b2d3a	-0.03788493
159	0x3d145ea0	0.036223054
160	0xb6ee50db	-7.1023655e-06
161	0x3c8ac6d6	0.016940515
162	0xbc2e4d57	-0.010638556
163	0x3c809d88	0.015700117
164	0x3cf9c069	0.030487256
165	0x3278b2f8	1.4476193e-08
166	0xbcbaa353	-0.022782957
167	0x3c3e046f	0.011597737
168	0x331450ec	3.4532533e-08
169	0x37e3b78f	2.7145985e-05
170	0xbce4f1a9	-0.027947264
171	0x3b06e99b	0.0020586017
172	0x3d2b0f3e	0.041762583
173	0xbcd1a0f2	-0.02558944
174	0xbd4423f4	-0.04788585
175	0xb858f63f	-5.1727748e-05
176	0x3d18d028	0.03730789
177	0x3652a316	3.1387367e-06
178	0x3b6e0df4	0.0036324235
179	0x3cec8e42	0.028876428
180	0xbd3055ce	-0.04305058
181	0x3c32f53b	0.010922725
182	0x3ca92dd9	0.020651745
183	0x3c66ae00	0.014079571
184	0xbb8862e0	-0.0041621774
185	0x3812afe6	3.497293e-05
186	0x361918b8	2.2813165e-06
187	0x3d2bdf9b	0.041961294
188	0x3b1b621d	0.0023709603
189	0x3d1266d4	0.035742596
190	0x3d1ee72b	0.038794678
191	0xbd267745	-0.040641088
192	0xaea79483	-7.620662e-11
193	0x301e12e8	5.750693e-10
194	0xaf894f7b	-2.497663e-10
195	0xa851def0	-1.16501725e-14
196	0x2fb612fb	3.3119094e-10
197	0xb020c4ce	-5.8487337e-10
198	0x312f759f	2.5532712e-09
199	0xb0c035ff	-1.3985185e-09
200	0x313f786e	2.7862614e-09
201	0x30836f2e	9.563104e-10
202	0x2d116217	8.264076e-12
203	0xb0592435	-7.8995593e-10
204	0xb0578594	-7.840637e-10
205	0x303c59b0	6.8521455e-10
206	0xad4b4ea0	-1.1556672e-11
207	0xacc5c046	-5.6204234e-12
208	0xb0e3b595	-1.6568033e-09
209	0x30560102	7.785418e-10
210	0x3036398a	6.629298e-10
211	0x30303551	6.4104194e-10
212	0xb040de23	-7.016487e-10
213	0x2eb4c965	8.221227e-11
214	0x30715004	8.7789e-10
215	0xb0da209e	-1.5870858e-09
216	0xb14f6798	-3.018135e-09
217	0x29ce1934	9.15261e-14
218	0xb0ae9ea6	-1.2705257e-09
219	0xaf6dfb0a	-2.1644211e-10
220	0x2e29d9bf	3.861955e-11
221	0x2f43766b	1.7777217e-10
222	0x30f1a772	1.7582649e-09
223	0xb1037bc6	-1.9133366e-09
224	0x2c55b03d	3.0366952e-12
225	0xb0337618	-6.528764e-10
226	0x2fa94974	3.0793113e-10
227	0xb01e128f	-5.750644e-10
228	0xb0be16d6	-1.383081e-09
229	0xa771a58d	-3.3535214e-15
230	0x30569d79	7.807653e-10
231	0xafd42c18	-3.8593906e-10
232	0xa82a4ca0	-9.453511e-15
233	0xac96bf90	-4.284524e-12
234	0x30a0c45d	1.1697342e-09
235	0xae9b10cd	-7.0515684e-11
236	0xb1270db7	-2.4309494e-09
237	0x3083f900	9.602275e-10
238	0x314dffcf	2.9976837e-09
239	0x2d9d90ec	1.7913192e-11
240	0xb0fa0f92	-1.8194319e-09
241	0xabca95b1	-1.4394511e-12
242	0xaf9f17ce	-2.8938846e-10
243	0xb09f3664	-1.1584231e-09
244	0x311fc750	2.3250841e-09
245	0xb002091a	-4.730666e-10
246	0xb039666d	-6.7448164e-10
247	0xb027ef98	-6.109473e-10
248	0x2fcc0b13	3.7115253e-10
249	0x2b9aa748	1.0988788e-12
250	0xabd43f64	-1.50811e-12
251	0xb11768ec	-2.2033033e-09
252	0xaf801335	-2.3296712e-10
253	0xb0f21442	-1.7613575e-09
254	0xb1065ee1	-1.9553499e-09
255	0x310e9d2a	2.0753057e-09

sparse_weighted_adjacency_matrices.temporal_attention.query.bias f4 [64]
0	0x2ef8f12b	1.1320574e-10
1	0xb00f5036	-5.2137084e-10
2	0x3d27550a	0.040852584
3	0xb0071d71	-4.915455e-10
4	0x3d845b5e	0.064627394
5	0xbca8b71b	-0.020595124
6	0xb35ef1c5	-5.190829e-08
7	0xb549fda0	-7.524741e-07
8	0x25138e4b	1.2798428e-16
9	0xbd820b02	-0.06349756
10	0xbce0d6fe	-0.027446266
11	0x9d78bb70	-3.291943e-21
12	0xbdde63a2	-0.10858847
13	0xa93b98ca	-4.1654865e-14
14	0xb40a56a7	-1.2883775e-07
15	0x354ba3ac	7.5861567e-07
16	0xbdc4f399	-0.09616775
17	0xbdf3ca00	-0.11903763
18	0xbd96f23c	-0.07370421
19	0x3cf7b95c	0.030239753
20	0xb9a9ddca	-0.00032399438
21	0x3470c50e	2.242343e-07
22	0xb948ebe0	-0.00019161357
23	0x35341ac6	6.7094186e-07
24	0xb5eefe01	-1.7806307e-06
25	0xbaad17f7	-0.0013205995
26	0x34750ffd	2.282322e-07
27	0x39da2079	0.00041604394
28	0x3a2e860f	0.00066575495
29	0x3d7a7a73	0.061151933
30	0xb5b26c78	-1.3293602e-06
31	0x3d15699a	0.036477663
32	0xbaa0923d	-0.0012250614
33	0xbc1f01ca	-0.009705016
34	0xbb9fa702	-0.004872204
35	0x3cea5daa	0.028609116
36	0xb8ddbba8	-0.00010573055
37	0xb5339ca9	-6.6910667e-07
38	0xba59b91b	-0.0008305476
39	0x39921462	0.00027862476
40	0x3c284bc8	0.010271974
41	0xbd2b73a6	-0.041858338
42	0x351f0dfd	5.925247e-07
43	0x3b5abcf8	0.0033376794
44	0x33e13953	1.0487806e-07
45	0x39cad6d3	0.000386885
46	0x3851adbd	4.999129e-05
47	0x3d27f7a3	0.04100765
48	0xb9eb7253	-0.0004490787
49	0xb911cc26	-0.00013904329
50	0x9362c913	-2.8624348e-27
51	0x3d6f5813	0.058433603
52	0x3d49550d	0.049153376
53	0xbcf34770	-0.02969715
54	0xbccab4da	-0.02474444
55	0xbaf009c6	-0.001831346
56	0xb809e27b	-3.287427e-05
57	0xbd978062	-0.07397534
58	0xbd9d80aa	-0.07690556
59	0xad87eedb	-1.5453796e-11
60	0x0ba42884	6.3231463e-32
61	0x3d1ddbcf	0.038539704
62	0xb96ba000	-0.00022470951
63	0xad10f963	-8.240827e-12

sparse_weighted_adjacency_matrices.temporal_attention.key.weight f4 [64, 64]
0	0x2d5ea145	1.2655048e-11
1	0xaddb5f10	-2.4939634e-11
2	0x2cc29c18	5.5311415e-12
3	0x25fdf948	4.4057423e-16
4	0xae10d366	-3.292957e-11
5	0x2ddf5de4	2.539386e-11
6	0xaf3b4bf4	-1.7034535e-10
7	0x2ecce452	9.317404e-11
8	0xaf346913	-1.6408234e-10
9	0xaeacced8	-7.858397e-11
10	0x2d994a88	1.7427185e-11
11	0x2e40f11b	4.386989e-11
12	0x2e0cdc03	3.2027724e-11
13	0xae723afd	-5.507682e-11
14	0x2b2599b4	5.883308e-13
15	0x2a784f7f	2.2054406e-13
16	0x2edb2e4e	9.9671923e-11
17	0xae7525da	-5.574017e-11
18	0xae39e009	-4.2263113e-11
19	0xade0459f	-2.549677e-11
20	0x2e0ce4e9	3.2035628e-11
21	0xaccc6080	-5.8087424e-12
22	0xae88a912	-6.214597e-11
23	0x2f1a8df3	1.4056649e-10
24	0x2f4b969a	1.8516247e-10
25	0xa782675a	-3.6194302e-15
26	0x2ec21061	8.825008e-11
27	0x2cfc3871	7.168537e-12
28	0xaca85bc2	-4.7850343e-12
29	0xaccab5b7	-5.7613597e-12
30	0xaf1b173b	-1.4105421e-10
31	0x2ee872b8	1.0570517e-10
32	0xaa27949f	-1.4884143e-13
33	0x2defdaa7	2.7268255e-11
34	0xae2802cc	-3.820126e-11
35	0x2ddb8be4	2.4959541e-11
36	0x2ebb88a0	8.528045e-11
37	0x2514460a	1.2860684e-16
38	0xae9119f1	-6.598445e-11
39	0x2e2820a6	3.8227775e-11
40	0x25cc5424	3.5445375e-16
41	0x2a74d1fb	2.1744405e-13
42	0xaec48b87	-8.937833e-11
43	0x2d506c53	1.1847484e-11
44	0x2f0fd077	1.3079836e-10
45	0xaea75bd2	-7.610591e-11
46	0xaf36a247	-1.6610456e-10
47	0xab8dcd55	-1.0075644e-12
48	0x2f0710d1	1.2284153e-10
49	0x29a7c8e2	7.4511374e-14
50	0x2d01df9f	7.382455e-12
51	0x2ed6b5a9	9.7638626e-11
52	0xaf2fb01e	-1.5978727e-10
53	0x2e3299fd	4.0609283e-11
54	0x2e5933a3	4.938595e-11
55	0x2e0dba32	3.2225063e-11
56	0xace3e6eb	-6.477365e-12
57	0x29fa11e4	1.1105334e-13
58	0x298d16bf	6.265604e-14
59	0x2f2df887	1.5822553e-10
60	0x2c331a99	2.5452195e-12
61	0x2ef4494c	1.11088555e-10
62	0x2f0d4a5e	1.2850296e-10
63	0xaf1ef9ac	-1.4458718e-10
64	0xae60b59f	-5.1093015e-11
65	0x2f568b39	1.9512648e-10
66	0xae23006d	-3.7062287e-11
67	0xa70324d0	-1.8199858e-15
68	0x2f4a28a8	1.8386237e-10
69	0xaf5da8ce	-2.0159804e-10
70	0x302ab244	6.209897e-10
71	0xafe15528	-4.098777e-10
72	0x302af32f	6.2191224e-10
73	0x2fbaaf17	3.3957612e-10
74	0xae45b0d4	-4.494967e-11
75	0xaf891546	-2.493527e-10
76	0xaf72a919	-2.2069847e-10
77	0x2f9e8b54	2.883903e-10
78	0xac0e538f	-2.0225798e-12
79	0xab941096	-1.0520636e-12
80	0xaff5ea43	-4.4731693e-10
81	0x2f993b6e	2.7872765e-10
82	0x2f8a6ac2	2.517791e-10
83	0x2e91b3d2	6.625779e-11
84	0xaf26e439	-1.5178693e-10
85	0x2e122f9a	3.3238835e-11
86	0x2f9fc681	2.9062977e-10
87	0xb010b1ab	-5.2639376e-10
88	0xb0366174	-6.6349704e-10
89	0x2883edd4	1.4647063e-14
90	0xafd47bc0	-3.8650505e-10
91	0xae224010	-3.6891434e-11
92	0x2da1f248	1.8411175e-11
93	0x2e1f2219	3.61827e-11
94	0x30142f1b	5.390903e-10
95	0xb0030593	-4.7665444e-10
96	0x2aa33075	2.898824e-13
97	0xaf68061b	-2.1102446e-10
98	0x2eba83c8	8.48171e-11
99	0xaf592ff6	-1.9753074e-10
100	0xafd779be	-3.9194775e-10
101	0xa62f20f4	-6.075998e-16
102	0x2faa59ac	3.0986536e-10
103	0xaee11811	-1.02360904e-10
104	0xa70139cb	-1.7933676e-15
105	0xab817da0	-9.200869e-13
106	0x2fd06656	3.7907694e-10
107	0xae01805b	-2.9445207e-11
108	0xb016a877	-5.4809085e-10
109	0x2fb77326	3.3369324e-10
110	0x302d5cf6	6.306914e-10
111	0x2c5b547d	3.1168672e-12
112	0xb00c88a7	-5.11259e-10
113	0xaa8d2a1a	-2.5075845e-13
114	0xae1ac505	-3.5190535e-11
115	0xafde2f03	-4.0414969e-10
116	0x3023d544	5.9602123e-10
117	0xaeda44b9	-9.9257e-11
118	0xaf93d97e	-2.6893682e-10
119	0xaf46c915	-1.8079434e-10
120	0x2e788da5	5.6514477e-11
121	0xaa47cc61	-1.7745659e-13
122	0xaa98bf67	-2.7133436e-13
123	0xb02155b3	-5.8693245e-10
124	0xadab3ef0	-1.9468399e-11
125	0xb0047a77	-4.8195353e-10
126	0xb0113ddf	-5.2838617e-10
127	0x301a7af7	5.6199617e-10
128	0x3b8666fe	0.004101633
129	0xbc82dcaf	-0.01597437
130	0x3b60d78f	0.003430817
131	0x32cbb57c	2.371484e-08
132	0xbc6f72cc	-0.014614772
133	0x3c86c47d	0.016451115
134	0xbd403685	-0.046926994
135	0x3cfd9c9e	0.03095847
136	0xbd3f55d5	-0.046712715
137	0xbcd4b0cf	-0.025963215
138	0x3b35ba4f	0.0027729457
139	0x3ca4e664	0.02012939
140	0x3c950797	0.018192096
141	0xbcb70df7	-0.022345526
142	0x381f723c	3.8014943e-05
143	0x380896ee	3.256549e-05
144	0x3d0997b1	0.03359193
145	0xbcb4798d	-0.022030616
146	0xbca46719	-0.020068692
147	0xbc0bd98f	-0.008535757
148	0x3c5c4a48	0.013445444
149	0xbb5352a9	-0.0032245314
150	0xbcbb3eee	-0.022857156
151	0x3d2396ba	0.039938666
152	0x3d4d2ce3	0.050091635
153	0xb4fbcaa9	-4.6899848e-07
154	0x3cf01434	0.029306509
155	0x3b830165	0.003997969
156	0xba901c4b	-0.001099476
157	0xbb5784b6	-0.0032885498
158	0xbd270af7	-0.04078194
159	0x3d11fff3	0.035644483
160	0xb6cda9a5	-6.1292253e-06
161	0x3c8d3493	0.017236983
162	0xbc26945d	-0.0101672085
163	0x3c844bb4	0.01614938
164	0x3cf256a5	0.029582331
165	0x3275318f	1.4272145e-08
166	0xbcc354da	-0.023844171
167	0x3c3541e1	0.01106307
168	0x3328ffa9	3.934807e-08
169	0x37f02f55	2.863227e-05
170	0xbcebb3da	-0.028772283
171	0x3b10e6c0	0.0022110194
172	0x3d27921b	0.04091082
173	0xbcd275af	-0.025690882
174	0xbd415140	-0.047196627
175	0xb84b868c	-4.8524278e-05
176	0x3d1da0ac	0.038483307
177	0x362a72cb	2.5398792e-06
178	0x3b5c6eff	0.0033635495
179	0x3cf9a54f	0.030474333
180	0xbd386cee	-0.04502576
181	0x3c309b06	0.010779148
182	0x3cad5b11	0.021161588
183	0x3c75c6ed	0.015001041
184	0xbba78b0b	-0.0051130108
185	0x38183dd6	3.6297213e-05
186	0x363be14b	2.799631e-06
187	0x3d35de6e	0.04440158
188	0x3ae5b922	0.0017526487
189	0x3d147555	0.03624471
190	0x3d231a65	0.039820094
191	0xbd2d95f6	-0.042379342
192	0xaf9871a2	-2.772938e-10
193	0x30215c9f	5.870308e-10
194	0xaed2298f	-9.557077e-11
195	0xa84c56b2	-1.1343074e-14
196	0x301af5ed	5.6374355e-10
197	0xb021c5bd	-5.885246e-10
198	0x31417729	2.815293e-09
199	0xb0aeeb91	-1.2727118e-09
200	0x312b8ffa	2.4965616e-09
201	0x3083e377	9.596154e-10
202	0xaf909b98	-2.6304003e-10
203	0xb0462806	-7.2088857e-10
204	0xb051e767	-7.63626e-10
205	0x303fcd05	6.9776745e-10
206	0xad47e94f	-1.1363645e-11
207	0xacc63449	-5.6333033e-12
208	0xb0c58120	-1.4370336e-09
209	0x303efd55	6.9481604e-10
210	0x302e5ee6	6.343569e-10
211	0x2f82af71	2.377152e-10
212	0xb0455764	-7.179237e-10
213	0x2f085ee1	1.2402836e-10
214	0x3048e4cb	7.308471e-10
215	0xb125e9d1	-2.414357e-09
216	0xb14de501	-2.99616e-09
217	0x29ab1cb3	7.598904e-14
218	0xb09c25f6	-1.1361283e-09
219	0xaedd7b80	-1.00718545e-10
220	0x2e8b7454	6.341652e-11
221	0x2ee4924f	1.0394229e-10
222	0x31226f42	2.3637345e-09
223	0xb0d316ea	-1.5358783e-09
224	0x2c4c30dd	2.9017268e-12
225	0xb0312fbb	-6.4460054e-10
226	0x301330ad	5.354746e-10
227	0xb020b184	-5.8459926e-10
228	0xb0963097	-1.0927746e-09
229	0xa76c3c6f	-3.278434e-15
230	0x305a5f52	7.9443396e-10
231	0xb02dcd72	-6.322899e-10
232	0xa82e47cb	-9.674508e-15
233	0xacab309b	-4.8655086e-12
234	0x30a29a40	1.1830892e-09
235	0xaf5922ad	-1.9748354e-10
236	0xb101125e	-1.8782411e-09
237	0x30704364	8.740726e-10
238	0x3127f134	2.4438807e-09
239	0x2db0ef31	2.0115106e-11
240	0xb104a8c7	-1.9304467e-09
241	0xabc1b4ef	-1.3763694e-12
242	0xaeacf318	-7.8648366e-11
243	0xb0bbf116	-1.3674561e-09
244	0x3134bbeb	2.6300266e-09
245	0xb0231821	-5.9333344e-10
246	0xb032f3c4	-6.5102435e-10
247	0xb035f5e6	-6.619686e-10
248	0x2f1e2509	1.4383174e-10
249	0xac09a5eb	-1.9560974e-12
250	0xabdcf8bf	-1.5700981e-12
251	0xb135b8ed	-2.6444085e-09
252	0x2be1357c	1.6002056e-12
253	0xb0e76255	-1.683541e-09
254	0xb10aa9b1	-2.0178101e-09
255	0x31208367	2.3357758e-09

sparse_weighted_adjacency_matrices.temporal_attention.key.bias f4 [64]
0	0x23318bdc	9.624806e-18
1	0xa1d71b88	-1.4576254e-18
2	0xb2a0ef6d	-1.873533e-08
3	0x26baf4b1	1.2972666e-15
4	0x331259ce	3.407495e-08
5	0x30b91058	1.3465167e-09
6	0xa74090a2	-2.6723758e-15
7	0xaa31b07d	-1.578199e-13
8	0x9a85e293	-5.537356e-23
9	0x3233a4df	1.0456659e-08
10	0x321c891c	9.11157e-09
11	0x120ed030	4.506391e-28
12	0xb32f22dd	-4.077707e-08
13	0x1a9a5b6c	6.384061e-23
14	0xa8a5f773	-1.8425994e-14
15	0xa9939b17	-6.555015e-14
16	0xb11c248c	-2.2721762e-09
17	0xb2724af5	-1.4103297e-08
18	0xb338e0df	-4.3045358e-08
19	0x31bb6d62	5.4548517e-09
20	0x2f0f1a87	1.3015199e-10
21	0xab14e171	-5.2893025e-13
22	0x30557f6a	7.7670015e-10
23	0x2a0f419e	1.2723717e-13
24	0xa9ba1e24	-8.265288e-14
25	0x3085e559	9.742208e-10
26	0xaa7bfe59	-2.2381523e-13
27	0x2f4a9758	1.8425561e-10
28	0xb0c0092f	-1.3972449e-09
29	0x318b1825	4.0481773e-09
30	0x2c219490	2.2961945e-12
31	0x3468a36a	2.1666133e-07
32	0xb22a5d3e	-9.916503e-09
33	0x32217a7f	9.399286e-09
34	0xaf0e38bc	-1.2934981e-10
35	0x3245b44a	1.1507902e-08
36	0xad805661	-1.4590275e-11
37	0x2a20af9b	1.427178e-13
38	0x2ffe4a86	4.6255283e-10
39	0x2e6c012b	5.3661225e-11
40	0x33a0cf21	7.488257e-08
41	0xb11bd7d5	-2.2678155e-09
42	0xaa6ca48b	-2.1018098e-13
43	0xb01d68ed	-5.7265376e-10
44	0x28ed7bdc	2.6366001e-14
45	0xafb4660c	-3.2814318e-10
46	0xad4a0832	-1.148419e-11
47	0x311c18ea	2.271515e-09
48	0xaf9867ce	-2.7722397e-10
49	0x2dbd8319	2.1545031e-11
50	0x8a2bf7c0	-8.279947e-33
51	0x32dee84c	2.5949838e-08
52	0x321d3ea9	9.15285e-09
53	0xb23574ee	-1.0562173e-08
54	0xb24e92a5	-1.2024121e-08
55	0xb06d9ad3	-8.6440116e-10
56	0xabeef7e0	-1.6979716e-12
57	0x32933baa	1.7140184e-08
58	0xb2310f61	-1.0306253e-08
59	0xa3265926	-9.017756e-18
60	0x81f84d00	-9.12113e-38
61	0x3260e988	1.3091615e-08
62	0x2f056d97	1.2135214e-10
63	0xa29b4acb	-4.2092024e-18

sparse_weighted_adjacency_matrices.spa_fusion.conv.0.weight f4 [8, 8, 1, 1]
0	0xb41759fe	-1.409571e-07
1	0xb4175e76	-1.4097336e-07
2	0xb4175a54	-1.4095832e-07
3	0xb4175767	-1.4094768e-07
4	0xb417579d	-1.4094844e-07
5	0xb41757ac	-1.4094866e-07
6	0xb4175732	-1.4094692e-07
7	0xb4175683	-1.4094444e-07
8	0xb6d5e618	-6.374681e-06
9	0xb6d5e76b	-6.3748353e-06
10	0xb6d5e6b9	-6.3747543e-06
11	0xb6d5e5d0	-6.3746484e-06
12	0xb6d5e496	-6.3745056e-06
13	0xb6d5e2fe	-6.37432e-06
14	0xb6d5e0ff	-6.3740877e-06
15	0xb6d5df33	-6.3738785e-06
16	0xb6a497b5	-4.905242e-06
17	0xb6a4804a	-4.9025157e-06
18	0xb6a473d6	-4.901066e-06
19	0xb6a47075	-4.9006726e-06
20	0xb6a47090	-4.900685e-06
21	0xb6a47195	-4.9008036e-06
22	0xb6a473ae	-4.9010478e-06
23	0xb6a47611	-4.9013256e-06
24	0x36f0f46c	7.181012e-06
25	0x36f10fe7	7.184211e-06
26	0x36f126fd	7.1868985e-06
27	0x36f13262	7.188225e-06
28	0x36f13aaa	7.189189e-06
29	0x36f13fd9	7.1897925e-06
30	0x36f1420d	7.190049e-06
31	0x36f14630	7.1905306e-06
32	0xb638c263	-2.7531285e-06
33	0xb638c4c5	-2.7532672e-06
34	0xb638c743	-2.7534122e-06
35	0xb638ca13	-2.753576e-06
36	0xb638cd62	-2.7537685e-06
37	0xb638d10b	-2.7539816e-06
38	0xb638d504	-2.7542128e-06
39	0xb638d8fd	-2.754444e-06
40	0x3da1b247	0.07895332
41	0x3da1b334	0.078955084
42	0x3da1b471	0.078957446
43	0x3da1b522	0.078958765
44	0x3da1b56f	0.07895934
45	0x3da1b58d	0.07895956
46	0x3da1b59f	0.078959696
47	0x3da1b59f	0.078959696
48	0xb6724b14	-3.6104511e-06
49	0xb6724647	-3.6101717e-06
50	0xb6723f94	-3.6097817e-06
51	0xb6723cd1	-3.609621e-06
52	0xb6723bf8	-3.6095716e-06
53	0xb6723bfe	-3.609573e-06
54	0xb6723c81	-3.6096028e-06
55	0xb6723d17	-3.609637e-06
56	0xb766b0d7	-1.3750242e-05
57	0xb766afec	-1.3750028e-05
58	0xb766ae98	-1.3749719e-05
59	0xb766adb1	-1.3749509e-05
60	0xb766ad44	-1.374941e-05
61	0xb766acee	-1.3749332e-05
62	0xb766ac98	-1.3749253e-05
63	0xb766ac4a	-1.37491825e-05

sparse_weighted_adjacency_matrices.spa_fusion.conv.0.bias f4 [8]
0	0xb6d3733d	-6.3017055e-06
1	0xba79daef	-0.000953122
2	0xb831b5b7	-4.2369324e-05
3	0xb869477c	-5.5618104e-05
4	0xb9939396	-0.00028147985
5	0x3e2c5ef2	0.16833094
6	0xbab1f755	-0.0013577739
7	0xb88b5ef3	-6.645722e-05
