checkpoints/sgcn/intersectionA/val_best.pth (torch_old, 133683 bytes, 81 tensors)

sparse_weighted_adjacency_matrices.spatial_attention.embedding.weight f4 [64, 2]
00000000: b596 0200 c452 0180 3e5a 0380 39a1 0080
00000010: 17ec 0000 7cef 0180 7bbc 0180 6da8 0100
00000020: f65b 0080 b0aa 0100 a7fd 0100 00e0 0080
00000030: 8458 0380 7a25 0100 dd22 0280 db12 0180
00000040: 0bba 0180 054a 0300 aa14 0000 8e3f 0080
00000050: 15ac 0000 4153 0080 2ec4 0180 9c83 0180
00000060: bea8 0280 2f53 0080 3f37 0280 fdd6 0000
00000070: 45ae 0200 3246 0000 29cd 0080 c28d 0280
00000080: e903 0180 cd91 0000 2acb 0180 4ba2 0200
00000090: 98a7 0080 66c3 0380 b4a6 0000 e79f 0100
000000a0: 65c5 0180 1621 0080 eedc 0100 16bd 0000
000000b0: ecf4 0200 5130 0080 4918 0200 960d 0300
000000c0: 5dce 0280 0e4b 0100 c729 0100 acbe 0180
000000d0: 819d 0180 c154 0000 5598 0180 f18b 0080
000000e0: 8c3a 0380 b099 0380 3451 0180 b8c8 0000
000000f0: b356 0180 f5a8 0100 e2df 0200 3ffe 0100
00000100: f189 0380 eb00 0000 03f8 0180 ff38 0000
00000110: edce 0000 f69a 0180 3f43 0080 e9fb 0100
00000120: ac98 0200 e1d3 0280 448e 0180 5efa 0300
00000130: 2eac 0300 d7b0 0100 25c9 0080 9748 0000
00000140: 6105 0200 8e6c 0000 b585 0400 8e2c 0000
00000150: 62b6 0100 ce0b 0200 d7b8 0180 eb68 0000
00000160: da9a 0200 78ad 0000 f8bd 0100 8b6a 0380
00000170: 19ec 0200 0eff 0080 8a40 0000 7bab 0200
00000180: fd15 0200 01e9 0280 26b1 0100 1ff0 0080
00000190: 4ade 0100 8964 0180 c561 0100 4f94 0180
000001a0: ec65 0000 8baf 0000 cd22 0200 d3c1 0180
000001b0: 41a9 0080 2401 0000 a626 0080 2816 0280
000001c0: d999 0400 f4ee 0180 777c 0180 71a7 0000
000001d0: be4c 0080 9769 0000 a2ae 0380 9748 0380
000001e0: 838b 0100 c52c 0280 9e7e 0100 b809 0180
000001f0: d38c 0100 52e8 0280 32ae 0200 f1b6 0280
2.37734e-40 -1.21526e-40 -3.07879e-40 -5.7836e-41 8.4693e-41 -1.77746e-40 -1.5945e-40 1.52255e-40
-3.299e-41 1.53067e-40 1.82829e-40 -8.0356e-41 -3.0726e-40 1.0528e-40 -1.96178e-40 -9.86e-41
-1.58575e-40 3.0206e-40 7.413e-42 -2.2799e-41 6.1731e-41 -2.9866e-41 -1.62212e-40 -1.39048e-40
-2.44204e-40 -2.984e-41 -2.0349e-40 7.7123e-41 2.46187e-40 2.5181e-41 -7.3598e-41 -2.34524e-40
-9.3238e-41 5.2303e-41 -1.64717e-40 2.41891e-40 -6.0121e-41 -3.45602e-40 5.9802e-41 1.49198e-40
-1.62647e-40 -1.1869e-41 1.7109e-40 6.7831e-41 2.71532e-40 -1.7333e-41 1.92383e-40 2.8038e-40
-2.577e-40 1.1876e-40 1.06822e-40 -1.60236e-40 -1.48337e-40 3.0404e-41 -1.46482e-40 -5.0202e-41
-2.96509e-40 -3.30639e-40 -1.20966e-40 7.2004e-41 -1.22937e-40 1.52446e-40 2.63985e-40 1.83042e-40
-3.2499e-40 3.3e-43 -1.80805e-40 2.0446e-41 7.4231e-41 -1.47425e-40 -2.4123e-41 1.82204e-40
2.3844e-40 -2.59679e-40 -1.42871e-40 3.65321e-40 3.37273e-40 1.55274e-40 -7.2157e-41 2.604e-41
1.856e-40 3.8942e-41 4.15307e-40 1.5983e-41 1.57262e-40 1.87906e-40 -1.58144e-40 3.7637e-41
2.39221e-40 6.2229e-41 1.59983e-40 -3.13727e-40 2.68367e-40 -9.1496e-41 2.3152e-41 2.45187e-40
1.91559e-40 -2.67257e-40 1.55384e-40 -8.6139e-41 1.71578e-40 -1.27901e-40 1.26909e-40 -1.45039e-40
3.6563e-41 6.2973e-41 1.96155e-40 -1.61367e-40 -6.0717e-41 4.09e-43 -1.3864e-41 -1.91619e-40
4.22532e-40 -1.77556e-40 -1.36485e-40 6.0067e-41 -2.753e-41 3.7878e-41 -3.38153e-40 -3.01547e-40
1.41883e-40 -1.99731e-40 1.37257e-40 -9.5322e-41 1.42354e-40 -2.67012e-40 2.4616e-40 -2.49298e-40

sparse_weighted_adjacency_matrices.spatial_attention.embedding.bias f4 [64]
00000000: 0714 0080 6815 0280 a12a 0100 8aa1 0080
00000010: 27df 0200 1e86 0100 ef19 0100 b9fc 0100
00000020: 2147 0000 f467 0080 245a 0080 b98f 0000
00000030: 0a7a 0000 f0e3 0300 d91c 0080 56c0 0200
00000040: 989a 0180 ddbb 0100 977d 0180 599b 0200
00000050: f400 0280 b2ef 0000 2fd6 0000 ae68 0200
00000060: b356 0100 985e 0000 f042 0280 c19e 0180
00000070: a4fc 0180 8574 0380 55d3 0280 ced6 0380
00000080: 4a90 0380 3b8f 0380 6951 0200 ef07 0400
00000090: aaa1 0380 70f3 0100 289f 0200 57f8 0280
000000a0: cf61 0180 c308 0300 1648 0000 536b 0080
000000b0: 8cfe 0080 0b8a 0180 dfb8 0100 c6c1 0000
000000c0: 508c 0380 25a6 0180 79a0 0200 24a3 0100
000000d0: cfe6 0280 39b1 0180 1de6 0000 e0a3 0100
000000e0: ae9c 0000 cec7 0200 c2e4 0380 a0e7 0080
000000f0: 510b 0180 48f8 0380 12a1 0280 d5f4 0100
-7.184e-42 -1.9135e-40 1.07128e-40 -5.7949e-41 2.63723e-40 1.39948e-40 1.01139e-40 1.82495e-40
2.5516e-41 -3.7291e-41 -3.2336e-41 5.1558e-41 4.378e-41 3.57275e-40 -1.0349e-41 2.52668e-40
-1.47293e-40 1.59228e-40 -1.36889e-40 2.39399e-40 -1.84013e-40 8.5986e-41 7.6835e-41 2.21223e-40
1.22937e-40 3.3934e-41 -2.07684e-40 -1.48786e-40 -1.82466e-40 -3.17306e-40 -2.59483e-40 -3.52564e-40
-3.27268e-40 -3.26888e-40 2.12875e-40 3.70188e-40 -3.335e-40 1.79164e-40 2.40765e-40 -2.72759e-40
-1.26923e-40 2.7865e-40 2.586e-41 -3.85e-41 -9.1314e-41 -1.41356e-40 1.58155e-40 6.9513e-41
-3.25841e-40 -1.51437e-40 2.41238e-40 1.5036e-40 -2.6647e-40 -1.55411e-40 8.2549e-41 1.50623e-40
5.6206e-41 2.55347e-40 -3.5757e-40 -8.3091e-41 -9.5895e-41 -3.64573e-40 -2.41452e-40 1.79665e-40

sparse_weighted_adjacency_matrices.spatial_attention.query.weight f4 [64, 64]
00000000: e632 0480 376a 0400 ce65 0380 0b8b 0080
00000010: 2a44 0280 4772 0300 f5d7 0480 4d19 0280
00000020: 293a 0480 8d06 0100 f8ea 0200 20c3 0380
00000030: baf7 0080 c5f8 0000 0661 0280 f4ae 0000
00000040: cb65 0480 ff98 0000 7c54 0180 853d 0000
00000050: a13e 0080 3b4c 0200 7f9d 0380 5b56 0280
00000060: eccf 0380 f7bd 0180 f53c 0000 5500 0000
00000070: 304d 0080 1bfe 0000 b4d5 0000 b05b 0180
00000080: 73c1 0100 5849 0100 ba2a 0000 d247 0180
00000090: b0bc 0180 0097 0200 20b9 0000 f7be 0100
000000a0: 0bb4 0080 11ec 0280 7ced 0180 2622 0180
000000b0: 88dd 0280 aa47 0480 c8ba 0380 4963 0200
000000c0: 6d33 0400 bee4 0200 e4d2 0180 1075 0480
000000d0: 5131 0200 3f6c 0200 e3e9 0280 ec71 0180
000000e0: 6cce 0100 2403 0180 31b6 0280 dc79 0180
000000f0: a74f 0180 ab92 0080 e907 0280 3687 0000
00000100: ca71 0080 2637 0280 e073 0280 c456 0000
00000110: 6f49 0100 0cb9 0380 10de 0000 cd8d 0380
00000120: 3e70 0380 f81b 0100 2cca 0180 54ea 0100
00000130: 7872 0200 8e80 0080 6a61 0180 724e 0080
00000140: d9f3 0380 b963 0180 dcc1 0300 cf0f 0080
00000150: b717 0400 cdc1 0200 7db5 0200 7260 0400
00000160: 5432 0400 fce1 0080 f036 0380 9115 0180
00000170: 4cb8 0180 2dea 0180 bcfc 0380 a805 0180
00000180: f73c 0480 7c1f 0000 eeb6 0200 56b8 0280
00000190: 544d 0080 db22 0080 7939 0480 e172 0180
000001a0: 5959 0080 d6f0 0080 74e0 0080 50a7 0280
000001b0: 26b3 0100 19f7 0300 676b 0180 2e14 0400
000001c0: 507e 0280 f35d 0080 25b6 0200 c92b 0080
000001d0: f2c0 0280 97f1 0200 a8e5 0380 dff8 0200
000001e0: 9df6 0280 eac1 0100 bbf6 0080 a528 0180
000001f0: 0218 0180 667c 0180 c271 0280 56cb 0280
00000200: 0bcb 0200 95ea 0400 081c 0380 d00e 0180
00000210: 9ca6 0000 1005 0180 c2d4 0000 3103 0180
00000220: 629f 0180 20bf 0000 e291 0180 ea2b 0400
00000230: b8d1 0100 c25f 0300 ad93 0180 0b75 0300
00000240: fda3 0180 64f1 0180 d4a2 0180 9967 0180
00000250: 318b 0300 2ab0 0100 a9fd 0080 a51d 0000
00000260: 3bb7 0080 16ae 0280 1474 0400 0f19 0180
00000270: a7b9 0280 0931 0280 7ded 0100 68cc 0100
00000280: 6eff 0180 95c0 0280 64ce 0080 26a7 0380
00000290: b3ec 0280 d17d 0100 2ab8 0200 5af3 0080
000002a0: 85e7 0200 6244 0280 e484 0080 a6f0 0200
000002b0: 3020 0000 b5be 0280 9060 0400 6f70 0000
000002c0: 1690 0100 07bf 0200 ab17 0180 f1a1 0180
000002d0: 645e 0300 ab92 0100 c17e 0180 5429 0080
000002e0: a957 0000 9f0a 0180 4c2c 0400 8fdd 0380
000002f0: 1bd0 0200 2a7b 0480 160e 0180 4512 0280
00000300: 05ce 0200 fcee 0380 d7c1 0100 a4d3 0200
00000310: 5e34 0180 a1b9 0180 b640 0580 7b85 0280
00000320: b5b2 0180 5601 0200 587e 0200 6399 0380
00000330: 2a33 0080 fbce 0100 88ce 0200 45f8 0000
00000340: 62af 0300 a6a7 0200 14d7 0280 bd0f 0480
00000350: e108 0280 eb2b 0000 30e6 0000 8de5 0180
00000360: 36bd 0480 4a0c 0180 0ff8 0080 b004 0200
00000370: 1f35 0380 be98 0080 8286 0280 094d 0080
00000380: 3cf6 0080 7b7c 0280 d080 0180 4ea8 0380
00000390: 85a2 0080 fd6c 0180 1cf2 0100 5ed1 0080
000003a0: f082 0200 d45d 0000 e497 0280 bfa5 0000
000003b0: ec4b 0080 6f71 0180 6718 0280 b12f 0080
000003c0: b278 0200 43bf 0080 d54a 0100 592a 0200
000003d0: 70b1 0280 39c6 0100 af5d 0080 751c 0100
000003e0: 7571 0480 8564 0180 bc23 0480 531d 0280
000003f0: 55c0 0280 14df 0180 6f5f 0400 c178 0100
-3.85601e-40 4.05445e-40 -3.12027e-40 -4.9879e-41 -2.08124e-40 3.16501e-40 -4.44813e-40 -1.92747e-40
-3.88206e-40 9.4185e-41 2.67962e-40 -3.45504e-40 -8.8868e-41 8.9242e-41 -2.18476e-40 6.2761e-41
-4.03858e-40 5.4885e-41 -1.22143e-40 2.2069e-41 -2.2467e-41 2.11017e-40 -3.32005e-40 -2.1465e-40
-3.50095e-40 -1.59982e-40 2.1867e-41 1.19e-43 -2.769e-41 9.1156e-41 7.6662e-41 -1.24727e-40
1.61232e-40 1.18146e-40 1.5327e-41 -1.176e-40 -1.59524e-40 2.3784e-40 6.641e-41 1.60341e-40
-6.4587e-41 -2.68356e-40 -1.77029e-40 -1.04086e-40 -2.63141e-40 -3.9305e-40 -3.42511e-40 2.19288e-40
3.8579e-40 2.65728e-40 -1.67489e-40 -4.09336e-40 2.01362e-40 2.22502e-40 -2.67574e-40 -1.32703e-40
1.65886e-40 -9.2962e-41 -2.49029e-40 -1.3555e-40 -1.2041e-40 -5.2615e-41 -1.86509e-40 4.8505e-41
-4.082e-41 -2.03455e-40 -2.25239e-40 3.1126e-41 1.18179e-40 -3.41889e-40 7.9661e-41 -3.26375e-40
-3.15771e-40 1.01869e-40 -1.64361e-40 1.75897e-40 2.24735e-40 -4.6117e-41 -1.26781e-40 -2.8141e-41
-3.62983e-40 -1.27609e-40 3.4505e-40 -5.671e-42 3.75849e-40 2.53194e-40 2.48777e-40 4.0194e-40
3.85396e-40 -8.1068e-41 -2.95214e-40 -9.9572e-41 -1.57949e-40 -1.75842e-40 -3.6617e-40 -9.3865e-41
-3.89212e-40 1.1294e-41 2.49294e-40 -2.49798e-40 -2.774e-41 -1.2504e-41 -3.87959e-40 -1.33046e-40
-3.2052e-41 -8.6396e-41 -8.0519e-41 -2.43691e-40 1.56102e-40 3.64148e-40 -1.30364e-40 3.74581e-40
-2.28983e-40 -3.3703e-41 2.49012e-40 -1.5707e-41 -2.52887e-40 2.70337e-40 -3.57892e-40 2.72949e-40
-2.72139e-40 1.61399e-40 -8.851e-41 -1.06416e-40 -1.00448e-40 -1.36461e-40 -2.2448e-40 -2.56614e-40
2.56509e-40 4.51494e-40 -2.85562e-40 -9.7149e-41 5.9768e-41 -9.3652e-41 7.6323e-41 -9.298e-41
-1.49011e-40 6.8563e-41 -1.44168e-40 3.83095e-40 1.67068e-40 3.09858e-40 -1.44812e-40 3.17494e-40
-1.50663e-40 -1.7843e-40 -1.50247e-40 -1.29e-40 3.25439e-40 1.55031e-40 -9.0996e-41 1.0634e-41
-6.5731e-41 -2.46121e-40 4.08983e-40 -1.00825e-40 -2.5027e-40 -2.01261e-40 1.7703e-40 1.65163e-40
-1.83466e-40 -2.52756e-40 -7.4039e-41 -3.35468e-40 -2.68583e-40 1.3697e-40 2.49737e-40 -8.7298e-41
2.66725e-40 -2.08202e-40 -4.7672e-41 2.7e-40 1.1547e-41 -2.52084e-40 4.01982e-40 4.0334e-41
1.43524e-40 2.52199e-40 -1.00326e-40 -1.49929e-40 3.09367e-40 1.4445e-40 -1.37306e-40 -1.4826e-41
3.1447e-41 -9.5646e-41 3.83233e-40 -3.54987e-40 2.58325e-40 -4.11525e-40 -9.6889e-41 -1.90225e-40
2.57577e-40 -3.61238e-40 1.61372e-40 2.59593e-40 -1.10621e-40 -1.58427e-40 -4.82391e-40 -2.31555e-40
-1.55943e-40 1.8415e-40 2.28995e-40 -3.30531e-40 -1.8354e-41 1.66086e-40 2.5776e-40 8.9062e-41
3.38422e-40 2.43812e-40 -2.60826e-40 -3.72988e-40 -1.86856e-40 1.5755e-41 8.2576e-41 -1.74183e-40
-4.35218e-40 -9.6244e-41 -8.8987e-41 1.85353e-40 -2.94563e-40 -5.4794e-41 -2.31923e-40 -2.7635e-41
-8.8332e-41 -2.28326e-40 -1.38045e-40 -3.35883e-40 -5.8301e-41 -1.30933e-40 1.78688e-40 -7.5107e-41
2.30643e-40 3.3659e-41 -2.38159e-40 5.9458e-41 -2.7236e-41 -1.32528e-40 -1.92425e-40 -1.7108e-41
2.26968e-40 -6.8612e-41 1.1868e-40 1.98862e-40 -2.47324e-40 1.62944e-40 -3.3607e-41 1.02044e-40
-4.08043e-40 -1.27895e-40 -3.80161e-40 -1.9419e-40 -2.52667e-40 -1.71861e-40 4.01577e-40 1.35154e-40

sparse_weighted_adjacency_matrices.spatial_attention.query.bias f4 [64]
00000000: 2a63 0180 ed19 0180 0177 0300 1ab7 0180
00000010: e69c 0000 d842 0000 ea87 0100 4fe9 0400
00000020: 0ecd 0200 eb26 0080 f532 0100 cd91 0080
00000030: a326 0180 a582 0100 b9f1 0200 38f4 0300
00000040: fd4d 0380 8bbf 0000 f8ef 0280 f653 0180
00000050: f30f 0180 ee33 0180 1a7b 0100 3753 0000
00000060: c863 0400 df75 0100 9b71 0100 1c67 0100
00000070: 50d2 0200 7c72 0400 bbcc 0280 24b1 0180
00000080: e51d 0080 3a14 0100 984d 0400 147f 0200
00000090: 37f4 0100 cddf 0080 f125 0000 aba1 0180
000000a0: a3a9 0100 2e81 0000 6379 0100 d97a 0300
000000b0: c46a 0080 7af0 0180 e74a 0100 164e 0180
000000c0: 8fd3 0300 2492 0080 7d8e 0280 03ff 0300
000000d0: 5e5a 0000 cd40 0100 c213 0280 e36d 0180
000000e0: f67c 0180 f441 0280 30e2 0180 fd8d 0200
000000f0: 489c 0200 b8ec 0280 f3ff 0080 b97c 0080
-1.27409e-40 -1.01136e-40 3.18197e-40 -1.5752e-40 5.6285e-41 2.3979e-41 1.40592e-40 4.51037e-40
2.57231e-40 -1.3961e-41 1.10115e-40 -5.2303e-41 -1.05696e-40 1.38702e-40 2.70385e-40 3.63116e-40
-3.03483e-40 6.8713e-41 -2.69756e-40 -1.21955e-40 -9.7557e-41 -1.10464e-40 1.35996e-40 2.9852e-41
4.03137e-40 1.3412e-40 1.3259e-40 1.28824e-40 2.59117e-40 4.08411e-40 -2.57114e-40 -1.55382e-40
-1.0724e-41 9.9091e-41 3.95177e-40 2.29258e-40 1.79443e-40 -8.0285e-41 1.3611e-41 -1.49831e-40
1.5269e-40 4.6341e-41 1.35381e-40 3.19576e-40 -3.83e-41 -1.78102e-40 1.18705e-40 -1.19847e-40
3.514e-40 -5.2425e-41 -2.34786e-40 3.66987e-40 3.2418e-41 1.15082e-40 -1.90759e-40 -1.31255e-40
-1.36663e-40 -2.0733e-40 -1.72976e-40 2.34607e-40 2.39734e-40 -2.6859e-40 -9.1817e-41 -4.4742e-41

sparse_weighted_adjacency_matrices.spatial_attention.key.weight f4 [64, 64]
00000000: e9a5 0100 0249 0480 7c9c 0200 e77f 0300
00000010: 480e 0000 7905 0180 b68c 0080 7c82 0100
00000020: 374b 0200 b3bd 0380 2c69 0080 13f0 0000
00000030: dd23 0280 2bc1 0000 7849 0480 b9b8 0080
00000040: b937 0100 5012 0080 9881 0100 174c 0280
00000050: f0ed 0100 7940 0180 99ed 0300 bfed 0200
00000060: 0795 0100 6bd6 0080 1ddb 0000 024b 0180
00000070: 5272 0180 ee60 0000 0272 0400 1ae6 0080
00000080: 8fe5 0280 cf6f 0280 5774 0400 853d 0380
00000090: 5a1c 0000 de5b 0000 4677 0300 8548 0100
000000a0: f333 0100 f20e 0100 b62e 0300 40d1 0080
000000b0: be25 0280 4637 0080 2561 0280 c23a 0180
000000c0: b350 0080 2cb9 0380 bbbf 0180 e8fb 0000
000000d0: 1d20 0180 685a 0280 2c57 0280 879e 0180
000000e0: 5d7e 0180 b983 0100 537a 0280 b204 0480
000000f0: 9c45 0380 ff7d 0380 e4a5 0180 93a2 0180
00000100: 08c3 0100 0bc9 0180 c86f 0280 b73b 0300
00000110: 957a 0380 7ae1 0380 8e4b 0280 2cdc 0000
00000120: 2585 0000 340a 0200 0a5e 0180 ed66 0100
00000130: 75a7 0100 068c 0080 7e0a 0180 61dd 0280
00000140: a6ac 0200 943c 0380 f63c 0000 e841 0180
00000150: ec26 0180 da7c 0200 f68c 0280 0ef2 0080
00000160: 2d7a 0280 ef59 0400 b9fa 0000 16a1 0200
00000170: 198a 0300 c32b 0180 d754 0180 9c0b 0200
00000180: 2062 0280 c53c 0180 9c9d 0280 29d5 0200
00000190: 64eb 0280 b211 0180 5827 0200 548d 0380
000001a0: e71c 0000 d9dd 0380 d6eb 0200 e6d3 0100
000001b0: aecf 0080 6e3c 0100 0193 0000 7e5e 0080
000001c0: a49b 0280 890f 0080 d4fb 0280 eca0 0100
000001d0: 5514 0200 c16b 0100 eaf5 0100 60c4 0080
000001e0: 0d9c 0200 d8dc 0280 09a3 0380 1fd0 0000
000001f0: 621f 0080 dae1 0280 49b4 0480 e0f8 0000
00000200: 89d1 0280 1ab4 0180 170e 0200 011a 0080
00000210: 65cd 0080 2f63 0080 575e 0100 101c 0200
00000220: c356 0180 7c30 0380 014c 0280 8f4d 0000
00000230: 21cd 0100 08ed 0100 7546 0000 2e06 0400
00000240: d06e 0200 ed50 0280 c7b3 0000 c5c9 0100
00000250: 3fe2 0080 ae9d 0180 fd4b 0200 4040 0080
00000260: c900 0100 9af6 0380 6cb8 0180 e105 0100
00000270: 853c 0400 9017 0280 c793 0180 1421 0100
00000280: 656c 0100 b52b 0180 6103 0480 4d15 0200
00000290: 4a10 0280 bddf 0280 556f 0400 e207 0200
000002a0: 3fb3 0180 582b 0280 021f 0080 398d 0080
000002b0: 7f27 0080 2650 0100 5fd1 0300 20e0 0000
000002c0: 764b 0380 ff0c 0400 4194 0100 b320 0100
000002d0: d562 0180 18df 0180 cc72 0000 2e7a 0280
000002e0: 6855 0180 9c48 0380 ecf2 0000 b641 0400
000002f0: 8f2e 0380 c218 0280 92c5 0180 e361 0400
00000300: 2d96 0000 2a1e 0000 1c2c 0000 7131 0280
00000310: 3c2a 0180 d92c 0180 03cb 0300 ad8a 0280
00000320: c01e 0080 ec00 0280 de29 0380 7817 0000
00000330: c776 0280 c7f2 0300 0b67 0180 5d89 0000
00000340: 44e8 0380 e11d 0280 3c31 0180 30ec 0200
00000350: 0e3b 0100 006e 0100 4ff6 0380 921d 0080
00000360: 5b27 0080 91f1 0100 2037 0100 a63e 0100
00000370: c1b0 0200 7b7b 0200 108e 0180 b681 0100
00000380: c1ff 0300 4671 0100 322a 0380 088c 0180
00000390: 3c88 0080 c6f6 0380 dc3f 0100 c9c2 0100
000003a0: 8947 0300 b0a6 0280 92c6 0100 0038 0100
000003b0: a96f 0080 c767 0380 cb9a 0000 fe4d 0100
000003c0: 7bac 0080 9190 0080 0c4b 0100 9b64 0380
000003d0: b247 0000 713a 0380 9e4e 0080 a92a 0000
000003e0: 4a9e 0080 4e09 0280 324b 0100 ac51 0080
000003f0: 62ac 0100 80d3 0000 0c6e 0100 ccde 0000
1.51353e-40 -3.93532e-40 2.39807e-40 3.21389e-40 5.123e-42 -9.3799e-41 -5.0478e-41 1.38644e-40
2.10653e-40 -3.43558e-40 -3.7729e-41 8.6122e-41 -1.96536e-40 6.9296e-41 -3.93698e-40 -6.6266e-41
1.11825e-40 -6.569e-42 1.38325e-40 -2.10967e-40 1.77191e-40 -1.14964e-40 3.6074e-40 2.68958e-40
1.45296e-40 -7.6919e-41 7.8603e-41 -1.18743e-40 -1.32846e-40 3.4772e-41 4.0824e-40 -8.2545e-41
-2.66021e-40 -2.2378e-40 4.09077e-40 -2.97576e-40 1.017e-41 3.2956e-41 3.18294e-40 1.1785e-40
1.10471e-40 9.7197e-41 2.92263e-40 -7.5065e-41 -1.9721e-40 -1.9828e-41 -2.1852e-40 -1.12914e-40
-2.895e-41 -3.41934e-40 -1.60615e-40 9.0367e-41 -1.03356e-40 -2.16103e-40 -2.14942e-40 -1.48704e-40
-1.37166e-40 1.39089e-40 -2.27553e-40 -3.69026e-40 -3.00478e-40 -3.20705e-40 -1.51346e-40 -1.50156e-40
1.618e-40 -1.63956e-40 -2.2377e-40 2.96928e-40 -3.1948e-40 -3.56392e-40 -2.10775e-40 7.8983e-41
4.7763e-41 1.87331e-40 -1.2557e-40 1.28758e-40 1.51908e-40 -5.0231e-41 -9.56e-41 -2.63087e-40
2.45606e-40 -2.97238e-40 2.1869e-41 -1.15478e-40 -1.05798e-40 2.28459e-40 -2.34238e-40 -8.6833e-41
-2.275e-40 3.99604e-40 8.9942e-41 2.41458e-40 3.25047e-40 -1.07534e-40 -1.2227e-40 1.87836e-40
-2.18872e-40 -1.13635e-40 -2.4021e-40 2.60138e-40 -2.68113e-40 -9.8183e-41 1.97785e-40 -3.26205e-40
1.0368e-41 -3.5509e-40 2.68273e-40 1.6785e-40 -7.4501e-41 1.13514e-40 5.2735e-41 -3.3897e-41
-2.39504e-40 -5.573e-42 -2.7401e-40 1.49563e-40 1.90965e-40 1.3049e-40 1.80053e-40 -7.0446e-41
2.39651e-40 -2.62895e-40 -3.33992e-40 7.466e-41 -1.1258e-41 -2.64691e-40 -4.32016e-40 8.928e-41
-2.58838e-40 -1.56444e-40 1.88725e-40 -9.328e-42 -7.3682e-41 -3.558e-41 1.25678e-40 1.93738e-40
-1.2296e-40 -2.929e-40 -2.10936e-40 2.7823e-41 1.65422e-40 1.76866e-40 2.5275e-41 3.69559e-40
2.23423e-40 -2.12702e-40 6.4492e-41 1.64217e-40 -8.1162e-41 -1.484e-40 2.1093e-40 -2.3049e-41
9.2117e-41 -3.6397e-40 -1.57994e-40 9.3944e-41 3.89052e-40 -1.92124e-40 -1.44848e-40 1.03702e-40
1.3072e-40 -1.07515e-40 -3.68554e-40 1.91312e-40 -1.89514e-40 -2.63933e-40 4.0728e-40 1.86499e-40
-1.56137e-40 -1.9922e-40 -1.1124e-41 -5.0661e-41 -1.4169e-41 1.20587e-40 3.50615e-40 8.0401e-41
-3.02577e-40 3.72004e-40 1.45019e-40 1.03566e-40 -1.2729e-40 -1.71866e-40 4.1181e-41 -2.27501e-40
-1.22473e-40 -3.01554e-40 8.7144e-41 3.90915e-40 -2.92209e-40 -1.92552e-40 -1.6271e-40 4.02457e-40
5.3873e-41 1.0821e-41 1.5823e-41 -2.01407e-40 -1.06986e-40 -1.07924e-40 3.48333e-40 -2.33418e-40
-1.1031e-41 -1.84002e-40 -2.90526e-40 8.419e-42 -2.2628e-40 3.62599e-40 -1.288e-40 4.9277e-41
-3.58828e-40 -1.9439e-40 -1.09497e-40 2.68399e-40 1.1302e-40 1.31296e-40 -3.63865e-40 -1.0608e-41
-1.4118e-41 1.78493e-40 1.1161e-40 1.1431e-40 2.47078e-40 2.27967e-40 -1.42798e-40 1.38367e-40
3.67254e-40 1.3247e-40 -2.90643e-40 -1.42069e-40 -4.8872e-41 -3.64032e-40 1.14744e-40 1.61711e-40
3.01168e-40 -2.43467e-40 1.63069e-40 1.11925e-40 -4.0056e-41 -3.12735e-40 5.5529e-41 1.19814e-40
-6.1874e-41 -5.186e-41 1.18757e-40 -3.11597e-40 2.572e-41 -2.96471e-40 -2.8203e-41 1.5304e-41
-5.6783e-41 -1.87009e-40 1.1881e-40 -2.9298e-41 1.53675e-40 7.5872e-41 1.31313e-40 7.9924e-41

sparse_weighted_adjacency_matrices.spatial_attention.key.bias f4 [64]
00000000: 831c 0280 0269 0180 76fa 0000 48a5 0380
00000010: 8b44 0080 a732 0380 407d 0280 d187 0180
00000020: f318 0280 a9e5 0280 1093 0280 a2a8 0180
00000030: 2217 0480 9ca8 0000 8ce6 0380 8d5f 0080
00000040: 86bb 0080 8722 0400 e00a 0100 2db0 0280
00000050: b0ce 0180 4447 0100 9e87 0380 4db1 0200
00000060: c2b1 0380 43b4 0100 dce5 0000 21b6 0200
00000070: 6c0b 0080 2530 0480 03f7 0280 c41b 0180
00000080: 0303 0280 db3b 0180 4b88 0000 c569 0280
00000090: 76e6 0100 8337 0100 a331 0100 6687 0000
000000a0: bbc1 0000 745c 0100 bd4c 0180 485d 0180
000000b0: e28b 0200 554c 0480 ab99 0380 e2e5 0380
000000c0: 0660 0180 e028 0380 b0e3 0300 d0cd 0380
000000d0: 9027 0100 055b 0080 e821 0080 f87b 0200
000000e0: 0f08 0100 c69b 0400 0510 0280 442a 0280
000000f0: 8cf8 0080 1e03 0280 f901 0480 2c75 0100
-1.93899e-40 -1.29505e-40 8.9848e-41 -3.34798e-40 -2.4589e-41 -2.93677e-40 -2.28602e-40 -1.40557e-40
-1.92621e-40 -2.66058e-40 -2.36427e-40 -1.5233e-40 -3.7564e-40 6.0486e-41 -3.58211e-40 -3.4277e-41
-6.7271e-41 3.79728e-40 9.5737e-41 -2.46871e-40 -1.65981e-40 1.17401e-40 -3.24157e-40 2.47275e-40
-3.39274e-40 1.56501e-40 8.2458e-41 2.49007e-40 -4.097e-42 -3.84613e-40 -2.72282e-40 -1.01796e-40
-1.84751e-40 -1.13308e-40 4.8893e-41 -2.21614e-40 1.7451e-40 1.1175e-40 1.09642e-40 4.8572e-41
6.9497e-41 1.25001e-40 -1.19364e-40 -1.25299e-40 2.33851e-40 -3.94725e-40 -3.30632e-40 -3.57973e-40
-1.26282e-40 -2.9017e-40 3.57185e-40 -3.49338e-40 1.06028e-40 -3.2652e-41 -1.2163e-41 2.28143e-40
9.4726e-41 4.23223e-40 -1.89418e-40 -1.98833e-40 -8.9162e-41 -1.84789e-40 -3.6805e-40 1.33869e-40

sparse_weighted_adjacency_matrices.temporal_attention.embedding.weight f4 [64, 3]
00000000: 2793 1a3d f8ad 943d 05a3 623d 9cd2 ecbd
00000010: 05f8 97ba fab9 88b9 f78c a33c 2bbe 36bd
00000020: b371 1dbd 7261 c7b9 fb07 743b 8d6a aebb
00000030: 8e1c 03be a9a2 47be c566 08be a1f6 fa3d
00000040: 11fe 8abb 9ce0 83bb c181 c8be 417a 92bd
00000050: 9e6f 50bd 2bf5 853e c469 c0bd d5b0 8dbd
00000060: d8e6 c9be 7685 2c3e 948f e83d 83cd 53be
00000070: 84c7 05bc 3de8 86bb 5efe e43c 53b1 9c3d
00000080: dec9 733d 57df 2c3e 0b1d 0ebe 461b c8bd
00000090: 9f5d 1b3e 7dd6 ecbd 7b1e abbd 698d 38be
000000a0: 8e18 40bd bfab fcbc 223a 21bc 6225 8d3b
000000b0: e579 90bb c74c 8dbb dda3 5f3c 06e4 87ba
000000c0: a97b 913e 4701 0ebe 83cb c5bd 2653 3dbe
000000d0: 2934 db3d 1e8b 9f3d 47c9 27be a474 113d
000000e0: d215 fd3c 1a60 98bd c8df d3bd 05e1 97bd
000000f0: 8125 d63d 4328 fcbc 9567 e4bc bfe8 e7bb
00000100: ed32 1abc ccc9 8bbb 2e21 45be 1994 503e
00000110: 748a 0c3e 71d5 af3e b9c6 ad3e d2ca 653e
00000120: ec25 d83e a2ef 88bd 5242 51bd fd84 01be
00000130: ed74 8cbc ff23 25bc 0088 7d3e 9934 d8bd
00000140: d194 9cbd fcd4 c43c 3521 1abd b924 08bd
00000150: 953b 76bd 6508 3fbc 98f7 b9bb 45d6 4dbc
00000160: 4346 713c 13b1 5f3c 7e1a b2be 0c72 69be
00000170: b58c 1ebe 2f20 9a3e cdc2 53be b4ef 0cbe
00000180: 5987 afbd 9f57 5ebc f0fc e4bb 2e6a 0c3e
00000190: 2f79 d6bc b501 c4bc 73bd a6bd 9fd1 c63d
000001a0: 60c8 943d c4fb f13d d9b4 7fba e34b 96ba
000001b0: f8b2 7f3e ce3d 65be 1551 18be 2299 b0bd
000001c0: 1244 6dbc 866d dcbb f911 45be b524 31bd
000001d0: 5b5b e6bc db4f b73d 4b99 dbbd 8ea7 a1bd
000001e0: 8488 e7bd 1f5d a9bc 07a5 5ebc a888 00bd
000001f0: 476d e5bb fb27 3abb 5203 6fbe 990e 8d3b
00000200: 613a 6e3b c1e4 d93b b085 4d3c aa43 ea3b
00000210: 5667 b03e 4eb4 87be dab4 30be 044d 5dbe
00000220: 20df a73d c1b6 7d3d 152d cbbe b19e 8a3e
00000230: a8db 333e 5886 673c fe0d 97bb bbd7 6a3b
00000240: 5c24 a23e a9d4 2a3b 7c00 e439 8ccc fabd
00000250: bde1 8fbc fffe 17bc e2fb aa3c cfe7 8bbd
00000260: 91c3 60bd 1697 823e 7827 b83d 584a 813d
00000270: bf1c c1be 95ca b9bd 9e09 84bd 0c65 ad3d
00000280: 83e4 6ebd 2de7 42bd 2094 2c3e afcf 57bc
00000290: 7367 44bc bff3 f43d 489a 613d a175 183d
000002a0: 347c 49bd 4254 f2bd be77 b0bd ada6 0d3d
000002b0: 8bb8 bd3b 306e 413b 9093 363c 64d1 01bc
000002c0: 49cb 1b39 463c c03e 01ff 1f3e 4669 df3d
000002d0: 6d38 003c c0fe fbbd 8616 b8bd 26c6 9c3e
000002e0: a116 92bd 7793 5fbd 4198 a93e b95b 97bc
000002f0: 9b0a 71bc 0ce5 b4be 4cd4 8cbd a0ec 46bd
0.03773799 0.072597444 0.05533125 -0.11563608 -0.0011594301 -0.00026078505 0.019964678 -0.044614952
-0.03843851 -0.0003802884 0.0037236202 -0.0053227604 -0.12803861 -0.19495644 -0.13320453 0.12254072
-0.004241713 -0.0040245783 -0.39161494 -0.07152224 -0.050887696 0.2616361 -0.09395173 -0.06918494
-0.39433932 0.16847786 0.1135551 -0.20683865 -0.008165244 -0.0041170404 0.027953323 0.076510094
0.059518687 0.16882072 -0.13878267 -0.09770827 0.15172432 -0.11564348 -0.08355423 -0.18022694
-0.046898417 -0.030843614 -0.00984052 0.004307435 -0.004409062 -0.004312131 0.013649908 -0.0010367639
0.28414658 -0.13867675 -0.096579574 -0.1848875 0.10703308 0.077902064 -0.16385375 0.035511628
0.030894194 -0.07440205 -0.10345417 -0.07415966 0.10456372 -0.030780917 -0.027881423 -0.007077306
-0.009411556 -0.0042659994 -0.19250938 0.20368995 0.1372469 0.3434253 0.33940676 0.22440651
0.42216432 -0.06686331 -0.05108864 -0.12648387 -0.017145598 -0.010079383 0.24758911 -0.10556907
-0.07645572 0.02402734 -0.037629325 -0.033238146 -0.060115416 -0.011659716 -0.0056752674 -0.012563293
0.014726224 0.013653058 -0.34785837 -0.22797412 -0.15483363 0.3010268 -0.2067978 -0.13763314
-0.085707374 -0.013570695 -0.0069881603 0.1371238 -0.026180832 -0.023926595 -0.08141603 0.09707951
0.07264781 0.118155986 -0.00097544264 -0.0011466708 0.24970615 -0.22386858 -0.1487468 -0.08622958
-0.014481561 -0.0067269234 -0.19245137 -0.043247897 -0.028119734 0.08950778 -0.10722598 -0.07893287
-0.11305335 -0.020674286 -0.01358915 -0.031380326 -0.0070015523 -0.0028405178 -0.2334111 0.0043047187
0.0036350715 0.006649584 0.012544081 0.0071491795 0.3445384 -0.2650475 -0.1725649 -0.2161141
0.081968546 0.061941866 -0.39682832 0.27074197 0.17564261 0.014131151 -0.0046098223 0.0035834152
0.31668365 0.0026066697 0.0004348791 -0.122460455 -0.017563695 -0.009277104 0.02087206 -0.06831323
-0.054874007 0.25505894 0.08991903 0.06313008 -0.37717244 -0.090718426 -0.06447147 0.08466539
-0.058323395 -0.047583748 0.1685338 -0.013172074 -0.011987555 0.119605534 0.055078775 0.037221555
-0.049190715 -0.11832477 -0.08616589 0.034582783 0.0057898215 0.002951514 0.01114358 -0.007923458
0.00014857682 0.37545985 0.1562462 0.10908751 0.007825953 -0.12304449 -0.08988671 0.30619925
-0.07133222 -0.054583993 0.33123973 -0.018476354 -0.014712001 -0.35331 -0.0687643 -0.048565507

sparse_weighted_adjacency_matrices.temporal_attention.embedding.bias f4 [64]
00000000: a2d0 ebbb c300 35bc b1d8 1c3c ce9d 97bb
00000010: 4fc4 863c 4032 593c 5394 0ebd 284f 4d3d
00000020: b0cd a3bd c915 a1bc 172b 0fbc 2f17 3a3d
00000030: d322 213d 6a88 46bc ffb7 56bb ff7f 84bb
00000040: 19d8 783d 3f7b 2dbd d865 d4bc 24d1 083c
00000050: 8270 903c 36bf 3a3a 587c 72bd 598b 6abc
00000060: 0d13 843d bf0a d3bb 966c 4e3d cee7 103c
00000070: 13f2 3bbb 14ac 6cbb bb64 aebb 1fe3 973d
00000080: e9cf 7fbb 2adc a73c 474b dbbc 3e15 433c
00000090: 989a 8f3d 2d48 bfbb 614f 65bc 0707 f23c
000000a0: f559 8cbb b692 0dbb acde d2bc cbee 96ba
000000b0: 7b02 b73d 3f62 2cbd bbb0 c6bd 0764 293b
000000c0: 31fa 0b3d 93f7 c9bb 501e 623c 556f 7e3c
000000d0: 370b f9bc 205b a83c 5f65 aa3c 3034 803b
000000e0: 15fa 503c c1dc 043b 0b23 e43a d41d a83c
000000f0: 6966 ad3c a345 523d d1f3 293d a2a6 f9bc
-0.007196502 -0.011047545 0.009573148 -0.004626966 0.01645103 0.013256609 -0.03480942 0.050124317
-0.07998216 -0.019663708 -0.008738301 0.045432266 0.03933985 -0.012117485 -0.0032763479 -0.0040435786
0.06075296 -0.042353865 -0.02592747 0.008350644 0.017631773 0.00071238296 -0.059200615 -0.01431545
0.06448946 -0.00644049 0.050396524 0.008844329 -0.0028678223 -0.0036113309 -0.0053220666 0.07416367
-0.0039033836 0.020490725 -0.026769293 0.01190692 0.07011908 -0.0058374614 -0.013995976 0.029544367
-0.0042831847 -0.002160234 -0.025740944 -0.0011515258 0.0893602 -0.042085882 -0.097016774 0.0025846974
0.034174148 -0.0061635463 0.013801172 0.015529473 -0.030400855 0.020551264 0.02080029 0.0039124712
0.012754937 0.002027318 0.0017405463 0.020522036 0.021166997 0.051335942 0.041492287 -0.030474965

sparse_weighted_adjacency_matrices.temporal_attention.query.weight f4 [64, 64]
00000000: 91e2 2dad 56fd 9aad b024 422d b075 5d2b
00000010: 0113 f32c fdf4 a22d 02c3 acae 2555 612e
00000020: ce7e deae 2be2 13ae 1e07 5fad 049f 262e
00000030: 8560 162e 36b6 a0ad 7ca9 a12c 1e73 d7aa
00000040: e068 8e2e 3165 36ae 1c14 cead 07ef 232d
00000050: 9370 f22d 397e 212b 2160 84ae aa96 042e
00000060: 89c0 e32e b70b b62d b74f 612e 815f 392d
00000070: 9daf 1c2d 1435 9cac 116d 3eae 9f5a b62e
00000080: 018f e42d 5dcb c32d 5910 10ae a3a3 972d
00000090: 247c 922e 8a89 ee2c acc3 dbad f665 222e
000000a0: 36c4 8a2d 6c31 3e2d 317e 1dae b1ad 73ac
000000b0: 74d4 dc2e 6c03 55ae 3e24 f7ae c503 17ac
000000c0: 4ac2 7e2e 6676 bc2d f542 872d db93 d32d
000000d0: acf4 9aae 6852 f52d 028c d02d f34d 772d
000000e0: 75fa ff2c 9f6e 5cad b43c 232b b344 8b2e
000000f0: d929 dc2d 65a8 8b2e 7d3a 902e aa4d 8bae
00000100: 652e ac95 3f07 8297 64b4 f116 8511 df14
00000110: d279 ba96 f60e 8e17 026e 9098 43bc 5418
00000120: 0034 a298 57f0 1598 8d38 5196 98c6 0818
00000130: 0fb6 e317 870a dc97 b02e 9815 1b06 7593
00000140: df2d 6918 c257 1398 5569 db97 7473 6816
00000150: d8b5 6317 fb20 7a94 a478 3198 3fbb 5718
00000160: f0c2 a618 5648 6717 e8b6 4c18 48c2 c416
00000170: 3507 3597 aadc 7596 b212 6998 d1e2 7c18
00000180: edaf 7715 3837 aa17 146f 4697 4a9c 8617
00000190: 8c96 5c18 d9b6 6a17 8ecf fa97 8158 7117
000001a0: f3ac 5e17 232b 2715 609d 3098 160c 4792
000001b0: 7ace 9318 9436 2f98 84f5 a998 6b2f af95
000001c0: e6a6 6c18 8346 5a17 b0ff 0917 dc9d 3318
000001d0: bb14 8998 85c3 2117 3a68 e017 f57b 3b17
000001e0: 0212 cd16 9aeb 1e16 f8fa c195 a828 8418
000001f0: bf6c 2b17 6112 7018 6ada 7a18 d3a6 8098
00000200: 1d53 743b 05a7 4dbc 6b5c 3b3b bf1f 51b9
00000210: e08c 4abc e526 5b3c a527 2abd ab9b ed3c
00000220: 42f9 33bd 77fd b4bc d875 203b 561c a03c
00000230: b6e4 8f3c 6f1c 9bbc bb73 84ba 2bc4 17ba
00000240: 3004 023d 90f5 abbc 20bb 94bc 3b92 f5bb
00000250: 4ca6 413c fd5f 3eba 3a91 b8bc c56d 0a3d
00000260: 279d 3d3d 496b 6ebc a417 e23c 32f1 533b
00000270: a8c1 ddbb 2974 dbba 6d5c 10bd e581 0b3d
00000280: 5cfb 1fbc 497e 793c 6b22 22bc 629f 523c
00000290: 2d2f eb3c 4907 22bc c0e1 a5bc fcc4 313c
000002a0: 71b5 53bc 0338 62bb cdab cdbc a3df 1d3a
000002b0: 8b97 203d 154e c5bc 3939 38bd d106 bb3a
000002c0: 4754 0b3d 8ff9 66bc 263c 503b 85a5 d83c
000002d0: 5cbc 22bd fcdd 223c 977a 963c 727d 4d3c
000002e0: 7847 99bb b889 7d3b e74c 853a c567 1f3d
000002f0: 6996 0d3b d0ab 093d 9bec 123d 75e2 18bd
00000300: 0217 84b2 8434 e4b2 8d3a 5732 7f0e cf30
00000310: a7ed bc32 5cda fc32 3d88 e3b3 3e34 a533
00000320: 61f4 20b4 a31f 28b3 2777 beb2 27f6 a033
00000330: 5d4c 9033 6c86 d2b2 7e26 b731 9e03 3f30
00000340: 4c54 cb33 1eb1 91b3 76cc 42b3 52e4 0132
00000350: 6064 1933 65c4 0531 891a c9b3 34dc 0b33
00000360: b41c 1e34 2b8b 9533 4a50 a233 f899 3c32
00000370: d330 1232 c6f1 8eb1 33fc 62b3 5609 fa33
00000380: 18de 5a33 30b1 2933 b59b 4eb3 d0cd ec32
00000390: e6f8 df33 d937 5133 495a ecb2 08ed 6333
000003a0: 88d2 8f33 af1e 4f32 15ab 52b3 4cc7 9db1
000003b0: 9b92 1e34 01c6 89b3 649b 38b4 c5e4 d4b1
000003c0: eec6 ad33 fe7b 9333 b970 a432 2d61 1333
000003d0: cc48 c9b3 15c7 2833 1224 2533 3003 7f32
000003e0: 82f1 a632 5f02 cfb1 ed38 7db1 8302 ae33
000003f0: e4ab 1233 5de4 c033 8fdb c333 cb1c b6b3
-9.884219e-12 -1.7620277e-11 1.10357695e-11 7.8678297e-13 6.9085852e-12 1.8526064e-11 -7.856295e-11 5.12347e-11
-1.0117916e-10 -3.3624808e-11 -1.2677663e-11 3.7885264e-11 3.4191778e-11 -1.8270812e-11 4.5947118e-12 -3.827155e-13
6.476042e-11 -4.1471885e-11 -2.3428419e-11 9.318552e-12 2.7562208e-11 5.737386e-13 -6.019741e-11 3.014714e-11
1.0356966e-10 2.0696207e-11 5.1229878e-11 1.0537239e-11 8.906567e-12 -4.4396795e-12 -4.329787e-11 8.292499e-11
2.5984105e-11 2.2259245e-11 -3.275633e-11 1.7239382e-11 6.661363e-11 6.7796367e-12 -2.4984313e-11 3.6925095e-11
1.5775919e-11 1.08112234e-11 -3.5809748e-11 -3.4628795e-12 1.0042181e-10 -4.8433632e-11 -1.12386975e-10 -2.1460483e-12
5.7925477e-11 2.1425705e-11 1.5377458e-11 2.4053584e-11 -7.046572e-11 2.7889871e-11 2.3709038e-11 1.4057633e-11
7.2753422e-12 -1.2530115e-11 5.7993475e-13 6.3331916e-11 2.5029688e-11 6.350901e-11 6.5587515e-11 -6.334784e-11
-6.9543444e-26 -8.402882e-25 3.9049492e-25 2.2524156e-26 -3.01268e-25 9.180312e-25 -3.7334207e-24 2.7495406e-24
-4.1928525e-24 -1.937914e-24 -1.690073e-25 1.7677852e-24 1.4715489e-24 -1.4219824e-24 6.146597e-26 -3.0926358e-27
3.0137703e-24 -1.9043611e-24 -1.4179133e-24 1.8777241e-25 7.3577175e-25 -1.2628279e-26 -2.2937622e-24 2.7882634e-24
4.310683e-24 7.4731426e-25 2.6458726e-24 3.1788117e-25 -5.849335e-25 -1.9860572e-25 -3.0123983e-24 3.268475e-24
5.0020034e-26 1.0999932e-24 -6.411745e-25 8.699e-25 2.851034e-24 7.5840264e-25 -1.6208266e-24 7.7983007e-25
7.195036e-25 3.375941e-26 -2.282692e-24 -6.2808225e-28 3.8207097e-24 -2.2645775e-24 -4.3933384e-24 -7.075675e-26
3.0586547e-24 7.0528597e-25 4.458981e-25 2.3214906e-24 -3.5434602e-24 5.2268686e-25 1.4501971e-24 6.0579415e-25
3.31309e-25 1.2837481e-25 -7.834804e-26 3.4162253e-24 5.5390337e-25 3.1028552e-24 3.2422014e-24 -3.3255674e-24
0.0037280985 -0.012552028 0.002858902 -0.0001994362 -0.012362689 0.013375972 -0.041541714 0.029004892
-0.043938883 -0.022093518 0.0024484303 0.019544762 0.017565113 -0.018934457 -0.0010105291 -0.0005789424
0.031742275 -0.020991117 -0.018155634 -0.0074942387 0.011819433 -0.0007262228 -0.022530187 0.03379609
0.04629245 -0.014551946 0.027599163 0.0032339809 -0.0067674704 -0.0016742992 -0.035244394 0.034059424
-0.009764519 0.015227863 -0.009895901 0.012855383 0.028709019 -0.009889432 -0.020249248 0.010850187
-0.012921677 -0.003451825 -0.025106335 0.0006022399 0.039207023 -0.024085084 -0.044976447 0.0014268999
0.03401592 -0.014097585 0.0031774133 0.026446113 -0.039730415 0.0099406205 0.018369002 0.0125421155
-0.004677709 0.0038686823 0.0010170013 0.03891732 0.0021604544 0.03361112 0.035870176 -0.03732534
-1.5377285e-08 -2.6566575e-08 1.252796e-08 1.5065352e-09 2.1994152e-08 2.943596e-08 -1.0595293e-07 7.692914e-08
-1.4990066e-07 -3.914432e-08 -2.2173095e-08 7.4953554e-08 6.719413e-08 -2.4508346e-08 5.330377e-09 6.9490536e-10
9.4682576e-08 -6.784306e-08 -4.53551e-08 7.560702e-09 3.571438e-08 1.9465685e-09 -9.3646186e-08 3.2563733e-08
1.4725339e-07 6.963668e-08 7.558317e-08 1.0978049e-08 8.50942e-09 -4.1602304e-09 -5.28491e-08 1.16432304e-07
5.0959073e-08 3.950953e-08 -4.8104727e-08 2.7567609e-08 1.0429521e-07 4.8712398e-08 -2.7515073e-08 5.3068135e-08
6.697252e-08 1.20559625e-08 -4.9050033e-08 -4.591959e-09 1.4768231e-07 -6.415576e-08 -1.7192866e-07 -6.19602e-09
8.0921254e-08 6.867775e-08 1.9143373e-08 3.4314485e-08 -9.3730335e-08 3.9296612e-08 3.8449862e-08 1.4843678e-08
1.9434768e-08 -6.0247625e-09 -3.6848704e-09 8.102963e-08 3.4149608e-08 8.982236e-08 9.1203326e-08 -8.480273e-08

sparse_weighted_adjacency_matrices.temporal_attention.query.bias f4 [64]
00000000: 0034 872e 01d2 7618 2dfa 173d 9483 7031
00000010: f250 813d c96d 5dbc dde6 c71d b641 cb9d
00000020: b868 3890 5da9 7dbd a376 b1bc 5b63 27b3
00000030: 526a e0bd 7003 74b7 3b35 b62c dd7e 8fb1
00000040: 2a3a c3bd 6dc5 f2bd 6f49 96bd c5b7 e03c
00000050: 0b9b 05b9 3f08 40af e106 88b9 a1d4 9ab2
00000060: 7148 5037 bf83 06bb 074f debc ca35 493a
00000070: f531 17b5 67d0 7d3d b680 2eb2 8ce0 1e3d
00000080: e2e1 cdbb b027 d1bc 6dcb 89bc c43b 3e3c
00000090: e622 ba3b f11a 833c cf32 7d39 91b5 80bb
000000a0: 5740 193b 1607 b2bc aaa3 c73c 2b9b 233c
000000b0: 531b 06bd eb8c 4b39 5952 a0bb 2317 c53c
000000c0: df16 1e2e 4641 ae21 0bc4 eb17 6625 703d
000000d0: 520d 473d f6e5 d7bc 3fe7 a5bc 6625 d3b3
000000e0: 87c4 8faf 76b0 99bd cdf4 9fbd 1214 7f33
000000f0: 91d2 4687 6a7d 163d e8f4 0724 ae63 a2a7
6.148326e-11 3.190078e-24 0.03710382 3.499939e-09 0.06314267 -0.013514944 5.291357e-21 -5.3801596e-21
-3.6368274e-29 -0.061929096 -0.021663016 -3.897308e-08 -0.10957779 -1.4544334e-05 5.178661e-12 -4.1762704e-09
-0.09532578 -0.11854062 -0.07338225 0.027431378 -0.00012741626 -1.7465228e-10 -0.00025945067 -1.8024652e-08
1.2414633e-05 -0.0020525304 -0.027137293 0.00076755567 -5.632458e-07 0.061966326 -1.01573985e-08 0.038788363
-0.006283031 -0.02553162 -0.016820634 0.011610929 0.0056804297 0.016004058 0.00024146888 -0.0039278944
0.0023384297 -0.021731894 0.024370033 0.009985725 -0.032740902 0.00019412085 -0.004892629 0.024058884
3.5945354e-11 1.1807976e-18 1.5236007e-24 0.058629416 0.048596688 -0.026354771 -0.020251868 -9.832256e-08
-2.615119e-10 -0.075043604 -0.07810364 5.9390068e-08 -1.4957744e-34 0.036740698 2.9480902e-17 -4.5072105e-15

sparse_weighted_adjacency_matrices.temporal_attention.key.weight f4 [64, 64]
00000000: ce2d 2b2d 4fbd 90ad 6b89 34a9 93eb 15aa
00000010: d914 e2ad d948 872d c6a8 c1ae 8a2c 3b2e
00000020: ff92 d7ae 35b1 19ae 90c6 422c 94d4 db2d
00000030: 792b 8f2d 2aac e0ad e450 b42a 4b7e 94aa
00000040: a53b 6f2e 8507 0fae 9090 b5ad 9efb 17ad
00000050: c750 c62d 89b8 c6ab 1ef2 2aae aef8 862e
00000060: 8b07 ea2e d1bb deaa 7595 2c2e ea14 022c
00000070: 7f91 2d2d 7438 c5aa 9172 91ae d792 902e
00000080: e4b7 b12b 64a5 862d a9cc 9aad 448b 8a2d
00000090: ccb7 382e 6313 ad2c 71e3 09ae b3d8 b12d
000000a0: 517e d52c f8ab e32c eefe 1cae 1248 c4ab
000000b0: 7a56 ba2e 2a99 29ae 07a8 e3ae d97d e92a
000000c0: 251c 902e c435 112d e58f 9a2b e2ff 232e
000000d0: d3ab b1ae cb22 a12d f747 d32d 4d4d d62d
000000e0: 233e 51ad da1c 2dad 54ff 14aa ffad a92e
000000f0: bd77 b1ac 13ee 882e 087e 9b2e d363 a2ae
00000100: 887d bc16 a2ee 8b97 ea78 9816 9047 1e93
00000110: 2a8a 7097 cb7c 9617 629a 9998 d7a5 5218
00000120: 66f8 9d98 29dc 2198 ff3b b816 e42a ee17
00000130: 70f6 c917 9501 0098 b398 7215 223c 6b14
00000140: 35a0 6418 1c3a 0898 7b6f de97 8120 2f96
00000150: d619 5c17 a3a8 8195 ffd2 1598 e859 7d18
00000160: cf37 a818 6540 4b17 0f4e 4818 1a49 8f16
00000170: 87b9 5697 da20 2f96 36d2 8298 6663 7318
00000180: 5209 de95 b648 ac17 096f e496 bbdd 8f17
00000190: ed51 4e18 35dc 0a17 8d95 0f98 88d1 0b17
000001a0: fb89 3317 a2c1 4115 e770 3998 8589 b115
000001b0: e831 8b18 b210 2b98 f146 a098 2d95 4b95
000001c0: 5aca 7518 c6ed 4017 b2a4 ab16 8584 4618
000001d0: cdcb 9298 3347 ea16 dc80 ed17 0cec 7f17
000001e0: f54b 5396 9e20 5e16 cfad 0396 6bc7 9018
000001f0: e8b3 7816 528e 7118 d323 8118 dba0 8898
00000200: 50b5 8e3b 48e0 54bc 7ce5 273b df85 9cb7
00000210: 16f5 60bc e5b9 613c 3c5e 30bd 989e ee3c
00000220: f9e8 34bd 632a bbbc 7a5a 533b 9302 9d3c
00000230: 1564 8d3c aaac a1bc 9025 b9b9 4c4d a5b8
00000240: 89f3 013d 4c87 aabc 0d6b 96bc c6be 06bc
00000250: db42 433c 3b78 5bba 3f6c b3bc 814d 153d
00000260: 43fc 403d 728b 7bbc fc40 e23c 5ce0 463b
00000270: 272d ecbb e711 d0ba aaf8 18bd 746b 0a3d
00000280: 3503 2abc 8c07 7d3c 5fbd 1cbc 9399 593c
00000290: a0e2 e63c fb3c 2bbc ea9c acbc e2a7 2b3c
000002a0: 1814 61bc 97a9 70bb b9b1 d3bc a65c 463a
000002b0: 2311 1f3d 36ad c5bc 455b 37bd f8fb 8d3a
000002c0: bf8d 0f3d 88c9 73bc 7d90 323b a357 e23c
000002d0: 1818 29bd fce7 203c d808 9a3c ae67 583c
000002e0: 89cf b3bb d253 863b ca90 673a 01ec 263d
000002f0: 34f1 a53a 9e48 0b3d c491 163d 578f 1ebd
00000300: fc35 8a31 9070 fdb2 1021 9bb1 bc72 d2ae
00000310: b0a5 19b3 c7e7 0433 615f 02b4 2a8d 8133
00000320: 25a5 09b4 6469 3bb3 7a10 8a30 193c 3533
00000330: 1cef 2833 28be 28b3 08c7 9031 f522 1631
00000340: 128f 9733 2421 3db3 0727 28b3 6596 e1b2
00000350: 5c75 f832 c111 5cb0 57e6 47b3 a1b2 b833
00000360: 2f09 1934 4391 8533 1c40 6f33 de14 4ab1
00000370: 8fcd bb31 8b95 c530 0772 c4b3 c166 ac33
00000380: d3c9 4033 4496 1633 de9d a8b2 a7bc 0033
00000390: f87d 7b33 0720 3333 623d 2fb3 a68e c132
000003a0: 5727 6933 3e28 2732 e37e 59b3 c1b0 32b0
000003b0: a2d6 e033 7313 4eb3 d612 0fb4 bc1d c2b1
000003c0: fec0 b733 ad53 8633 9b5e ddb1 661f 6933
000003d0: b5d5 f0b3 7155 c632 c64e 2433 553d 0d33
000003e0: 4998 75b2 66d8 8cb1 cbb2 a9b1 c914 e933
000003f0: 240c 00b2 aee8 ab33 faa7 c633 3da7 d7b3
9.730395e-12 -1.6454975e-11 -4.008722e-14 -1.331559e-13 -2.5702484e-11 1.5380074e-11 -8.806604e-11 4.2558436e-11
-9.80318e-11 -3.4945564e-11 2.7679282e-12 2.4991821e-11 1.6276524e-11 -2.5542308e-11 3.2030552e-13 -2.6377715e-13
5.4395283e-11 -3.2521114e-11 -2.0641516e-11 -8.6392265e-12 2.2545866e-11 -1.4119965e-12 -3.8868568e-11 6.137789e-11
1.0642428e-10 -3.9565446e-13 3.9241017e-11 1.848572e-12 9.866218e-12 -3.5033402e-13 -6.614188e-11 6.574446e-11
1.2627646e-12 1.5307484e-11 -1.759866e-11 1.575063e-11 4.2e-11 4.919108e-12 -3.1352202e-11 2.0218804e-11
6.067848e-12 6.4708204e-12 -3.5696716e-11 -1.3946641e-12 8.473662e-11 -3.8562188e-11 -1.03526125e-10 4.147644e-13
6.553361e-11 8.254234e-12 1.0982297e-12 3.728918e-11 -8.07955e-11 1.8319032e-11 2.4019882e-11 2.4363312e-11
-1.1894072e-11 -9.840318e-12 -1.3233625e-13 7.716138e-11 -5.043936e-12 6.2268544e-11 7.0709716e-11 -7.3846394e-11
3.045226e-25 -9.042904e-25 2.4633232e-25 -1.9977687e-27 -7.772257e-25 9.725025e-25 -3.970546e-24 2.7225592e-24
-4.0834367e-24 -2.0919915e-24 2.9764666e-25 1.5391217e-24 1.305153e-24 -1.654441e-24 4.899197e-26 1.1876327e-26
2.9549193e-24 -1.7606926e-24 -1.4374555e-24 -1.4146644e-25 7.1118443e-25 -5.2368747e-26 -1.9364324e-24 3.2744875e-24
4.3483334e-24 6.5674115e-25 2.5888804e-24 2.314903e-25 -6.93813e-25 -1.4146754e-25 -3.381647e-24 3.1457197e-24
-8.967979e-26 1.1133594e-24 -3.690546e-25 9.297131e-25 2.6666238e-24 4.4868145e-25 -1.855782e-24 4.517779e-25
5.8012175e-25 3.912879e-26 -2.396769e-24 7.17067e-26 3.598105e-24 -2.210966e-24 -4.1430663e-24 -4.1113202e-26
3.176767e-24 6.233866e-25 2.7730477e-25 2.5657805e-24 -3.79459e-24 3.7849672e-25 1.5348295e-24 8.2692877e-25
-1.7068412e-25 1.7943309e-25 -1.063694e-25 3.742449e-24 2.0090049e-25 3.1220373e-24 3.338189e-24 -3.53176e-24
0.00435511 -0.012992926 0.002561896 -1.8658988e-05 -0.013730308 0.013777231 -0.04305862 0.029128358
-0.044167493 -0.02284736 0.0032249973 0.019166267 0.017259637 -0.019735653 -0.00035313936 -7.882211e-05
0.031726394 -0.020816468 -0.018361593 -0.008224195 0.011917795 -0.0008372103 -0.021902202 0.036450867
0.047115576 -0.015353071 0.027618878 0.003034613 -0.007207531 -0.0015874476 -0.03734652 0.03379388
-0.010376741 0.015443694 -0.009566634 0.013281244 0.028184235 -0.010451551 -0.021070916 0.010477038
-0.013737701 -0.0036722177 -0.02584158 0.0007566906 0.038834702 -0.024130445 -0.044764776 0.0010832539
0.03504729 -0.014879592 0.0027246766 0.02762968 -0.041282743 0.009820934 0.018803045 0.013208313
-0.0054873866 0.0040993476 0.0008833526 0.040752415 0.0012660385 0.0340048 0.036760107 -0.03871092
4.022466e-09 -2.9504264e-08 -4.5148525e-09 -9.570075e-11 -3.577378e-08 3.0944445e-08 -1.2141892e-07 6.032708e-08
-1.2819199e-07 -4.3635183e-08 1.0045504e-09 4.2197005e-08 3.9333017e-08 -3.9288494e-08 4.213579e-09 2.1847744e-09
7.05751e-08 -4.4035133e-08 -3.9151043e-08 -2.6261839e-08 2.8924369e-08 -8.0060764e-10 -4.654279e-08 8.60066e-08
1.4252576e-07 6.219718e-08 5.570483e-08 -2.940673e-09 5.4657856e-09 1.4376139e-09 -9.147703e-08 8.028065e-08
4.488704e-08 3.5061262e-08 -1.9629564e-08 2.99739e-08 5.855506e-08 4.1705814e-08 -4.080119e-08 2.2533026e-08
5.428532e-08 9.729829e-09 -5.0639652e-08 -6.5007205e-10 1.0469854e-07 -4.79808e-08 -1.3324765e-07 -5.6495235e-09
8.5567066e-08 6.255082e-08 -6.442702e-09 5.4278097e-08 -1.1214744e-07 2.3089088e-08 3.825587e-08 3.2884902e-08
-1.4295503e-08 -4.099138e-09 -4.9388738e-09 1.0853689e-07 -7.453341e-09 8.005132e-08 9.250648e-08 -1.0042138e-07

sparse_weighted_adjacency_matrices.temporal_attention.key.bias f4 [64]
00000000: 99e2 4ea3 53dc 808d cb53 10b2 072d 4428
00000010: 7fbe b5b2 4a20 64b1 3cee 7992 21af 6b92
00000020: 2e5e af05 3191 d3b1 b583 b931 6d58 bba9
00000030: bfeb 2e33 179d ab2c cd1c a921 51a0 4325
00000040: 0b65 0732 7aa7 6f32 8754 3c33 2259 19b2
00000050: 103b 36ae cd07 6aa4 9348 caae ebd3 612a
00000060: a613 dba8 77b5 dcb0 f4c8 3fb3 da6b e92d
00000070: bece c1a8 244c 7db2 d3f9 59a8 8b86 7b32
00000080: 6129 7530 f93d b3b2 115b 1db2 520a 3f32
00000090: ccb8 f430 3302 f731 1972 6daf 342c eab0
000000a0: ea07 9f33 7383 cab1 5ee7 fbb1 ad12 3431
000000b0: 701d 93b2 e660 b030 2d8b 96b0 5b48 1932
000000c0: 14b8 3f22 0b84 8016 6e20 7e8d 421d 6d32
000000d0: 3f5b 9032 26d6 71af fa8a 4fb2 a945 df28
000000e0: 235d 9724 4862 3233 3ce4 afb2 c8da 7329
000000f0: d598 0180 c92d a4b1 3ada b796 143e 049d
-1.1215266e-17 -7.94165e-31 -8.4009555e-09 1.0889949e-14 -2.11578e-08 -3.319672e-09 -7.8864193e-28 -7.436879e-28
1.6491517e-35 -6.1574146e-09 5.399182e-09 -8.3198077e-14 4.0726942e-08 4.877553e-12 1.1459509e-18 1.6967871e-16
7.881009e-09 1.3949711e-08 4.3849038e-08 -8.926039e-09 -4.1434467e-11 -5.074727e-17 -9.198788e-11 2.0057538e-13
-2.4322405e-14 -1.6058682e-09 -4.465342e-08 2.6536929e-11 -2.1516965e-14 -1.4743851e-08 -1.2100092e-14 1.4640714e-08
8.9189284e-10 -2.0866525e-08 -9.159309e-09 1.112001e-08 1.7805859e-09 7.188896e-09 -2.159556e-10 -1.7038304e-09
7.405454e-08 -5.893918e-09 -7.331365e-09 2.6204063e-09 -1.7126439e-08 1.2833226e-09 -1.0953493e-09 8.922224e-09
2.5982777e-18 2.0762846e-25 -7.830883e-31 1.3801868e-08 1.68053e-08 -2.1994903e-10 -1.2080585e-08 2.4788184e-14
6.564359e-17 4.153324e-08 -2.047647e-08 5.41466e-14 -1.46661e-40 -4.7782334e-09 -2.9702965e-25 -1.7502148e-21

sparse_weighted_adjacency_matrices.spa_fusion.conv.0.weight f4 [8, 8, 1, 1]
00000000: b2fc 84b8 31fc 84b8 3cfb 84b8 62fb 84b8
00000010: a7fb 84b8 d1fa 84b8 4ff8 84b8 84f5 84b8
00000020: 110b 5c37 cc1d 5c37 f632 5c37 2f3c 5c37
00000030: 4741 5c37 5042 5c37 2741 5c37 4b3c 5c37
00000040: 5ccd 9d38 a3cb 9d38 11ca 9d38 4fc9 9d38
00000050: 0bc9 9d38 0cc9 9d38 2bc9 9d38 76c9 9d38
00000060: d24b 9b38 a749 9b38 ab47 9b38 c646 9b38
00000070: 7046 9b38 8246 9b38 d746 9b38 4d47 9b38
00000080: 2727 1abb f329 1abb 6227 1abb 3823 1abb
00000090: 4423 1abb 8a24 1abb a928 1abb ef2d 1abb
000000a0: 4f41 ec3c 5340 ec3c db44 ec3c 4447 ec3c
000000b0: 8448 ec3c 2949 ec3c 5c49 ec3c a049 ec3c
000000c0: 1c0d 8bb8 ba04 8bb8 1507 8bb8 1e08 8bb8
000000d0: 2d08 8bb8 ba07 8bb8 f606 8bb8 2706 8bb8
000000e0: cc9b 82ba aa9b 82ba 3b9b 82ba 089b 82ba
000000f0: d49a 82ba 389b 82ba c19b 82ba 359c 82ba
-6.341319e-05 -6.341225e-05 -6.3410465e-05 -6.341074e-05 -6.3411244e-05 -6.340969e-05 -6.3405016e-05 -6.339981e-05
1.3115598e-05 1.31199595e-05 1.3124887e-05 1.3127034e-05 1.312822e-05 1.3128461e-05 1.3128191e-05 1.312706e-05
7.5245945e-05 7.524274e-05 7.523981e-05 7.52384e-05 7.5237906e-05 7.523791e-05 7.523814e-05 7.5238684e-05
7.4050986e-05 7.404695e-05 7.404325e-05 7.4041585e-05 7.404096e-05 7.404109e-05 7.404171e-05 7.404257e-05
-0.0023521872 -0.002352354 -0.002352201 -0.0023519527 -0.0023519555 -0.0023520314 -0.002352277 -0.0023525914
0.028839735 0.028839266 0.028841427 0.028842576 0.028843172 0.02884348 0.028843574 0.0288437
-6.630478e-05 -6.628917e-05 -6.6293556e-05 -6.6295484e-05 -6.629559e-05 -6.629476e-05 -6.629333e-05 -6.6291825e-05
-0.0009964644 -0.0009964604 -0.0009964475 -0.0009964416 -0.0009964355 -0.0009964472 -0.0009964631 -0.0009964766

sparse_weighted_adjacency_matrices.spa_fusion.conv.0.bias f4 [8]
00000000: 2d0f abb9 b19e 71bb b7c7 89ba e462 e8ba
00000010: 6b0e f03c 05eb 273e 2e6d 67b9 16f3 05bc
-0.00032626968 -0.003686827 -0.001051179 -0.0017729667 0.02930375 0.16398247 -0.0002207055 -0.008175632

sparse_weighted_adjacency_matrices.interaction_mask.spatial_asymmetric_convolutions.0.conv1.weight f4 [4, 4, 3, 1]
00000000: 24aa 3c3c 61fa 823c 97aa 573b 24aa 3c3c
00000010: 61fa 823c 91aa 573b 24aa 3c3c 61fa 823c
00000020: 8eaa 573b 24aa 3c3c 61fa 823c 97aa 573b
00000030: 14c2 073c facb a53c 248c 543b 11c2 073c
00000040: facb a53c 248c 543b 11c2 073c facb a53c
00000050: 248c 543b 14c2 073c facb a53c 248c 543b
00000060: 563e 5a3c 3faa 643c c6d0 8836 563e 5a3c
00000070: 3faa 643c c6d0 8836 563e 5a3c 3faa 643c
00000080: aad7 8836 563e 5a3c 3faa 643c c6d0 8836
00000090: 0891 4f3c 34bd 8b3c b8e8 673c 0691 4f3c
000000a0: 34bd 8b3c b8e8 673c 0891 4f3c 34bd 8b3c
000000b0: b8e8 673c 0691 4f3c 34bd 8b3c b8e8 673c
0.011515174 0.01598853 0.0032908076 0.011515174 0.01598853 0.0032908062 0.011515174 0.01598853
0.0032908055 0.011515174 0.01598853 0.0032908076 0.008286018 0.020238865 0.0032432163 0.008286015
0.020238865 0.0032432163 0.008286015 0.020238865 0.0032432163 0.008286018 0.020238865 0.0032432163
0.013320526 0.013956605 4.0774203e-06 0.013320526 0.013956605 4.0774203e-06 0.013320526 0.013956605
4.0782224e-06 0.013320526 0.013956605 4.0774203e-06 0.0126688555 0.017057993 0.014154606 0.012668854
0.017057993 0.014154606 0.0126688555 0.017057993 0.014154606 0.012668854 0.017057993 0.014154606

sparse_weighted_adjacency_matrices.interaction_mask.spatial_asymmetric_convolutions.0.conv2.weight f4 [4, 4, 1, 3]
00000000: baf7 9ebc 5ffa 823c aaea ec3c baf7 9ebc
00000010: 5ffa 823c aaea ec3c baf7 9ebc 5ffa 823c
00000020: aaea ec3c baf7 9ebc 5ffa 823c aaea ec3c
00000030: 73c8 b1bc fccb a53c c10a de3c 73c8 b1bc
00000040: fccb a53c c10a de3c 73c8 b1bc fccb a53c
00000050: c10a de3c 73c8 b1bc fdcb a53c c10a de3c
00000060: 7a14 88bb 41aa 643c e9a7 e53c 7a14 88bb
00000070: 41aa 643c e9a7 e53c 7a14 88bb 41aa 643c
00000080: e9a7 e53c 7a14 88bb 41aa 643c e9a7 e53c
00000090: 2315 0fb9 32bd 8b3c 53c3 f83c 2315 0fb9
000000a0: 32bd 8b3c 53c3 f83c 2315 0fb9 32bd 8b3c
000000b0: 53c3 f83c 2315 0fb9 32bd 8b3c 53c3 f83c
-0.019405235 0.015988527 0.02892049 -0.019405235 0.015988527 0.02892049 -0.019405235 0.015988527
0.02892049 -0.019405235 0.015988527 0.02892049 -0.021702027 0.020238869 0.027104737 -0.021702027
0.020238869 0.027104737 -0.021702027 0.020238869 0.027104737 -0.021702027 0.02023887 0.027104737
-0.0041528316 0.013956607 0.028034167 -0.0041528316 0.013956607 0.028034167 -0.0041528316 0.013956607
0.028034167 -0.0041528316 0.013956607 0.028034167 -0.00013645417 0.017057989 0.030366575 -0.00013645417
0.017057989 0.030366575 -0.00013645417 0.017057989 0.030366575 -0.00013645417 0.017057989 0.030366575

sparse_weighted_adjacency_matrices.interaction_mask.spatial_asymmetric_convolutions.0.conv2.bias f4 [4]
00000000: 4df9 34bc 1ffe 9dbc fffb 0f3d bf9f a3ba
-0.011045766 -0.019286213 0.03515243 -0.0012483521

sparse_weighted_adjacency_matrices.interaction_mask.spatial_asymmetric_convolutions.1.conv1.weight f4 [4, 4, 3, 1]
00000000: 7c69 253c ec22 6b3c dad5 ab3a cb30 113c
00000010: 4b2a 803c 7b02 663b c20c 583c 7872 773c
00000020: 95f0 04bb 05bf 133c 3992 433c e139 1f39
00000030: ae22 e33b f533 ae3c a898 263b 75da c23b
00000040: 1300 b63c 1b48 8c3b c973 173c ebcb a63c
00000050: 6bd0 71ba 5745 ad3b 511f 923c 62f6 5e3a
00000060: eff7 1a3c 3755 4d3c 835e 28ba 0496 023c
00000070: b74c 453c 011b ba38 0711 3a3c 72e3 363c
00000080: 3196 aabb c9d5 0c3c 5069 323c d147 02bb
00000090: a895 5d3c 3035 993c 01d2 893c 8296 403c
000000a0: 72f9 933c 4ee5 883c 6cb2 833c 1f3a 9b3c
000000b0: aee7 873c 6749 5d3c c208 8c3c af0c 833c
0.01009595 0.014351588 0.0013109997 0.008861731 0.015645167 0.0035096693 0.013186635 0.015102975
-0.0020285 0.009017711 0.011936718 0.00015184983 0.0069316244 0.02126501 0.002542058 0.0059464523
0.022216832 0.0042810566 0.009243914 0.020360908 -0.0009224477 0.005287807 0.017837198 0.0008505342
0.009458526 0.012532524 -0.0006422775 0.007970337 0.012042216 8.874201e-05 0.011356599 0.011162626
-0.0052058925 0.008595892 0.010889366 -0.0019879232 0.01352445 0.01870212 0.01682377 0.011754634
0.01806328 0.016710903 0.01607629 0.018948613 0.016589966 0.01350627 0.01709402 0.015997259
